checkpoints/ae-mnist-conv-latent-dim-2.ckpt (torch, 461167 bytes, 17 tensors)

vae.enc_convs.0.weight f4 [28, 1, 3, 3]
000000 4d 4b 00 bf 6e b1 a8 bd 6f 35 6f bf dc 19 5e be
       -0.501149 -0.08236967 -0.9344091 -0.21689552
000010 e6 37 e5 3e 6a 52 e7 be 5f 90 80 bf b7 ff 8a bf
       0.4476921 -0.45180064 -1.0044059 -1.0859288
000020 d2 a2 06 bf b8 61 16 3e 07 c7 8e be 05 c5 96 be
       -0.52592194 0.14685714 -0.2788622 -0.2944719
000030 42 79 00 3f 5e 8e 85 be e7 b3 d2 3b a1 88 2f 3e
       0.50185025 -0.2608518 0.0064301374 0.17141964
000040 e2 46 d4 be 0a 6c 39 be 06 51 3a be 5d 57 ec be
       -0.4146033 -0.1810762 -0.1819497 -0.46160403
000050 23 5b 4f 3e 7e 32 ca 3e 4e d6 31 3d 9b 97 d1 3b
       0.2024961 0.39491647 0.043417268 0.0063962466
000060 94 74 fe bd f6 4e 2b bd 39 6e 93 3e 62 40 b6 be
       -0.12424579 -0.04182335 0.2879503 -0.35595995
000070 e4 06 ec be a0 60 f4 be 91 bc 74 3e 09 e4 a2 3d
       -0.46099007 -0.4772997 0.23900057 0.079536505
000080 71 de ff 3d 16 ee b9 be 78 c7 39 bd 0c 11 16 be
       0.12493599 -0.36314458 -0.045356244 -0.1465494
000090 84 8f 1c be 6d 55 b9 bd 05 ae 1d 3e 84 60 ab be
       -0.15289122 -0.09049497 0.15398414 -0.33472073
0000a0 ff 0e 44 3e 24 5c 9d 3e 22 03 5d be 5e 0d 7b bd
       0.19146346 0.3073436 -0.21583226 -0.061292045
0000b0 e6 45 a0 3e bd 3a 97 3c e6 b5 8d 3c 50 63 54 3e
       0.31303328 0.018460626 0.01729865 0.2074101
0000c0 63 3b 08 3e 6d 29 c5 be b3 7d e0 be 4a 4d 98 3e
       0.13303904 -0.38508168 -0.438459 0.29746467
0000d0 2e 29 2f 3e e1 31 9b bd c6 2f 0f 3d e3 f7 b7 3e
       0.17105553 -0.07577873 0.03495767 0.3593131
0000e0 0c 5c 27 3e 8b 89 1a 3e 74 cd c4 3e 80 91 3b 3e
       0.16343707 0.15091531 0.38437998 0.18317223
0000f0 f3 46 49 3e fa c5 7b bc 9a a5 17 3e 94 8f 0b 3e
       0.19655971 -0.0153670255 0.14809266 0.1362899
000100 06 0e 37 be b2 a1 7b be b4 16 b2 be c7 bc 5a 3e
       -0.17876443 -0.245734 -0.34782946 0.21361075
000110 27 ae 44 bd 1f a5 2c 3e 7b 13 a4 3e f5 33 fd 3d
       -0.048017647 0.16859864 0.32046112 0.12363426
000120 ca bd e9 3e 80 33 10 3b 41 10 92 be e1 8f a5 3e
       0.4565261 0.0022003353 -0.28528026 0.32336333
000130 94 fc 25 be 7e a2 b6 be 04 dc 0d 3e 1f 9a 87 be
       -0.16209632 -0.35670847 0.1385346 -0.26484773
000140 4d 63 11 3e db 87 35 3d b5 3e 4b be e0 8b 08 3e
       0.14198036 0.044319015 -0.1984814 0.13334608
000150 00 9e 0e 3e 9c a7 a9 3e b8 a4 ab 3e 9d 35 44 3e
       0.1392746 0.33135688 0.33524108 0.19161077
000160 c8 a9 98 bb 72 da ad 3e 76 20 d5 be a4 09 4f 3d
       -0.0046589114 0.33955723 -0.41626328 0.050546303
000170 e6 77 91 3e de c6 c3 bd e2 fa ea bd c1 2b 3b be
       0.28411788 -0.09559415 -0.11473633 -0.1827841
000180 19 32 81 3e 3b fb 57 3e 6a 95 aa 3e 5b 8b 5b 3e
       0.25233534 0.2109193 0.3331712 0.21439879
000190 50 95 35 be 7c 98 b2 3c 9c 3f 2f 3e a1 68 de bd
       -0.1773274 0.021801226 0.17114109 -0.108598
0001a0 b3 63 9d 3d 30 a4 ba 3e 9c 53 a2 3e e7 d5 81 3d
       0.07685032 0.3645339 0.31704414 0.06339627
0001b0 3b ad 8c 3e b0 f7 a5 3e eb 11 75 be d7 7e 85 3e
       0.27475914 0.32415533 -0.23932616 0.26073334
0001c0 9f ab 2e 3e 2f 11 d0 be 8b f9 8e 3e dd 47 36 bd
       0.17057656 -0.4063811 0.2792476 -0.044502128
0001d0 4a 1d d4 be db e8 39 bc a6 e5 ed bd e3 28 e4 3e
       -0.41428596 -0.011347021 -0.116160676 0.44562444
0001e0 df 24 d5 be 32 48 e9 bd 1a c4 bd 3e 73 45 96 be
       -0.41629693 -0.11390723 0.37063676 -0.2934986
0001f0 8d 95 82 be 46 34 dc 3e d1 4b 40 be ff 77 50 3e
       -0.25504723 0.4300863 -0.18778922 0.20358275
000200 fd 52 90 bd 98 8f 9a be 6d d0 9f 3e 20 31 c5 be
       -0.07047079 -0.30187678 0.31213704 -0.38514042
000210 78 3b a6 3e 1e 21 e4 3e 70 83 eb bc eb 4f 64 be
       0.32467246 0.44556516 -0.028749198 -0.22296111
000220 d5 8d d7 be 58 26 02 3e 14 31 66 3e f3 4b 59 be
       -0.42100397 0.1270994 0.2247966 -0.21220379
000230 20 35 8a 3e 18 ae d5 be 0f 0d 2d be 2d 2a 01 be
       0.26993656 -0.41734385 -0.16899513 -0.12613745
000240 84 5d 6e be 88 0f 03 3f d9 9a 4f bd c2 0f 08 be
       -0.23277861 0.51195574 -0.050684784 -0.13287261
000250 00 54 3f bd cc eb 66 be 71 b3 8f bc 2c 1e dd bb
       -0.046710968 -0.22550887 -0.017541619 -0.0067479815
000260 8a 5d 01 be 74 0a 1f bb 93 99 c6 3e 17 99 d5 3d
       -0.12633339 -0.0024267705 0.38789043 0.1042959
000270 9e e8 27 3e c0 a5 24 3d de 99 93 be 44 6f 15 bf
       0.1639733 0.040197134 -0.2882833 -0.583729
000280 86 49 04 bf 9a eb 07 bd 90 fc 8c 3c fe 36 fe 3d
       -0.5167469 -0.03318367 0.017210275 0.12412833
000290 2c 87 e3 3b 7e 44 59 be 16 ce 06 be 74 e8 dd be
       0.006943604 -0.21217534 -0.13164553 -0.4334141
0002a0 0b 96 2a bf a1 a1 60 be 8f b3 e3 3d 05 a2 80 be
       -0.666352 -0.21936657 0.111182325 -0.2512361
0002b0 13 6e 6e 3e ab c6 2d 3f 0f 2e 31 be 85 79 51 be
       0.23284177 0.6788127 -0.17302726 -0.20456512
0002c0 ce 73 75 be 1b 6b e8 3d 25 ce 74 be d7 3e f2 be
       -0.23969957 0.11348554 -0.23906763 -0.47313568
0002d0 e2 e6 5c bd df 80 22 3d ec aa 17 bf 46 b0 6c be
       -0.053931125 0.039673682 -0.5924518 -0.23114118
0002e0 dc 16 eb 3d 3f 87 64 be c9 22 2c 3e a1 f0 fd be
       0.114789695 -0.22317217 0.16810144 -0.49597648
0002f0 39 b5 9c be d2 f9 99 be dc a4 a3 3d a5 76 53 bd
       -0.30607012 -0.3007341 0.07990429 -0.05162682
000300 8b 6d 26 3d d0 23 95 3d a8 ce 32 3d 6d d6 de 3b
       0.040631812 0.07282221 0.043654114 0.006800464
000310 5b 18 83 3d b7 f3 1e 3e db ea 8a be ae 53 30 bd
       0.0640113 0.15522657 -0.27132306 -0.043048553
000320 4a dd 5b be 14 ed 0f bf f2 96 eb be be d8 34 be
       -0.21471134 -0.5622113 -0.460136 -0.17660806
000330 82 1c 84 3e fd 0d 01 3f 3f c7 09 3f e3 66 22 bf
       0.25803 0.5041197 0.5381965 -0.6343824
000340 bd 00 97 be 9b 00 c9 be 7a e2 31 be 04 cc 02 3e
       -0.2949275 -0.39258274 -0.1737155 0.12773138
000350 53 f3 dc 3e 6b 32 cd 3d 79 c5 ec 3e f3 5a b7 bd
       0.43154392 0.10019382 0.4624441 -0.08952894
000360 b1 3c dc be 51 be 64 be d1 f7 e8 be fc 3f 34 3e
       -0.43015054 -0.22338225 -0.4550157 0.17602533
000370 70 20 a4 bd 58 b9 72 bb eb 27 07 3f 6d 85 e6 3e
       -0.080139995 -0.0037036743 0.52795285 0.4502367
000380 e9 7e 07 be f6 9c bd 3d ed 0b 26 be 00 e9 79 3e
       -0.13232006 0.092584535 -0.16215487 0.24405289
000390 7c f7 75 be 90 52 85 be 3d d8 1f 3e 1a b6 94 3e
       -0.24020189 -0.26039553 0.15609832 0.29045182
0003a0 e0 f7 be 3d 74 6d 6b be 70 da a5 3e 6b b1 d2 3e
       0.09324622 -0.22990972 0.32393217 0.41150984
0003b0 65 8d 83 3e 57 60 0a 3d 90 e7 02 be 81 d9 01 3e
       0.25693813 0.033783283 -0.12783647 0.12680627
0003c0 7c bc 8c bc a5 79 d6 be ee a3 84 bd e4 ab 93 bc
       -0.01717972 -0.41889682 -0.064765796 -0.0180263
0003d0 e7 74 7d be 5a d4 19 bc cd 9f 94 3d 07 4b 73 3d
       -0.24751626 -0.009389007 0.07257042 0.059397724
0003e0 f5 3c 18 3e de af e6 3d 0b 87 de be cf 02 73 3e
       0.14867003 0.11264013 -0.43462405 0.2373154

vae.enc_convs.0.bias f4 [28]
000000 20 6d 13 3e 0f d6 22 3d de c6 58 3d 9f 58 83 3e
       0.14397097 0.039754923 0.05292403 0.2565355
000010 4c 59 6e 3d 1f e1 a5 3d ac ea 1e be c2 43 06 3e
       0.05819063 0.08099579 -0.15519208 0.13111785
000020 0d 8d a1 ba 78 2b 6a bb 5e 8e 9d 3c 40 d1 50 3b
       -0.0012325362 -0.0035731476 0.019232925 0.0031863004
000030 b9 23 3d 3c a9 5e 7a ba 51 fa 4b 39 32 5a 3d 3e
       0.0115441615 -0.00095508486 0.00019452839 0.18491438
000040 23 d1 a4 bd 3f 14 8d 3e 72 06 97 3e 9e 88 d1 bd
       -0.08047702 0.2755451 0.29497105 -0.10231136
000050 e3 0d 61 3e a3 e4 01 3e ea 12 a4 3d fc 23 70 be
       0.21977954 0.12684874 0.0801142 -0.23451227
000060 cb 68 cf 3d 4d 62 3f bc 8c 11 c6 3d 5c ca 3e 3d
       0.101274095 -0.011681152 0.096713156 0.046579704

vae.enc_convs.2.weight f4 [64, 28, 3, 3]
000000 79 45 f0 3d 99 ab cb bc 41 e2 47 bd 1b a4 86 3d
       0.11732001 -0.024862098 -0.048799757 0.065742694
000010 37 8a 2f 3d 1b 52 0a bc bb b9 e6 3d d1 c2 90 3d
       0.04285642 -0.008442427 0.11265894 0.07068408
000020 2d 50 b0 3b 92 00 89 be d0 8a de bc 89 d6 20 be
       0.0053806514 -0.26758248 -0.0271658 -0.15706839
000030 60 c3 40 be 81 fc 00 3c 7a 32 03 bc 66 df 83 be
       -0.1882453 0.007872702 -0.00800764 -0.25756377
000040 68 1a d4 bd 5c a0 a4 3d fe d0 2c bd 68 09 05 bd
       -0.10356599 0.080383986 -0.042191498 -0.032479674
000050 a2 ab e9 bc df 23 12 bd 7a 10 15 bd a9 e1 76 3d
       -0.028524224 -0.03567874 -0.036392666 0.0602738
000060 2d 56 d0 3c 9f 88 b6 3d 53 8b 67 bc 42 63 aa 3d
       0.025431717 0.08912777 -0.014132339 0.08319713
000070 3a 58 32 3d 1b 26 69 bc 87 8e 88 3d 38 a6 d3 3b
       0.04354117 -0.014230276 0.0666781 0.006459024
000080 10 46 ab 3c 97 26 19 3d 03 a1 16 bd 2a 5a 4c 3d
       0.020907432 0.037390318 -0.036774646 0.049890675
000090 33 82 9c 3d 08 e1 96 bc b6 e5 02 3d 6d 35 39 3d
       0.07642021 -0.01841785 0.03195735 0.045216966
0000a0 23 f1 e5 bc f3 43 13 3d db 0b 86 3d 3a eb d6 3d
       -0.028069085 0.035953473 0.0654523 0.10494085
0000b0 96 5c 9f 3d 6c 44 c2 bd c0 17 38 bd 2c 63 d9 bb
       0.07781331 -0.09485707 -0.044944525 -0.0066341367
0000c0 95 33 3e bd 48 9a c9 3c 37 65 e5 bd bc d0 d2 bc
       -0.04643591 0.0246097 -0.11200946 -0.025734298
0000d0 5b 8d 1e bd bf 82 58 bd 72 d1 e0 bb ea ee b2 3d
       -0.038709026 -0.052859064 -0.0068609053 0.087369755
0000e0 91 68 06 be c8 19 89 bd 5c d4 14 bf b2 17 b5 bd
       -0.13125826 -0.066943705 -0.58136535 -0.0884241
0000f0 22 47 32 bf 75 7c 2d bd ce 6a f4 3d c0 53 62 bd
       -0.6963979 -0.04235502 0.11934434 -0.05525565
000100 a3 0e 12 3d 9d ba 32 bd 6d 0e 29 bd 22 26 1a 3d
       0.03565849 -0.043635 -0.041273523 0.037634023
000110 d7 d8 cc 3d 93 f5 5d bd d1 c7 cb bc 85 8b a8 3d
       0.100022964 -0.054189276 -0.024875553 0.08229736
000120 a7 2b d2 be 8f 3e 13 3e 97 4f a0 3d 28 eb c9 be
       -0.4104893 0.14379333 0.078276806 -0.39437222
000130 71 ba ca bd 22 bc 69 be 65 1b 08 bf 77 0a 02 be
       -0.09898842 -0.22825673 -0.531668 -0.12699305
000140 7f 6b e6 3e 65 be 91 3d be f9 9b bd 3b 9b ee bd
       0.45003888 0.07116393 -0.07615994 -0.116507016
000150 c9 7d 8b be d0 cc 8f bd da 90 cf bc f0 3a b7 be
       -0.27244404 -0.07021487 -0.025337625 -0.35787153
000160 93 0b 34 bc 02 b8 0d 3e 8a 57 a6 3d d3 e3 05 bd
       -0.010989088 0.13839725 0.081221655 -0.032687973
000170 e7 2b 44 bd d6 32 00 bd ba 22 22 bd c4 97 fc 3c
       -0.04789343 -0.03129848 -0.0395839 0.030834086
000180 3e 5e 29 be a3 c2 c8 3d 9e 07 c7 3d 75 13 49 be
       -0.16539857 0.09802749 0.0971825 -0.19636329
000190 98 9b c5 bd d2 5f 95 bd e5 99 72 be 06 69 0e be
       -0.09648818 -0.07293667 -0.23691519 -0.13907251
0001a0 f9 45 9c 3d 3d 65 32 bf 49 39 ac bd 4a 92 06 3e
       0.07630534 -0.6968573 -0.08409364 0.13141742
0001b0 04 81 6b be c5 9e b7 3d 5a 52 13 3e 95 43 7b be
       -0.22998434 0.0896583 0.14386883 -0.24537499
0001c0 dd f8 b4 bc cc a4 22 be aa 24 b9 be 9f 0f 9a be
       -0.022091324 -0.15883178 -0.36160785 -0.30090043
0001d0 47 e7 af 3b ea ec 98 3e 3d af 05 be b5 91 82 3d
       0.0053681466 0.2986825 -0.1305513 0.06375448
0001e0 97 65 cd be 40 3c 2b bd 34 f6 84 3d 88 4d 88 3c
       -0.4011657 -0.041805506 0.06492272 0.016638532
0001f0 8f 97 5f 3e 09 69 26 3e 17 cc ec 3d ae 7e 91 be
       0.21835159 0.16251005 0.115623645 -0.2841696
000200 b6 c6 29 be f8 ac 2a 3d f8 45 3d be 20 e3 bc 3d
       -0.16579708 0.041668862 -0.18483722 0.09223008
000210 2e cd 13 bf 2a e4 d8 bd 57 8c 4f 3d 5d 0e 90 3d
       -0.57734954 -0.10590394 0.050670948 0.070339896
000220 85 af c1 bc 04 fe 57 bc 81 59 27 3d c4 5d 43 3d
       -0.023643265 -0.013183121 0.040856842 0.047696844
000230 b9 e8 29 bd 32 58 e9 3d d9 c6 de 3c ba 9d c6 bd
       -0.041481707 0.11393775 0.027194427 -0.09698053
000240 54 40 c9 3c a4 b1 21 3d 25 e7 c3 bd a9 e4 c6 3b
       0.024566807 0.039476052 -0.09565572 0.006069739
000250 4f 22 53 3d 68 78 24 bc b6 ab bc 3d f2 45 10 3d
       0.05154639 -0.010038473 0.09212439 0.035222955
000260 a3 84 89 bd 27 af 78 3d 89 5c 0a 3b 20 c5 b2 3d
       -0.067147516 0.060713913 0.0021112284 0.08729005
000270 1c a1 39 3d ad 35 57 3d c0 62 ca bc 98 ff 45 3d
       0.04531966 0.052541424 -0.02470529 0.048339456
000280 2f 88 75 3d 3f 24 08 3d b5 29 81 bc 0f cc c9 3c
       0.059944328 0.033237692 -0.015766958 0.024633436
000290 35 bc 08 3d 7d ff 54 3c ef 27 79 3d 42 59 06 3d
       0.033382613 0.013000366 0.0608291 0.032799967
0002a0 08 26 30 3d b6 85 02 3b c8 21 14 ba 40 d2 05 bc
       0.04300502 0.0019916124 -0.0005650786 -0.008167803
0002b0 71 52 36 3e f2 f3 ca 3d 42 16 ad bd a7 40 c0 3d
       0.17804886 0.0990981 -0.08451511 0.093873315
0002c0 ef df 35 be cf 05 17 bd 4e 10 57 be b3 a0 28 be
       -0.17761205 -0.036870774 -0.21002313 -0.16467552
0002d0 36 f8 da 3c ee 87 a6 3c 0a ff 03 bd 82 be 28 3c
       0.026729684 0.020328488 -0.032225646 0.010299327
0002e0 3a 0f 46 3d 8d 9f 3e bd bd 48 9c 3d a8 91 e6 3c
       0.048354365 -0.04653888 0.07631061 0.028145626
0002f0 fa 68 6e bc 1e ba c7 bb 1a b1 89 3c 9f 00 47 bd
       -0.014551396 -0.006095185 0.016808081 -0.048584577
000300 64 1b e6 bc 11 fe 60 3d 4a 2d 46 3c 08 8f d8 bc
       -0.028089233 0.054929797 0.012095759 -0.02643539
000310 c4 28 e2 3c be 29 a5 3c b2 a6 03 3c 77 15 6e 3c
       0.02760733 0.020161506 0.008035349 0.014531485
000320 ac 99 76 3d b7 b6 82 bd 16 42 e7 3c d3 a2 2f 3e
       0.060205147 -0.06382506 0.028229754 0.17151956
000330 fc 2f f8 3c 5b 59 7e 3d 60 d3 e9 bc 57 3e d0 3c
       0.030296318 0.062096935 -0.028543174 0.025420351
000340 a7 64 24 3d 54 ea a6 bd a5 28 93 3d 6b 4a 8c bd
       0.040135052 -0.08150163 0.07185487 -0.068501316
000350 91 0a a7 3d 09 b3 e4 bc 00 a4 2c bb f2 5a ad 3c
       0.08156312 -0.027917402 -0.0026342869 0.02116153
000360 13 89 88 3d 1d 91 a2 bc 62 d9 55 bc 97 94 b8 bc
       0.0666677 -0.019844586 -0.013052316 -0.02253179
000370 93 b3 d0 3c dd 8f 61 3d ea f8 c1 bd 36 06 5d bd
       0.025476253 0.05506884 -0.09471305 -0.053961
000380 6f 09 bc 3d 29 0b b4 bd c7 d0 0a be eb 92 3b 3d
       0.09181487 -0.08791191 -0.13556205 0.04579441
000390 29 0a bb be 20 c0 4d 3d 50 ff 2a bd 4b 56 54 be
       -0.3653119 0.050232053 -0.04174739 -0.20736043
0003a0 de 58 1d 3b 34 b3 74 bd e1 e8 3b ba db 50 63 3d
       0.0024009268 -0.059741214 -0.00071681855 0.05549703
0003b0 52 f5 0a 3c d6 96 cb bc b3 77 2f bd 90 09 ce bd
       0.0084813405 -0.024852198 -0.042838763 -0.10060418
0003c0 90 02 82 bc 6d 64 0e bd 95 b9 25 bc bd b2 3c bc
       -0.015870363 -0.034763742 -0.010115047 -0.011517224
0003d0 a7 37 31 bb b8 a2 2c bd 54 eb 04 bb 10 a1 0f 3c
       -0.0027041228 -0.04214737 -0.0020281868 0.008766428
0003e0 e5 ed 14 bb bb ae c9 3c 9b 4d a0 3d 28 57 34 bd
       -0.0022724804 0.02461945 0.07827302 -0.04402843
0003f0 46 3c a0 bd c4 0b cb bd fc 80 67 bd 8e 5d c7 3c
       -0.07823996 -0.099143535 -0.056519493 0.024336603

vae.enc_convs.2.bias f4 [64]
000000 2b 9c 42 bd c1 b1 2f bd 5d 96 92 bc 52 24 80 3d
       -0.047512215 -0.04289413 -0.017893964 0.062569275
000010 d4 86 3c bd fe f4 95 bd e6 83 6d 3d 0d b1 3a 3d
       -0.04602702 -0.07322119 0.057987116 0.045579005
000020 d5 c7 10 bd 1e 2b 6e 3d 97 3c 67 bc ee 89 9a bd
       -0.035346825 0.05814659 -0.014113567 -0.07545839
000030 ed 64 0b 3d 5c 5c 47 3d 54 19 f0 3c 40 cc 7e 3d
       0.034031797 0.048672065 0.029308952 0.062206507
000040 b9 ba e5 ba 26 51 8e 3c fa 57 0d 3c d5 99 de 3c
       -0.0017526961 0.017372679 0.008626932 0.027172962
000050 66 08 0b 3d 72 07 1b 3c fa e1 10 bc ca a8 15 bd
       0.033943556 0.009462224 -0.0088429395 -0.036537923
000060 7b 27 43 bd 7d 17 c1 3d 4c 97 f2 3c 23 60 a2 3c
       -0.047645073 0.09428308 0.02961316 0.019821232
000070 01 30 b4 bc bd 00 1e 3d fa da 32 ba 6c c5 0d bd
       -0.021995546 0.038574923 -0.0006822791 -0.034612104
000080 54 26 ab bc e7 58 b7 bd cc 31 01 3c 8f fa 13 bd
       -0.0208923 -0.08952504 0.007885408 -0.036127623
000090 33 7b 8d 3d 75 8d a9 bd 3b 40 85 3c fa 5a f9 3d
       0.06908264 -0.08278934 0.016265979 0.121755555
0000a0 91 84 f6 3a 74 10 35 bd 5c aa 52 3d 84 b4 46 3d
       0.0018807818 -0.044205144 0.051432 0.048511997
0000b0 f0 a3 7a bc 36 83 95 3d cd 08 35 3b 27 af f7 bb
       -0.015297875 0.07300417 0.0027623654 -0.0075587216
0000c0 f4 02 3b 3b 89 d6 bd 3c 09 91 07 3c 45 37 d9 3c
       0.0028535696 0.023173587 0.008274325 0.026515612
0000d0 cf 5f c3 3a 60 a8 7c 3d 1e 06 ba bc 44 46 dd bc
       0.0014905873 0.061684012 -0.022707995 -0.027011044
0000e0 ca 37 84 bc 68 be 35 3d 54 f0 03 3c b2 53 3d bd
       -0.016139884 0.04437104 0.008052904 -0.046222396
0000f0 4b 78 7b 3d 86 18 b7 3d 67 1b 06 bd f0 2e e2 3c
       0.061394017 0.08940224 -0.032740977 0.027610272

vae.enc_convs.4.weight f4 [64, 64, 3, 3]
000000 1b 55 80 ba 47 53 61 bd 82 13 69 bc 43 fa 86 bc
       -0.0009790988 -0.05501106 -0.014225842 -0.016476756
000010 41 a8 66 bd 4f 76 fd bc ee c6 71 3d c5 09 ef bc
       -0.056312803 -0.030940203 0.059027605 -0.029179463
000020 15 ac 3e 3d 2b 14 3b bb 11 e8 6b bc 89 a0 57 bd
       0.04655083 -0.0028545957 -0.014398591 -0.052643333
000030 9b fa 7e bd 78 4e 66 3c d7 62 69 bd 50 0a 1f bd
       -0.062250715 0.014056794 -0.056979027 -0.038828194
000040 f1 c4 de bc f2 ed 64 bd a1 d5 48 bd 24 9e 0b bd
       -0.027193518 -0.055890985 -0.049031857 -0.03408636
000050 d4 da c1 bc 3a eb a0 bd a5 0c 26 bc d8 5d de bc
       -0.023663916 -0.07857366 -0.010134851 -0.027144358
000060 c7 85 08 bd 2f 80 91 bd 4a ff 8e bc a1 3d e3 3c
       -0.033330705 -0.07104527 -0.017455716 0.027739348
000070 49 88 9e bc e4 4b 97 bd 99 88 96 bc 17 f0 35 bd
       -0.019352095 -0.07387522 -0.018375682 -0.04441842
000080 57 69 86 bd a2 b9 dc 3c ce b9 a0 39 c3 9a c7 bc
       -0.06563061 0.026943985 0.00030656013 -0.024365788
000090 2a 75 12 3c 97 01 d6 3c 9b b5 e1 bb 55 48 f9 bc
       0.008939067 0.026123805 -0.006888104 -0.030429998
0000a0 06 a8 57 bc 13 d5 4b bc eb 5d bb bd f4 1d 9c 3d
       -0.0131626185 -0.012440938 -0.09148773 0.076229006
0000b0 b4 26 81 3a 67 bc a1 3c ab b7 aa 3d a4 44 56 3d
       0.0009853453 0.019743158 0.08335813 0.052311555
0000c0 92 8d 36 3d 8e c4 64 3a be 44 6d 3d 09 3b a5 bc
       0.044568606 0.00087267987 0.057926886 -0.020169752
0000d0 ca 61 35 3d 4b d4 ba 3d 4f eb d5 bb 97 f7 c8 3d
       0.044282712 0.09122523 -0.006528295 0.09812849
0000e0 df e8 5e bd dd 99 6c 3c ae 52 03 3c 28 60 74 3c
       -0.054421302 0.014440981 0.008015318 0.014915504
0000f0 85 88 87 bc 97 4e 6c 3d 49 11 15 bd de 7c e5 bd
       -0.01654459 0.057692137 -0.036393438 -0.11205457
000100 40 16 9b bb dd 33 ca 3c cf c0 f3 3b c6 6d 90 3b
       -0.004732877 0.024682933 0.007438756 0.0044076173
000110 4f 28 16 3b c2 92 ba bd e7 21 d9 3c d1 3a ec 3a
       0.002291221 -0.09110023 0.026505424 0.00180229
000120 1a 66 87 3c db 60 a1 3c 83 60 a0 3b e7 87 a0 3b
       0.016528178 0.019699505 0.0048943176 0.0048990133
000130 1a 7f fa 3c e3 0b 3c be ac 87 db 3d b1 9a 90 bd
       0.030578185 -0.1836391 0.10719237 -0.07060755
000140 77 62 b5 bd dd 27 ba bc d3 35 84 bc b0 a6 99 bd
       -0.08856671 -0.022724086 -0.016138947 -0.07502496
000150 12 69 cb bb 26 92 aa bd 73 67 ad bd c1 ff 23 bd
       -0.0062075937 -0.08328657 -0.08466997 -0.040038828
000160 a2 bc 51 bc 62 12 ff 3b 6e b6 9f bd 03 9d 80 bd
       -0.012801321 0.007784174 -0.077984676 -0.062799476
000170 9c ec a8 bd 67 ba fc bc a9 d4 38 bd e0 ec d9 3c
       -0.08248255 -0.030850602 -0.045124684 0.026602209
000180 99 cd 3d 3c 74 ac 24 bd a2 48 a4 bc cb d5 35 3c
       0.011584663 -0.040203527 -0.020054165 0.0110983355
000190 e8 f9 b0 bc b6 34 75 bd 26 66 c1 3d fb 19 0e bd
       -0.02160354 -0.059864722 0.094433114 -0.034692746
0001a0 56 b0 74 3c a7 e3 6c 3c 6e 6f 3e 3b 6e 74 e6 3c
       0.01493462 0.014458573 0.0029058116 0.02813169
0001b0 e2 63 00 bc b3 48 8b 39 93 77 51 bd 6b d9 67 3c
       -0.007836314 0.0002656631 -0.051139425 0.014150958
0001c0 bc b1 b2 bc 97 d4 2b bc d3 fb bc bd 93 f1 75 bd
       -0.021813266 -0.010487697 -0.09227719 -0.060044836
0001d0 74 9b f1 bb d9 97 62 bd 1e 66 6a bd 7d b9 92 3c
       -0.007373268 -0.055320594 -0.057226293 0.017910713
0001e0 60 20 8c bd 18 d2 8f bd 70 13 cc bc 6d 56 02 bc
       -0.068421125 -0.07022494 -0.024911612 -0.007955176
0001f0 51 57 d9 3b 29 92 6c bc 19 20 a3 bd ed b6 8c bd
       0.0066327234 -0.014439144 -0.079651065 -0.06870828
000200 8e 49 e3 bc 73 e2 58 bd 80 66 db bc d6 38 31 bd
       -0.027745035 -0.052950334 -0.026782274 -0.043267094
000210 33 0b a2 bd a4 68 3d bd bc 11 a3 3b f6 6c 1c bb
       -0.07912292 -0.04624237 0.0049764793 -0.0023868657
000220 a6 98 8f 3c 3a e0 50 ba ec dd 7b 3c 5a f5 05 3b
       0.017528843 -0.00079679827 0.0153727345 0.002044043
000230 d1 53 08 bd 7b 2c 0a 3d 49 09 33 3d b3 d6 b2 bd
       -0.03328306 0.033733826 0.043710027 -0.08732357
000240 ff b0 18 bd 6c aa 8c bc e3 7a f5 3b 2c 92 54 bd
       -0.03727817 -0.017171107 0.007491456 -0.051897213
000250 aa 1b e4 bc 21 90 18 bd 44 c9 0e bd e1 c8 2d 3d
       -0.027845223 -0.037246827 -0.03485991 0.0424279
000260 75 d8 e7 b9 a9 da 19 bd 34 13 c6 bd f3 0f 76 bc
       -0.00044221026 -0.037562046 -0.096716315 -0.015018451
000270 32 9f 87 bd fe 70 36 bd d7 5a 94 bc e7 d8 89 bd
       -0.06622161 -0.04454135 -0.018109722 -0.06730824
000280 19 c7 05 bd 21 8a 07 bd bd 03 31 3b da eb 59 bd
       -0.032660577 -0.033090714 0.0027010285 -0.05320344
000290 2d 81 0e bc 7a 27 01 3d a8 f2 d9 3a e5 53 84 3c
       -0.00869779 0.03153179 0.0016628103 0.016153285
0002a0 87 3d 1a bc 6d c8 f2 bb 8f a0 03 3d b6 eb 93 bd
       -0.009414083 -0.0074091465 0.032135542 -0.07222693
0002b0 bd 29 00 bd d4 31 87 bc 9e e0 1f 3d 84 8e b5 3c
       -0.031289805 -0.016503252 0.03903257 0.022162683
0002c0 33 bd 13 bd c2 a5 0a 3d 31 01 49 bd 29 d0 4b bc
       -0.036069106 0.033849485 -0.0490734 -0.012439766
0002d0 bf 0c 4d bd ae 33 d0 bb a1 da 40 bd 29 d1 1c bd
       -0.050060984 -0.006353817 -0.0470835 -0.03828541
0002e0 32 94 8d bd 8a 23 91 3d 0d 4b 0f bb 3b c0 b1 bd
       -0.06913032 0.07086857 -0.0021864802 -0.08679243
0002f0 bf 91 05 be 47 82 1e bd b9 ab 00 bd cf 1c cc bc
       -0.13043879 -0.03869846 -0.031413767 -0.02491608
000300 10 cd d1 bd 7b 14 a5 bc 95 38 48 3d 97 d4 8b bd
       -0.10244191 -0.020151367 0.048882086 -0.06827658
000310 ac cd 38 bb 7c 0e a5 bc e8 52 52 3d 8d 68 25 3d
       -0.0028198762 -0.020148508 0.051348597 0.04038291
000320 6d b5 de bb 49 34 60 3b a9 d3 6d bd 7a e7 1b bd
       -0.00679653 0.0034210852 -0.058063183 -0.03806255
000330 af 33 72 bd b8 ae 9b bd f9 a8 cd bc 7b e5 0d bd
       -0.05913132 -0.07601684 -0.025104987 -0.034642678
000340 b6 29 20 3d 7a 12 be bc aa 45 1f 3d 44 7f 9b 3c
       0.03910228 -0.02320217 0.038884796 0.018981583
000350 0b 0a 3f bc 5f 4f 73 3c 2a 15 99 3c e4 7a 8d 3c
       -0.011660109 0.0148504665 0.01868685 0.017270513
000360 7b 67 36 bb ed 8f 9b ba e4 39 f9 3c b6 e2 4d 3c
       -0.0027832675 -0.0011868455 0.030423112 0.012566259
000370 c2 8a 24 bb 11 26 de 3c 27 58 d5 ba 81 07 a3 3c
       -0.002510712 0.02711776 -0.0016276882 0.01990104
000380 d2 b7 5c 3c 81 60 a4 bd 23 70 47 bd 3b d3 56 bb
       0.013471561 -0.08026219 -0.048690926 -0.0032779712
000390 44 9f 8b bd 07 04 68 bd 34 c4 96 bc 35 c3 3d bd
       -0.06817487 -0.056644466 -0.018404104 -0.046328742
0003a0 55 e1 fd 3a b4 76 29 bd 57 b7 0a be 31 be c9 bc
       0.0019369522 -0.04137297 -0.13546501 -0.024626823
0003b0 bd 09 49 3d 45 2d 82 bd 26 3f e8 bc 6d 88 06 be
       0.049081553 -0.06356291 -0.028350424 -0.1313798
0003c0 22 04 b2 bc bb a7 7a 3d 1b 13 2b 3d b4 3f 4c bd
       -0.021730486 0.061195116 0.041766267 -0.04986544
0003d0 bc 1f 74 bd de 4b e6 3c 13 01 bd bc 35 70 49 bd
       -0.059600577 0.028112348 -0.023071801 -0.049179275
0003e0 00 53 47 bd 01 b9 52 bb 70 09 35 bd f8 d7 98 3c
       -0.04866314 -0.0032153728 -0.044198453 0.01865767
0003f0 da 70 2f 3d 25 13 9c 3b c8 cb 24 bd 17 72 ed 3c
       0.042832233 0.0047630244 -0.040233403 0.028985066

vae.enc_convs.4.bias f4 [64]
000000 03 47 32 bd 08 53 57 b9 a8 e0 cc bc 92 d3 e6 bc
       -0.043524753 -0.0002053493 -0.025009468 -0.028177056
000010 dc df 51 3d 8f 5c bc 3d b0 bc bf 3c ce 24 ac 3c
       0.05123888 0.09197342 0.023405403 0.021013644
000020 95 e6 1c 3d bb 4e e1 bb 8d 27 b1 3a 17 b4 b9 3c
       0.038305838 -0.0068758405 0.0013515815 0.022668881
000030 70 15 b6 3d 73 c7 c1 bc 8f da 4b 3d e2 bd de 3c
       0.08890808 -0.023654675 0.04976898 0.027190153
000040 63 9a 86 bb bd 8c da 3c 67 3c 23 3a 23 41 90 3d
       -0.00410776 0.026678437 0.0006226957 0.07043674
000050 f6 10 6c 3d 3e a3 ab 3d 0b 7b bb 3c 48 9e 52 3d
       0.057633363 0.08380745 0.02288582 0.05142048
000060 1a 16 5e bc dd 32 84 3c 4b cd 11 3d 9b a6 5c 3d
       -0.013555074 0.016137535 0.035596173 0.053869825
000070 f5 c2 1e 3c 07 9d 06 3d 20 82 92 3b 92 73 35 bd
       0.009690036 0.032864597 0.0044710785 -0.04429967
000080 3d f5 fc bc 96 76 ea bb f7 12 34 3c 6e ea f5 bb
       -0.030878657 -0.00715525 0.01099085 -0.007504753
000090 c7 bc 80 bc 39 e5 55 3d 04 9b 14 3d d1 c7 cb 3c
       -0.015715016 0.052220557 0.036280647 0.024875553
0000a0 bc 7c a2 3c 18 f8 ee bb f0 0f e1 3c 51 5d cc bb
       0.019834869 -0.0072927587 0.02747342 -0.00623671
0000b0 84 ff 41 3d 49 c0 00 3d 62 1d bb bb 00 28 ab bc
       0.04736282 0.031433377 -0.00571029 -0.020893097
0000c0 61 5e 11 bd 81 a0 21 bc 63 3b fd 3b 34 ba c3 3c
       -0.035490397 -0.009864927 0.0077280267 0.0238925
0000d0 1e 58 a6 bd 99 45 ce 3c 5e 88 b1 bc f6 4d 9e bd
       -0.08122276 0.025179671 -0.02167147 -0.077297136
0000e0 06 5a 78 bd ff ba 46 bc 30 e5 44 3d b1 7e 21 bc
       -0.060632728 -0.012129544 0.048070133 -0.009856866
0000f0 f1 af e6 bb 12 ad 06 3c 14 1c 3e bd 4c a2 a1 3c
       -0.007040017 0.008219974 -0.046413496 0.01973071

vae.mu_linear.weight f4 [2, 1024]
000000 26 13 e6 3c fd c4 4e bb 66 02 60 3c 57 2f 9d 3c
       0.028085303 -0.003155052 0.013672447 0.019187612
000010 cb f7 05 bd 64 73 8b bc c9 02 d7 3a b3 73 4e 3c
       -0.032707017 -0.017022796 0.0016404028 0.012600827
000020 5c a2 a7 3c 8f bf da bb c3 cd 0e 3d aa 69 62 bc
       0.020463161 -0.0066756676 0.0348642 -0.013819138
000030 0f 0b 33 3c fe 3b c4 bc cc 3f a8 3b 16 8a 0d 3d
       0.01092793 -0.023954388 0.0051345583 0.034555517
000040 4d c2 8a 3c 35 cf 20 3e 6e 07 33 3b 44 ab f8 3d
       0.016938353 0.15704043 0.002731766 0.12142041
000050 02 65 bb 3c 5f 1c 96 3d 7e 66 e1 3b f2 0b 88 bc
       0.022875313 0.0732963 0.006878673 -0.016607258
000060 5a b9 c8 bc 06 de cd 3d 49 4f 5b bc 5b 60 30 3a
       -0.024502445 0.10052113 -0.013385602 0.0006728225
000070 46 b2 c2 3c f0 15 63 bd d6 ce 8c ba 89 7f 61 ba
       0.023766648 -0.055440843 -0.0010742794 -0.0008602073
000080 58 88 b0 3b f4 ac 12 bd 7a c1 1e 3b 49 ac 81 bc
       0.005387347 -0.035809472 0.0024224208 -0.015829222
000090 76 18 83 3b ed 2d 62 bc 86 a8 67 3d 1f 1e e8 3b
       0.0040007187 -0.013804895 0.0565572 0.007083669
0000a0 ba fd 58 3c d6 ff 5b 3d f1 75 f5 bc 9d dc 31 3b
       0.013244087 0.05371078 -0.029963465 0.0027139552
0000b0 3f ab 5f bc 8e 3e 90 3c 3b e8 11 be de 74 6c 3a
       -0.013651668 0.017607953 -0.14248745 0.00090201
0000c0 48 a6 0c 3d f6 1a ec bb 05 00 03 3d 26 fd 45 bc
       0.034338266 -0.0072053624 0.03198244 -0.012084281
0000d0 2a e3 8e bb 95 62 20 3e 53 d4 bf 3a f9 1d cb 3b
       -0.004360576 0.15662606 0.0014635421 0.0061986414
0000e0 5f 31 d2 3c 7c 83 6c 3e a5 0c 7a 3c 14 1b 8d 3c
       0.025658308 0.23097032 0.015261804 0.017224826
0000f0 5c 2a 9f 3a e7 cc a3 3d 45 d7 da bc fd 44 ca bc
       0.0012143361 0.079980664 -0.026713977 -0.0246911
000100 04 2f 8d 3c b3 9c a0 3b ff 04 1f 3c 4c 16 80 bc
       0.017234333 0.0049014925 0.009705781 -0.015635632
000110 30 f2 96 3c 50 b5 c8 3b f7 52 83 bb 0b 09 d7 3b
       0.01842603 0.0061251298 -0.004007693 0.0065623573
000120 73 a3 76 3c ee c8 02 3c 03 d9 ac 3d 06 9b e4 3c
       0.015053618 0.007982476 0.08439829 0.027905952
000130 d8 59 10 3b b7 65 b5 bd 1f 42 12 3d d8 f5 ca bd
       0.0022026207 -0.08857291 0.03570759 -0.09910172
000140 69 c1 e0 bc a4 18 16 3d 66 cf 16 bd 14 bd 62 3d
       -0.027435975 0.036644593 -0.036818884 0.0553561
000150 c3 93 92 bc 43 2e 6f 3c 3d f8 32 bc 44 d4 cf bc
       -0.017892724 0.014598432 -0.010923442 -0.02536977
000160 ae 4e 46 3c 58 e5 9b 3a 1a b8 4b bd a7 b2 a8 3c
       0.01210372 0.0011893911 -0.04973612 0.020593
000170 0b 77 96 3c c3 d4 7a bb 08 2e 25 bd b3 fa 02 bd
       0.018367311 -0.0038273789 -0.040327102 -0.031977367
000180 95 7f 8f bb f0 63 a2 bc d8 ec 24 bc e3 e9 e2 bb
       -0.0043792226 -0.019823045 -0.010066234 -0.006924854
000190 ab d2 95 bc ab dc 5c 3c a8 d6 8c ba fe 02 5e 3a
       -0.01828893 0.013480346 -0.0010745125 0.0008469074
0001a0 4c 75 ca 3c f8 2a d8 39 ed 77 a7 3c a0 69 9d bc
       0.024714135 0.00041230745 0.020442927 -0.019215405
0001b0 c2 53 89 bd 6d ff 78 bc 45 0c a7 bd 48 d7 0d 3c
       -0.06705429 -0.015197617 -0.08156637 0.008657284
0001c0 d6 7f b2 3c 30 c0 09 3c 3f 01 e2 bc 04 7c 8a bc
       0.021789473 0.0084076375 -0.027588485 -0.016904838
0001d0 d8 01 a8 3c 9f 87 28 39 a6 4a 08 3d a3 d3 03 3d
       0.020508692 0.00016072251 0.033274315 0.032184254
0001e0 a0 a4 6b 3d 13 bf e6 ba ac 86 39 bc 29 3e 0b 3e
       0.057530046 -0.0017604552 -0.011323612 0.13597931
0001f0 b6 6f 8c bb 89 db dd bb 19 d9 26 bd bc a3 95 3e
       -0.004285778 -0.0067705554 -0.040734384 0.29226482
000200 53 2f 2e bc 6b 17 1e 3c 81 56 5c 3b 08 15 43 3c
       -0.0106314 0.009649138 0.0033620896 0.01190687
000210 4e 43 b1 3c 5d 04 44 bd c8 3b ce 3c 7f 83 41 bd
       0.021638539 -0.047855724 0.02517499 -0.047244545
000220 a3 28 3c bc 23 21 e3 bc e8 d7 db bd b6 6d 15 3d
       -0.011484298 -0.027725762 -0.1073454 0.03648158
000230 31 df 89 3a ef 2c df bc 5f be 6a 3d 20 2d 59 bc
       0.0010518787 -0.027243106 0.05731046 -0.013255388
000240 1c 6b 88 bb 39 f8 ff 3c 33 c5 42 3c 20 cc d3 3b
       -0.004163159 0.031246291 0.011887836 0.0064635426
000250 86 ee 67 3c b7 74 ff bc 08 3f 9b 3a fc d2 18 bd
       0.0141559895 -0.031183584 0.0011844346 -0.037310585
000260 03 2f dd 3d 1b 54 cd bc 1b 34 d4 3b 44 69 f5 bc
       0.107999824 -0.025064519 0.006475938 -0.029957421
000270 85 1c ae bc 2d c9 8e 3c 21 62 20 3e 83 f9 28 bd
       -0.021253834 0.017429912 0.15662433 -0.041253578
000280 a9 72 ef 3b 0f dd a3 3c 05 64 87 bc 6a 89 27 3d
       0.0073073697 0.02000287 -0.016527185 0.040902533
000290 c3 c3 37 3d 5d c6 25 bc 66 eb 3b b9 4a 1f 11 3d
       0.044864427 -0.010118094 -0.00017921402 0.03543023
0002a0 9d 44 06 bd 2f 24 3c 3d c8 dd d5 ba 67 ac d4 3c
       -0.03278028 0.045932945 -0.0016316706 0.025961114
0002b0 c2 18 68 3c d7 26 df 3a 89 f3 87 be 64 c0 4f 3d
       0.014166059 0.0017025125 -0.2655299 0.050720587
0002c0 fe 46 f5 bb 20 11 2f bd cf d7 ba bc 82 43 c9 bb
       -0.0074852696 -0.04274094 -0.022807984 -0.0061420808
0002d0 10 95 97 bb c3 1a be 3b 8d 95 f5 3a 8c 1a 9d bc
       -0.004625924 0.00580153 0.0018736586 -0.019177698
0002e0 f6 9d 5a 3d 2c d0 09 bd 1d fb 62 3e 3e 9a cb bb
       0.0533733 -0.033645794 0.22166105 -0.0062134555
0002f0 9a 9f 20 3d 16 3f 9f bd 8e 88 29 bd dd fc c3 3c
       0.039214708 -0.077757046 -0.041389994 0.023924286
000300 c3 5a 24 bd 9f 6b ae 3d 4e 34 17 3c 6b 1c 2e bd
       -0.04012562 0.08516621 0.009228779 -0.04250757
000310 35 68 54 3c 87 e0 cc ba 42 01 24 bc d7 2b 8f 3b
       0.012964298 -0.0015630879 -0.0100100655 0.00436924
000320 da 76 1d bd db d5 75 3c 85 fd 19 3d 38 de eb 3b
       -0.038443424 0.0150046 0.03759529 0.0071981214
000330 f8 08 25 3c 24 8d 7a bc 39 3e e0 bc 4e 57 ae 3d
       0.010072939 -0.01529244 -0.02737342 0.08512746
000340 1e 15 2d bb 14 59 a6 bb be 01 ed 3a 4d 20 9d 3b
       -0.0026410292 -0.005076537 0.0018082184 0.0047951103
000350 06 16 80 3b ff 68 80 3c 5b 0b 27 bc 25 15 98 bc
       0.0039088754 0.015675066 -0.010195578 -0.01856477
000360 1a cc 2d bc 03 27 89 3c df a1 b9 bc b8 ec 0c bc
       -0.010607744 0.016742235 -0.022660194 -0.00860136
000370 c6 bf bc bb ee 3e f6 3a d0 d1 57 bc ae e7 29 3d
       -0.005760166 0.0018787065 -0.013172582 0.041480713
000380 59 27 90 ba 6d 94 6b bc f3 25 b1 b9 a2 2f ba 3c
       -0.0010998055 -0.014378649 -0.00033788345 0.022727791
000390 2c eb 26 bb 52 51 96 bd d2 db ef 3c 6c 04 ea bb
       -0.0025469763 -0.07339729 0.029279623 -0.0071416404
0003a0 fa 6f 1c 3d 6b 06 53 3d b9 68 51 3d 94 70 1c be
       0.038192727 0.051519793 0.051125262 -0.1527732
0003b0 48 3c dd 3c 21 2f 42 bd a6 49 f2 3d 6a 85 3e bd
       0.027006283 -0.047408227 0.118304536 -0.046513952
0003c0 48 a8 69 3c 4f b2 c8 3b 26 31 ea bb be 07 a8 3c
       0.014261313 0.0061247717 -0.007146972 0.020511504
0003d0 b3 99 97 bc fb 74 84 3c d8 39 13 3d 31 af 14 39
       -0.018505907 0.016169062 0.035943836 0.00014179644
0003e0 e8 78 03 bc fa 47 20 bd d5 31 6d 3e 19 90 2c 3c
       -0.008024432 -0.039131142 0.2316354 0.010532402
0003f0 5b 8d 98 3c 01 06 14 3c f8 df 68 be 2d 67 e7 bc
       0.018622091 0.009034635 -0.22741687 -0.02824744

vae.mu_linear.bias f4 [2]
000000 a8 11 8b bd 8c d8 92 bd
       -0.06790477 -0.07170209

vae.log_var_linear.weight f4 [2, 1024]
000000 ab 10 fc 3d 40 54 eb 3d 70 fb e9 3d 0f 23 d3 3d
       0.12307867 0.11490679 0.11424911 0.10309421
000010 99 3c 27 3e 96 71 33 3e 06 1e 38 3e 79 b2 6b 3e
       0.1633171 0.17523798 0.17980203 0.230173
000020 cc 62 e7 3d c8 c6 27 3e 09 a4 1c 3e e9 5a 63 3e
       0.11298141 0.16384423 0.1529695 0.22202648
000030 f4 97 eb 3d 8c e9 63 3e d9 38 57 3e cb 00 5c 3e
       0.11503592 0.2225706 0.2101778 0.21484677
000040 fe 80 06 3e fe 7a ac 3b 85 5c 8c bd 1e 26 9e bd
       0.13135144 0.0052636852 -0.06853584 -0.07722114
000050 6b 74 81 bc d8 58 89 bd c5 f9 8e be 16 4e c3 be
       -0.015802583 -0.06706399 -0.27924934 -0.38145512
000060 ff 00 08 3c 93 d0 10 be d7 09 de be 3e 4c 09 bf
       0.008301019 -0.14142065 -0.43366882 -0.5363196
000070 25 0f b9 3b 11 de ef bd e9 30 b8 be 07 ba cd be
       0.0056475573 -0.11712278 -0.35974815 -0.4018099
000080 92 bb 87 bc df e4 c1 be 93 e6 fb be 6a 6b 6f be
       -0.016568933 -0.37869927 -0.49199352 -0.23380819
000090 b3 8d 42 bd fd ba 98 bd 1d 17 b2 bd 5c 3d 83 be
       -0.047498416 -0.0745754 -0.08695815 -0.2563275
0000a0 c6 5b 4b bd 28 52 0f be cd 47 13 be 91 fd c6 be
       -0.04964807 -0.13996184 -0.14382859 -0.3886533
0000b0 f6 5b d0 bc 0b 20 04 bd 12 13 df bd 2a 46 74 be
       -0.025434475 -0.03225712 -0.10892309 -0.2385489
0000c0 a9 47 e6 3d 35 92 28 3e cc 90 2b 3e e2 04 01 3e
       0.11244137 0.16462024 0.16754454 0.12599519
0000d0 c4 96 1e 3e 38 31 5e 3e e4 69 44 3e a8 29 27 3e
       0.154872 0.21698463 0.19181019 0.16324484
0000e0 84 1e 14 3e de e1 19 3e 5d b2 98 3e 5a dd 08 3e
       0.14464766 0.15027568 0.2982358 0.13365689
0000f0 a5 e4 ed 3d 3a d8 93 3e 22 ff 60 3e be 68 42 3e
       0.11615876 0.28875905 0.21972325 0.18985268
000100 95 ad 64 bd ee 9d 64 bd ff ba 06 be 60 fd 1c be
       -0.055829603 -0.055814676 -0.13157271 -0.1533103
000110 78 35 64 bc d2 82 6d bd ad 89 96 bd 02 e5 1d be
       -0.013928764 -0.057986088 -0.07350478 -0.15419391
000120 e2 40 f0 bc 6e c4 b6 bc 47 4f 58 bd b6 26 04 be
       -0.029327814 -0.022310462 -0.05280998 -0.12905392
000130 6c 78 40 bd 61 d5 42 3b e2 d8 22 3c f7 f8 19 bc
       -0.046989843 0.0029729235 0.009939404 -0.009397737
000140 97 f5 b9 bc 8f ce 64 bd a6 7a 17 bd 8e 59 3c bc
       -0.022700114 -0.055861052 -0.0369822 -0.011495961
000150 70 14 44 bc 65 14 29 bd 63 34 26 bd de 14 09 bb
       -0.011967763 -0.041279215 -0.040577304 -0.0020916979
000160 ec 20 a2 bc 2a d1 6e bc 05 31 3f bd 00 c9 48 bd
       -0.019791089 -0.014576236 -0.046677608 -0.049019814
000170 fa 80 4d bd 18 bf ae bd e3 7f a0 bd a8 60 88 bc
       -0.05017183 -0.08532542 -0.078368925 -0.016647652
000180 05 cd 1e bc f0 89 5f bd 76 92 8b bd c5 1c 80 bd
       -0.009692435 -0.054574907 -0.068150446 -0.06255487
000190 1c 3d 24 bc d3 5b 75 bd f0 9b ad bc d9 a4 15 bd
       -0.010024335 -0.059902024 -0.02119252 -0.036534164
0001a0 e6 14 40 bd b9 83 8f bd 23 11 82 bd 2a 8f 0d bd
       -0.04689493 -0.07007546 -0.06350925 -0.03456036
0001b0 30 34 00 bd 0c cd 2f bd 13 4b 02 bd cd 5b 52 bd
       -0.03129977 -0.042920157 -0.031809878 -0.05135708
0001c0 61 e6 d0 bc 9b d9 18 bf c5 53 5b be 31 c5 e6 bd
       -0.025500478 -0.5970704 -0.21418674 -0.1126808
0001d0 60 dc f2 bb 6e b5 ce be 61 2f 10 be 91 71 40 3e
       -0.0074115247 -0.40372795 -0.14080574 0.18793322
0001e0 e4 e9 be bd 94 b5 08 bf a4 4d b3 be e6 a1 8e 3e
       -0.09321955 -0.53402066 -0.35020173 0.27857894
0001f0 e0 8b 0d bc 35 af 0d bf a3 de 53 bd ec 9d cf 3d
       -0.008639306 -0.5534547 -0.051725995 0.10137543
000200 fe 4d 6d bd 16 0c 9b bd 22 7b 34 bd 85 1d d6 bd
       -0.057935707 -0.075706646 -0.04406274 -0.10454849
000210 45 ea 93 bd 7e dc 15 bd db 7e 94 3d b2 88 0a bc
       -0.07222418 -0.03658723 0.07250758 -0.008455442
000220 91 fb 6f bd 46 23 05 3d 12 5d fd 3d 9c b5 1f 3d
       -0.05858952 0.032504342 0.123712674 0.038991556
000230 cd f6 3a bd 35 45 cb bc b4 f7 07 3e 64 78 ba bc
       -0.045645524 -0.024813274 0.13278085 -0.022762485
000240 d2 f4 00 3f 58 33 0c 3f 89 83 f0 3e dc 90 16 3f
       0.50373566 0.54765844 0.46975353 0.5881479
000250 c0 3a c5 3e 36 ae c2 3e 39 f0 62 bc 34 78 71 3e
       0.38521385 0.38023537 -0.013851219 0.2358101
000260 03 df 99 3e 03 3b 67 3e 4c f1 ed be 97 3b 88 be
       0.30052957 0.22581105 -0.46473157 -0.26607963
000270 e3 c0 c0 3e 70 20 91 3d 91 25 fa 3d cd 9e c0 3e
       0.3764716 0.07086265 0.122141965 0.37621155
000280 de 0f e8 3b 89 c2 16 bd 5b a6 32 bb 87 d7 31 bb
       0.0070819696 -0.036806617 -0.00272598 -0.002713652
000290 e9 f6 6b bd da 19 28 be 23 83 a0 bd 59 e2 61 bc
       -0.05760852 -0.16416112 -0.07837512 -0.013786876
0002a0 8d 78 ca bd 0d 7a 2d bd d9 a1 33 bd ed bd 54 bd
       -0.098862745 -0.042352725 -0.04385552 -0.05193894
0002b0 67 4c 6c bd e8 1b 2d be 9f ea bd bc 2f 8e 8a ba
       -0.05769005 -0.16905177 -0.023183165 -0.0010570938
0002c0 8b 0f 42 3e 63 04 1e be fa ba 42 bf c0 aa e0 bc
       0.18951242 -0.15431361 -0.76066554 -0.02742517
0002d0 54 0c 9b 3e 12 65 fe bc 09 9a 15 bf b6 5d cc bd
       0.30282843 -0.031054053 -0.58438164 -0.099788114
0002e0 ed 55 b4 3e 56 b6 9a be 61 f7 1c bf ca dc bc bd
       0.35221806 -0.30217236 -0.6131497 -0.092218
0002f0 2b cf cc 3e 3b f5 9b 3e d9 41 9b 3e d5 c7 b3 3e
       0.40001807 0.30460533 0.30323675 0.35113397
000300 9b 87 07 bc 26 be b9 bc c6 91 3f bc 07 be 06 3c
       -0.008272077 -0.022673678 -0.01169247 0.008224017
000310 72 1e 6a bc 49 55 bb bd b7 d9 d0 bd 2f 0a c0 bd
       -0.014289485 -0.09147126 -0.10197776 -0.09376942
000320 49 63 5d bd a3 c4 b4 bd 73 2f 5e bd 98 89 1f bd
       -0.054049764 -0.08826568 -0.05424447 -0.03894958
000330 2b df 92 bd f4 dc ff bd 03 a7 f6 bd 6e 32 fc bc
       -0.07171472 -0.12493315 -0.12043574 -0.030785765
000340 46 6a 86 3c 57 b3 21 3e 25 24 39 3e da 74 31 3e
       0.016408097 0.15791069 0.18080194 0.17329732
000350 e1 8b ad 3c a3 90 34 3e 23 9c 72 3e b8 eb 64 3e
       0.021184864 0.176333 0.23692374 0.22355545
000360 aa 35 d3 3b e7 cb 3e 3e 6c 4c 51 3e 33 48 87 3e
       0.0064456062 0.1863247 0.20439309 0.2642227
000370 3d a0 d4 3c 3f e6 69 3e a2 a4 8b 3e b5 e8 7d 3e
       0.025955314 0.22841738 0.27274042 0.24795802
000380 63 13 73 bd e9 f3 8d bd e8 b5 3e bd 2d be 4e bd
       -0.05934466 -0.06931288 -0.046560198 -0.050474335
000390 95 ef 36 bd 12 61 3a bd 1f 7e 13 3c 61 3f 83 bc
       -0.044662077 -0.04550273 0.009002238 -0.016021432
0003a0 34 d9 eb bc a9 63 ef 3a 67 41 cc bc b6 a9 71 38
       -0.028790094 0.0018263954 -0.02493353 5.7616933e-05
0003b0 14 ef 2a bd 2f 5e 3f bd d2 ad ea bc fe a7 9e bd
       -0.04173191 -0.04672068 -0.028647337 -0.07746886
0003c0 ef 7f 9e bd ee 48 24 bd 8f 12 86 bd 42 7a 67 bd
       -0.07739245 -0.040108614 -0.065465085 -0.05651308
0003d0 a0 d4 05 be 34 b0 40 bd 36 91 ea bc cb 45 78 bc
       -0.13069391 -0.04704304 -0.028633695 -0.015153359
0003e0 5a 17 b4 bd 9a ec 51 bb d8 80 01 bd e8 50 9f bd
       -0.087935165 -0.0032031895 -0.031617016 -0.077791035
0003f0 24 33 e1 bd 75 4e 0c bd c8 a0 46 bd eb cf 1f be
       -0.109960824 -0.03425451 -0.048493177 -0.15606658

vae.log_var_linear.bias f4 [2]
000000 79 a5 67 bc bd f6 87 bd
       -0.014138573 -0.066388585

vae.decoder_linear.weight f4 [1024, 2]
000000 6f ce 8c 3e 0c d7 e5 be 59 11 f5 3e 1e 22 15 bd
       0.27501246 -0.4489063 0.47864798 -0.03640949
000010 eb f8 7a be 69 6f 1b 3f c5 87 87 3d f4 8a 81 be
       -0.24509017 0.60716873 0.06617693 -0.25301325
000020 e1 2a 21 bf 4e cb 3f 3f f7 d5 1f 3f c3 7f 2d bf
       -0.62956053 0.74919593 0.6243586 -0.67773074
000030 cf e1 04 3f 5e 0e ab be 81 46 e1 3d 16 54 9c be
       0.51907057 -0.334094 0.10999776 -0.30532902
000040 c3 82 f7 be 44 03 b4 3e 08 e4 cc 3e e9 ea 84 3e
       -0.4834195 0.3515874 0.40017724 0.25960472
000050 d0 bb 23 3f bb b5 0a 3f 46 12 0a 3f d3 88 1d 3f
       0.63958454 0.5418355 0.53934133 0.615369
000060 6a f1 1b be 7e 59 2d 3e 25 6c d7 be 18 6c 8e 3e
       -0.15228811 0.1692867 -0.42074695 0.27816844
000070 ef 01 f5 3e 19 17 64 3e 9f df 20 3e 4c b5 2e bf
       0.47853038 0.22274436 0.15710305 -0.6824539
000080 73 33 3a 3f 03 bb 22 3f 6d 22 88 bd f9 d7 81 be
       0.72734755 0.6356661 -0.06647191 -0.25360087
000090 13 89 e7 be 07 05 24 3f e2 59 9d be 10 f8 4f be
       -0.45221767 0.6407017 -0.30732638 -0.20309472
0000a0 d8 95 c3 3d 9e 0b 46 be 27 2f c1 3e fd b0 d8 3e
       0.09550065 -0.19340369 0.37731287 0.4232253
0000b0 8a e4 07 3f 64 ab cd 3e 2b b6 03 be 0c d8 ef be
       0.530831 0.40169823 -0.1286246 -0.46844518
0000c0 c7 14 df be d1 9d 13 3f 0e 30 ec bd 57 6c b6 be
       -0.4357054 0.57662684 -0.11532603 -0.35629532
0000d0 ea f2 3c 3d 1a ab 92 be 53 f8 0c 3e 2f 8f 00 3e
       0.0461301 -0.28646165 0.13766603 0.1255462
0000e0 25 e2 22 3d 57 ac 03 bf 94 bc c3 be 6d e8 f3 3e
       0.03976645 -0.51434845 -0.3822981 0.47638264
0000f0 c4 fb 25 bf ff 31 25 bf a9 a8 30 bf 07 47 84 be
       -0.6483729 -0.64529413 -0.69007355 -0.2583544
000100 c7 6b ff 3e 63 ac 6f 3b aa d3 cc 3e d6 64 c3 3e
       0.49886915 0.0036571256 0.40005237 0.3816287
000110 b8 c8 83 3d d4 8b 68 be aa 0b d8 3e df 5f a1 be
       0.064347684 -0.2270959 0.421964 -0.31518456
000120 9b 92 67 3d 9e d4 dd 3e de ee 23 3e aa 9c 91 be
       0.0565363 0.43326277 0.1600909 -0.28439838
000130 97 b6 2c 3e 0d fe 7a 3d f1 b7 2a 3f 80 1e e3 3e
       0.16866527 0.061277438 0.6668692 0.44359207
000140 78 e1 53 3f 02 b0 b4 bd d2 28 78 bd 06 22 9a 3d
       0.82765913 -0.08822633 -0.060585804 0.07526021
000150 6a c5 10 bf 38 5e 12 bf ca 63 9b be ce c0 fb 3e
       -0.5655123 -0.57175016 -0.3034957 0.49170536
000160 12 1c 07 3f b4 e6 1a 3f 1b e5 0d 3f b0 ae 08 3f
       0.52777207 0.60508275 0.5542771 0.5339155
000170 f2 85 5d 3e ab 77 93 be 97 1b e5 3d 37 5d d4 3e
       0.21633127 -0.28802237 0.11186903 0.41477367
000180 e3 f3 0d 3f ce e6 c1 3e d2 a1 93 be 1f 94 4e bf
       0.55450267 0.37871403 -0.28834397 -0.80694765
000190 89 c1 d7 be 97 14 85 be 9f 71 ee 3e 84 bc 3d 3f
       -0.42139843 -0.2599227 0.4657106 0.74115777
0001a0 bc 7b b2 3e ca af c8 be 0b 05 06 3f cf ea e5 3d
       0.34860027 -0.39196616 0.52351445 0.11226427
0001b0 52 94 2f bf 5a 50 eb 3e e1 76 2b bf a9 e2 b4 3d
       -0.68585694 0.4595974 -0.6697827 0.088322945
0001c0 a0 8e d6 3e a8 07 05 bf 8c 50 34 bf 7a 76 d8 3d
       0.4190569 -0.5196481 -0.70435405 0.105694726
0001d0 c0 ae 3c bf db d0 ce 3e 93 cf 4a 3f 45 57 bd 3e
       -0.7370415 0.4039372 0.79222983 0.36980644
0001e0 90 e1 8a 3d 1e 1a 6d 3f ad 56 0a 3e f6 9f f3 3e
       0.06781304 0.92617977 0.13509627 0.47582978
0001f0 b8 ea 1c 3f 9e bb 8d bd de 6e 77 be ad 7c 51 be
       0.6129565 -0.06920551 -0.24163386 -0.20457716
000200 80 07 2e bf 1e 35 e5 3e 8f 38 e5 be 58 e5 3a be
       -0.67980194 0.44767088 -0.44769713 -0.1825155
000210 74 39 be be 7b 8c 2d be 98 3f 7e 3e cd c2 e7 be
       -0.37153208 -0.1694812 0.24828947 -0.4526581
000220 9f 89 2a 3f 0f f5 e6 3e 94 31 c5 3e 80 bf 03 3f
       0.66616243 0.4510884 0.38514388 0.5146408
000230 4f b8 48 bc cd 2c 58 be cd c2 0d be c2 b3 74 be
       -0.012250974 -0.2111084 -0.13843842 -0.23896697
000240 89 ed 3f bf 78 e8 32 bf d1 28 06 3f 21 53 c9 be
       -0.74971825 -0.6988597 0.5240603 -0.39321235
000250 fc 43 bb 3d 4e 4c a7 be 47 bf 2f 3f 4d 69 eb 3e
       0.09143826 -0.32675403 0.6865124 0.45978776
000260 6e fc a9 3d 90 69 33 3e 12 d5 1e 3f 94 05 0a bf
       0.083001 0.17520738 0.6204387 -0.5391476
000270 b5 14 2c 3f 1b d7 a9 be b6 68 d0 3e 3a 99 f8 be
       0.67219096 -0.33171925 0.40704888 -0.48554403
000280 08 32 78 bd 46 45 0a 3e d2 1a 90 be c2 9a bd 3d
       -0.06059459 0.13502988 -0.28145462 0.09258033
000290 a2 6c 38 bf 68 e5 2f be c1 44 97 3e b8 b9 02 bf
       -0.7204076 -0.17177355 0.29544643 -0.51064634
0002a0 cc 9b ce be 63 a1 e8 3e 10 ab 13 be d9 fb e0 bd
       -0.4035324 0.45435628 -0.14420724 -0.10985536
0002b0 9a 1c 99 be 13 ea 17 3f 5b 4b 7a be 96 f4 47 3e
       -0.29904634 0.59341544 -0.24442808 0.19526896
0002c0 34 96 1e 3e b9 cf 32 bf 12 80 cb be 4a a3 88 3e
       0.15486985 -0.6984821 -0.39746147 0.2668708
0002d0 a7 f6 5f 3e 9d 47 2d bf 43 e8 2b 3f 28 f9 41 3f
       0.21871434 -0.676874 0.6715128 0.7577081
0002e0 d7 53 c8 3d 46 b0 0d bf ac 59 6e be 40 5d 21 be
       0.09781616 -0.55347097 -0.23276395 -0.15758228
0002f0 d2 50 e2 3e 4f 2b f1 3e 8e 3f 3b 3d c8 8c da 3e
       0.44202286 0.47103354 0.045714907 0.42685533
000300 4f b2 2e 3e 73 eb a7 be de 45 0f bf 4a 62 97 bd
       0.17060207 -0.3279682 -0.55965984 -0.07391794
000310 e3 25 c8 bd 37 58 1f bd 6e fe 8d 3e 66 3a b5 bd
       -0.09772851 -0.038902488 0.27733177 -0.08849029
000320 41 30 9d bd 25 e6 0a 3f 3b 2d ad bd 93 de b1 3c
       -0.07675219 0.5425742 -0.08455893 0.021712577
000330 50 cf 08 3e 88 d3 1d 3f da 67 25 bd cd 54 ba be
       0.13360333 0.61650896 -0.040382244 -0.36392823
000340 63 62 38 3f e4 20 51 3d bf 9a d0 3e 0a 81 89 be
       0.72025126 0.051056758 0.40743062 -0.26856261
000350 a9 8f 0e bf 42 e2 0e bb 1c cb b9 be 3c b9 cb 3e
       -0.5568796 -0.002180234 -0.36287773 0.3978976
000360 49 38 2e 3d 6e 01 9b 3e ed 4b 38 bf e7 bd 2d ba
       0.042534146 0.30274528 -0.71990854 -0.0006627724
000370 8c aa 6b be c9 74 1d bf ea f6 b1 3e 85 4b 01 3f
       -0.23014277 -0.61506325 0.34758693 0.5050586
000380 5b 6b cd 3d 97 a6 c9 bd a9 5c ef 3d 04 59 ab 3e
       0.10030242 -0.098462276 0.116875954 0.3346635
000390 78 fe b5 3e b5 52 fa 3e ee 83 c9 be dd 9e b6 be
       0.35545707 0.48891225 -0.39358467 -0.35668078
0003a0 0f 7b a3 3e 00 ba b8 be d9 2c 08 3f ff b0 7c 3e
       0.31929824 -0.36079407 0.5319343 0.24676894
0003b0 ba 45 6a 3e a5 d4 59 bd 9b ed 11 3e d8 0b b0 3e
       0.22878161 -0.05318131 0.14250796 0.34384036
0003c0 63 59 c6 3d fe da f8 3c a1 e3 b9 be 76 25 33 bf
       0.09685018 0.030377861 -0.3630648 -0.69979036
0003d0 86 e1 35 3e 21 d6 2c bf 13 17 0d bf 04 b5 14 3f
       0.17761812 -0.67514235 -0.55113333 0.5808871
0003e0 e6 e9 d8 3e 2f 19 92 bd 8f a3 f5 be 26 e3 17 3e
       0.4236595 -0.0713371 -0.47976348 0.14832744
0003f0 5e 70 99 3e 8d d1 5f 3e 0f 22 aa 3e 3e 06 0a 3f
       0.29968542 0.21857281 0.3322911 0.53915775
