checkpoints/ae-mnist-conv-latent-dim-20.ckpt (torch, 694052 bytes, 37 tensors)

vae.enc_convs.0.weight f4 [28, 1, 3, 3]
00000000: 393e 89be d909 443e 3f76 713e 1c81 933e
00000010: c0b4 043e 36bd 1e3e 967b 043e e69b 4a3d
00000020: 40e6 a43d ddcc 6b3e f70d 0ebd 4803 7e3e
00000030: b959 103d fdbc 53be d51d 953d 9197 833e
00000040: 89c3 c93c 60e5 383e f80b 34be fa7d a8bd
00000050: 15ab 023e 3e78 87be 82b4 053e a2f2 7c3e
00000060: 7d17 0e3e 4855 f93d 1d78 f93d 925a 54bd
00000070: 3826 7cbe dfd6 89be 1d06 6abd 2501 81be
00000080: 5eba 803d 85ac c43d ad8a 853e 4f20 7c3e
00000090: b45d 843e 1886 373e 02be d2bd 5dc6 2ebe
000000a0: c5ca f73e 0a23 693e bc7f 5e3d 5f90 ac3d
000000b0: 550a 1f3b 3483 823e b4a9 45be 19e1 22bb
000000c0: 954f cfbd df20 df3b 3568 59be b91c 6fbe
000000d0: a7f6 58be 3d6c 16be 54c1 ccbb cf8a bcbe
000000e0: 5f55 0f3e b7cc 0ebe 4db1 8abe 831d 383e
000000f0: 780d f33d d57a 8ebd f0d8 86be 0777 adbc
00000100: 3444 983e 1edd 33be f3e6 8abe fe00 6d3e
00000110: cb4f e7bd db74 7ebd f482 113e 9e77 563e
00000120: fba8 1abd d63e cbbc edfc a83e 5b90 8fbe
00000130: bdb3 afbe 6260 e6bd 2f2c d2be 638c d73d
00000140: 16fe 4c3d d591 7ebe a691 003e 85b8 66be
00000150: 1b44 5d3d b32d f63d 69df 9f3d 57b5 cfbd
00000160: 911b f93c f332 86be a3bf bc3d 6bd1 30be
00000170: 3580 2f3e 8530 c9bd 12f6 6dbe 953d 0a3d
00000180: cd05 903c 679b f3bd d362 9d3e 0af1 003e
00000190: d1d4 12be 6885 2d3e 516e aa3e e2e1 743e
000001a0: 5e26 1c3e 86d5 99be 35d9 66be dbcb 3ebe
000001b0: 5b5e 383e 2785 7f3e 6ec3 8a3e 85e2 5abe
000001c0: 08fa 61be 6ec5 53be 0d01 4ebe 3035 713d
000001d0: ddeb 4bbe 40a5 2dbe 77be dc3d 3c3b 403e
000001e0: 3217 a53c d378 123d 7e2f 153e 5c70 a6be
000001f0: 1f4d 20bd cc76 9cbb 793c 50be fc1e f83c
00000200: ec9f 56be 8e3e cdbe a274 a93d 1d4f 6abe
00000210: c961 babe 11f6 98be a332 923d b681 7cbe
00000220: 3453 c8be 50dd d0be f73a 8e3e c4bc 9cbe
00000230: 4e1a 83be 292e 703e 8209 5abe 3f99 2dbc
00000240: 001d 77be e13e 84be 2f79 5abe bdec d6bd
00000250: 827a 0d3d f6a6 693d 026e a33e 6ac1 97be
00000260: 6d12 933e dcf0 8dbe d2d4 623e 0c9b 0f3e
00000270: c9bc 15be 8f2d 67bd 5216 9c3e 6b06 92be
00000280: 9f18 87be fd3f 89be 07fc 65bd 005e 193e
00000290: 5afa 2cbe 73e1 3f3c aa3c 9bbd ebb8 a1be
000002a0: d658 9b3e 423a 0a3e 617b d63c 45d1 83bd
000002b0: f6d4 9cbe b9fd 883e 4b43 953e 5dff 3bbe
000002c0: afec 4bbe 8a36 ab3e d043 f73d dba3 c93e
000002d0: daad 96be f448 b33d 96fd 88be 4ec3 b1be
000002e0: b098 3abe 0333 4dbd bec4 1fbd 9c47 a43d
000002f0: 8d12 2f3e ff9f 3dbc b89c 0cbe 6c22 8e3e
00000300: d259 64bd 1fc4 28be 0981 863e e3ff 333d
00000310: b8c6 2b3e 5444 c3be 9638 913e bb96 5e3e
00000320: 94e5 28be a286 c63b 414d 06bc 5cba 9a3e
00000330: d038 9cbe 412d 3fbe 862c 863e 08ac 3dbe
00000340: 5785 61be 2304 b1be 9ff5 a53e 1945 783e
00000350: 6481 633d 9c81 b43d f42f 1b3e 6a61 1cbe
00000360: e8c4 b3bd f250 b6be 1ce2 3fbe ed54 213d
00000370: 11f7 8e3e 4b48 093e c934 4e3e b6ef c8bc
00000380: d46a 3cbd 689a 8abe 7e79 18bc 7c68 69bd
00000390: c0f5 56be 4028 cb3d 39cb 2dbe 7788 333e
000003a0: d619 93bb df64 85be 7121 233e 9810 9f3e
000003b0: accb 20be b3a4 843e 7b19 053e 07ae 45be
000003c0: 4996 9a3d d15d 2c3e 0c8a 61be bdc8 973e
000003d0: 8321 85be 56d5 60be d4b6 863e 85d7 303e
000003e0: 65c7 54be f2df dabc 4ed2 8abe 1c0a 70be
-0.26805285 0.19144382 0.23580264 0.2880944 0.12959576 0.15501866 0.1293777 0.049465083
0.08051729 0.23027368 -0.034681287 0.24805939 0.035241816 -0.20677562 0.07281081 0.25701573
0.024629371 0.1805625 -0.1758269 -0.08227153 0.12760575 -0.26458925 0.1305714 0.24701932
0.13876148 0.12174469 0.12181113 -0.051844187 -0.24623954 -0.26921746 -0.057134736 -0.25196186
0.06285547 0.09603218 0.26082364 0.246217 0.2585274 0.17922246 -0.10290147 -0.17067857
0.48396888 0.22767273 0.054321036 0.08425974 0.0024267633 0.25490725 -0.19303018 -0.0024853407
-0.10122601 0.0068093385 -0.21231158 -0.233508 -0.2118784 -0.14689727 -0.0062486324 -0.36824653
0.1399741 -0.1394528 -0.27088395 0.17980008 0.11867803 -0.06957022 -0.26337385 -0.02117492
0.29739535 -0.17564818 -0.27129325 0.2314491 -0.11294516 -0.06212316 0.14210111 0.20944068
-0.03775881 -0.024810236 0.33005467 -0.28039822 -0.34316817 -0.11248852 -0.41049334 0.105248235
0.050047003 -0.24860318 0.1255556 -0.22531326 0.05402003 0.12020435 0.07806284 -0.1014201
0.030408652 -0.26210746 0.09216239 -0.17267387 0.17138751 -0.098237075 -0.232384 0.033750135
0.017580891 -0.11894875 0.3073946 0.12591949 -0.14338996 0.16945422 0.3328729 0.23914292
0.15249011 -0.30045718 -0.22543795 -0.18632452 0.18004744 0.24953137 0.27102226 -0.21375473
-0.22068036 -0.20680782 -0.20117588 0.058888614 -0.19914193 -0.16957569 0.10778516 0.18772596
0.020152662 0.03575976 0.14568898 -0.32507598 -0.03913605 -0.004774904 -0.20335568 0.030288212
-0.20959443 -0.40086788 0.08274199 -0.22881742 -0.3640273 -0.29875234 0.071385644 -0.24658856
-0.3912598 -0.40793848 0.27779362 -0.30612767 -0.25606006 0.23455109 -0.2129269 -0.010595619
-0.24132156 -0.25829223 -0.2133529 -0.10494373 0.03454066 0.057043992 0.31919867 -0.2963975
0.28724995 -0.27722824 0.22151497 0.1402399 -0.14622797 -0.056439932 0.3048578 -0.28520522
-0.26385972 -0.26806632 -0.056148555 0.14977264 -0.16892377 0.011711466 -0.0757993 -0.31586394
0.30341214 0.13498786 0.026181879 -0.06436399 -0.30631226 0.26756075 0.29152903 -0.18359132
-0.19914506 0.33440048 0.12073481 0.39382824 -0.29429513 0.08754149 -0.2675597 -0.34719318
-0.18222308 -0.050097477 -0.039005987 0.08021471 0.1709692 -0.011573791 -0.13731658 0.27760637
-0.05574972 -0.16481064 0.2627032 0.043945204 0.16775024 -0.38138068 0.28363484 0.21737187
-0.16493827 0.00605853 -0.00819713 0.30220306 -0.30512094 -0.18669607 0.26205844 -0.18522656
-0.22023521 -0.3457347 0.32413957 0.24245109 0.05554332 0.088137835 0.15155011 -0.15271536
-0.08777791 -0.3560863 -0.18738598 0.039387632 0.27922872 0.13406484 0.20137323 -0.024528366
-0.046000317 -0.27070928 -0.00930631 -0.05698441 -0.20992184 0.099197865 -0.16972055 0.17532526
-0.004489164 -0.2605352 0.15930726 0.31067348 -0.15702695 0.25906906 0.12998001 -0.19304667
0.07548196 0.16832663 -0.22025317 0.2964534 -0.2600213 -0.21956381 0.26311362 0.17269714
-0.20779188 -0.026718114 -0.27113575 -0.23441356

vae.enc_convs.0.bias f4 [28]
00000000: cbe1 c0bc 3c01 a03e 386d 103e 833d 76be
00000010: 9474 653d 9e1c 97bd 7a44 cdbd 1937 393e
00000020: 305d 3e3e 688f d7bd 22df 8a3e 595d b6bc
00000030: 8a01 0bbe fa9f 94be 19ee 82be d931 2ebd
00000040: 7193 163e be1d cd3d 9dc3 8abe 46f8 8a3d
00000050: 41bd d3bd c7a4 7ebe 8bd2 c7be cf91 adbe
00000060: d9b0 863d d798 5dbe 0ec2 523d 1e53 db3d
-0.023545166 0.31250942 0.14104164 -0.24046902 0.05601938 -0.07378505 -0.100228265 0.18087424
0.18590236 -0.105253994 0.27123362 -0.022261309 -0.13574806 -0.29028302 -0.2557228 -0.042528007
0.14704682 0.100154385 -0.27102366 0.06785636 -0.10338832 -0.24867545 -0.3902782 -0.33900306
0.065767 -0.21640335 0.051454596 0.10709213

vae.enc_convs.1.weight f4 [28]
00000000: 06e0 743f 5160 713f cdda 6b3f e4be 853f
00000010: 6094 743f 915a 963f 7e96 9e3f d1b4 483f
00000020: 7b9f 923f 2b33 a13f 46f9 753f 2c61 5e3f
00000030: e8f1 9b3f db8b 833f 6e2a 903f 1cc7 a43f
00000040: eb11 723f 8df7 b53f 29e6 653f d304 403f
00000050: 0c10 a33f c9a5 403f 0c9f 463f 3c79 6a3f
00000060: e623 6d3f f244 913f fa62 6d3f f8c8 a53f
0.9565433 0.9428759 0.9213074 1.044888 0.955389 1.1746389 1.2389677 0.78400904
1.145492 1.259374 0.96083486 0.8686702 1.2183199 1.0277056 1.1262949 1.2873263
0.9455859 1.4216172 0.8980432 0.7500736 1.2739272 0.7525297 0.77586436 0.9159124
0.926329 1.1349165 0.9272915 1.2951956

vae.enc_convs.1.bias f4 [28]
00000000: b10d 30be fda2 7cbe ddc1 0bbe 382a ef3d
00000010: 05ae 25be 59d0 173e 5ef3 1d3e d620 8cbe
00000020: f8dd a8bc 6616 93bd fd69 b8bc 3ac4 1cbe
00000030: 7ca8 ccbc c4f1 a53e 6580 133e f5fb 1d3e
00000040: 3d2c 8abc c4f7 2a3b 8435 193c 05a2 81be
00000050: aba7 cebc 012c 41bd 2565 f8bd adc7 11bd
00000060: 1832 1c3e 4937 993c f1fc 2fbe 768e 3cbd
-0.17192723 -0.2467155 -0.13648172 0.116779745 -0.16179664 0.14825572 0.15424868 -0.27368802
-0.020613655 -0.071820065 -0.022511477 -0.1530923 -0.024982683 0.32411015 0.14404447 0.15428145
-0.016866798 0.0026087621 0.009351138 -0.25318924 -0.025226435 -0.047161106 -0.12128667 -0.035590816
0.15253484 0.01870312 -0.17186333 -0.0460343

vae.enc_convs.1.running_mean f4 [28]
00000000: 5081 d73d 03ff d63e 78eb 403e d795 8abe
00000010: 5ff6 423e ef74 3cbe 6d59 40be ed26 5a3e
00000020: c587 c03d 58de 24be 665f 8a3e 6948 caba
00000030: d8a3 31be fb29 96be ab44 e9be ec32 5cbe
00000040: 723a b93d a56d 973c f6e4 89be 90f2 1d3e
00000050: 0c30 54be 114f 80be 1a39 adbe 16d9 b0be
00000060: cb7c 763d 2ccb 9ebe 986e fa3d 959e 313d
0.10522711 0.41991434 0.18839824 -0.27067444 0.19039296 -0.18403982 -0.18784113 0.21303912
0.09400896 -0.16100442 0.27025908 -0.0015432957 -0.17347658 -0.29328904 -0.45560202 -0.215038
0.09044351 0.0184849 -0.26932496 0.15424562 -0.20721453 -0.25060323 -0.33832628 -0.34540623
0.060177606 -0.31014383 0.12228125 0.043364126

vae.enc_convs.1.running_var f4 [28]
00000000: 70fd 8f3d 393a 133d f4a1 bf3c 7735 b63c
00000010: ebc8 933d d50e 603d 8958 053d 6427 ee3b
00000020: 2242 4f3d 9f97 143c e1e9 ad3b 25dc 4d3c
00000030: d9cd 9b3c d627 0e3c a9db 193e afef 083e
00000040: c37d cf3c d0b0 183d e5d1 0b3c 130d 0b3d
00000050: 2c2e 683d 4181 473b 999c 8b3c 0d80 503c
00000060: 9c17 013c 8780 f73c ae08 1c3d b8bc 143d
0.07030761 0.035944197 0.023392655 0.02224229 0.072160564 0.054701645 0.032555137 0.0072678793
0.05060018 0.009069352 0.0053074216 0.012564694 0.019019054 0.00867649 0.150252 0.13372682
0.025328523 0.037277997 0.0085339295 0.033948015 0.056684658 0.0030442032 0.017042445 0.012725842
0.007879164 0.030212654 0.038094215 0.03631279

vae.enc_convs.3.weight f4 [64, 28, 3, 3]
00000000: 6eff b9bd 2439 e0bd febd d8bd a6a1 81bd
00000010: 61b9 fabc fdad eabd 1931 30bd bca1 b7bd
00000020: 142e cabd 8b09 81bd 0bd0 c9bd 3800 88bd
00000030: 9bc8 42bd a288 0cbe 1a49 e3bc 1443 e4bd
00000040: c811 b6bd 7277 16be 606a 8cbd cc12 02bd
00000050: 22f1 48bc 4c6d 113d 20ac 5e3d a334 11be
00000060: ff3f 803d 71fe cd3c af97 94bd 5654 60bc
00000070: 79a4 673d fbc4 0d3c ece1 32bd 29a1 b13d
00000080: 8639 eb3b 299f 0d3c aa32 17bd 4250 09bd
00000090: 7143 92bd 437d cebc f1e4 d8bd 1c27 c439
000000a0: 38b7 853c 837f bebd b475 98bd e91d 03bd
000000b0: cca3 dcbd 1774 8ebd 1b57 41be aa97 f6bd
000000c0: 1bf9 03be b17a a3be de6b 44bd 6219 5fbd
000000d0: 807b 44be 0642 9bbc ef92 8bbd ccfc 28be
000000e0: 51c9 4abd b7b2 ccbd 07a8 3dbe 917d 5bbd
000000f0: 1e4b 08be 4858 58be c7a0 60bd 0bb6 063d
00000100: c4be 483d 9af3 88bc 32e4 7b3d 6467 ef3c
00000110: 0489 5b3d 16a6 963d 65a4 2abd 872e d03a
00000120: 85f0 fbbc 4f1c 723b 8471 acbc 26ed abbc
00000130: 6afd fd3c dbd9 24be 9695 b73a aba1 173d
00000140: 74e8 163d e7f6 343d 0f54 abbd 34a2 09bd
00000150: 6868 783d 0acc 03be 35d4 5b3c 14f0 43bd
00000160: 0f63 edbd de13 6dbc 32b5 983d 1a3a 423d
00000170: d4b4 613c 09c0 5e3d 327c d33d c443 8fbc
00000180: efa9 033c f3a9 d93d 0108 b53d 502d 34bd
00000190: bb87 aabd a6fe 113c 554c b1bd 50f7 d6bc
000001a0: 982e 483b 7306 97bd 79f0 68bd c395 3cbd
000001b0: ce9e e9bc 5784 dabd 64b0 0c3d a9c0 40bd
000001c0: d1ab 2cbe 3782 94bd db3b c1bc 0818 dfbd
000001d0: 003c 663c db40 a8ba 82ec 273c b8bf 4f3d
000001e0: 25a0 dcbb ebe3 af3d c36c 2ebb fc1e 08bd
000001f0: 2fc0 fe3d a02f 9dbd f778 0cbd f730 41be
00000200: 6b11 7cbd 26c8 f1bd 972f 2bbe 94f2 a9bd
00000210: 0fc9 9fbd 6a93 91be 962e bfbd f449 64bd
00000220: bd09 1cbe 899d 5ebc 34c4 8fbd 04af 42be
00000230: 5fdf 8d3d 8bb8 02be e8a7 22be 7e27 a43c
00000240: 3ab7 79bc 5080 21bd 4099 d9bd 6c07 f9bc
00000250: 40e1 26bd 0a5f 0bbc f8da 8cbc a1bb 42bd
00000260: dab5 843c e77f 40bd 0a4d f8bd 2322 eebd
00000270: 3658 06be 6d98 91bd efc5 9abc 7eb3 b0bd
00000280: e19a 92bc e609 9d3d 3be1 043d a582 df3c
00000290: b606 2f3d d428 62bc 23fe 203d 7b0c 3d3d
000002a0: c115 a73c ee7e e63d 79ad 4f3d ca3a 6bbb
000002b0: f438 fbbb 350d 38bd 171d 1fbd bc9f 99bd
000002c0: d250 7fbd af62 60bd a96a b0bb 4f20 99bd
000002d0: 99b7 09be e700 bbbd a664 09be bdef a0bd
000002e0: bbcb a9bd 49ca d4bd 92d6 97bc 042c 85be
000002f0: a174 b3bd 1245 443d 3c33 cebc a208 9e3d
00000300: d7ca 593d 2287 9c3d 1ea2 63bd 69a7 01bb
00000310: 80af ab3d 7ca3 e4bd 1690 18ba aca7 8ebd
00000320: 933b 96bc d132 4f3b ca6d 1dbd b2c5 ccbd
00000330: 2053 d7bc c6db a7bc 10f2 0ebd 9766 2cbc
00000340: f07f eebb 7794 ec3c 5217 a9bd 3379 8c3d
00000350: 5ac0 16bd 84c5 81bd 96e9 243d 7a5a 7b3c
00000360: 3f3b 0cbd 447e fe3a 9526 a1bb 24e3 153c
00000370: 9c9f 813d efba 393d 824a 4a3c 1441 423d
00000380: ed65 543c 08a5 e9bc 1177 43bd 8b4a bbbd
00000390: 8710 babc 52ab 39be 24af dc3b 7112 28be
000003a0: e5c7 e1bd d2bc cc3c e6d3 0aba bc53 a739
000003b0: 0feb 863b 19b1 38bd 7b55 933d 55cb b6bc
000003c0: a7ad fdbb 6ddc ba3d 06b6 36bc 4e71 dd3d
000003d0: 4a27 e43b 9ebc 3ebb d8ca dbbc 3272 ce3d
000003e0: dbd6 8d3d 65e9 bbbd cea6 8d3d 7a85 2e3e
000003f0: 30d2 c1bd b64a d5bc cce5 eabd e498 13bd
-0.090819225 -0.10948399 -0.10583113 -0.0632966 -0.030605974 -0.11458967 -0.043015573 -0.08966395
-0.0987207 -0.06300648 -0.09854134 -0.06640667 -0.047554594 -0.13723996 -0.027744818 -0.11145607
-0.0889011 -0.14694002 -0.06856227 -0.031756207 -0.012264522 0.035504624 0.05436337 -0.14180236
0.06262206 0.025145741 -0.07255494 -0.013691982 0.056553338 0.008652921 -0.043672487 0.08673317
0.007178488 0.008643904 -0.03691355 -0.033523805 -0.0714177 -0.025206214 -0.10590542 0.00037413172
0.016322717 -0.09301665 -0.07444325 -0.032010946 -0.10773429 -0.06955736 -0.18880884 -0.120406464
-0.12887995 -0.31929544 -0.047954433 -0.054467566 -0.19187737 -0.01895238 -0.06815135 -0.16502684
-0.049508397 -0.09995025 -0.18521129 -0.053586546 -0.13309905 -0.21127427 -0.05484083 0.032888453
0.049010053 -0.01671772 0.06149692 0.029224105 0.053597465 0.07355897 -0.041660685 0.0015883007
-0.030754337 0.0036943143 -0.021050222 -0.020987105 0.031004626 -0.1609873 0.0014006372 0.037019413
0.03684278 0.044180777 -0.08365642 -0.033601955 0.060646445 -0.12870803 0.013417293 -0.04783638
-0.115911596 -0.014470069 0.07456435 0.04741869 0.013776023 0.054382358 0.10326423 -0.017488368
0.008036121 0.10628118 0.08839417 -0.043988526 -0.0832667 0.008910811 -0.08657137 -0.026240975
0.003054535 -0.07374277 -0.056869958 -0.04604126 -0.028518107 -0.10669773 0.034347907 -0.047058735
-0.16862418 -0.07251399 -0.023588112 -0.108932555 0.014052391 -0.0012836711 0.010249259 0.050719947
-0.006732958 0.08588394 -0.002661512 -0.033232674 0.12439 -0.076750994 -0.03429505 -0.18866335
-0.06154005 -0.118057534 -0.16717373 -0.08298221 -0.07802021 -0.2843278 -0.093350574 -0.05573459
-0.1523809 -0.013587364 -0.07019845 -0.19012076 0.0692737 -0.1276571 -0.15884364 0.020038363
-0.0152414385 -0.03942901 -0.10624933 -0.030399047 -0.04074216 -0.008506546 -0.017194256 -0.047542218
0.016199995 -0.046996977 -0.12124069 -0.11627605 -0.13119587 -0.07109151 -0.01889321 -0.086279854
-0.017896118 0.076679036 0.03244136 0.027283976 0.04273101 -0.0138036795 0.039304864 0.04615448
0.020396115 0.11254679 0.050702546 -0.0035893195 -0.0076667015 -0.04493447 -0.0388461 -0.0750117
-0.062332936 -0.054781612 -0.0053838086 -0.074768655 -0.13448943 -0.091310315 -0.134173 -0.078582264
-0.08290812 -0.10390145 -0.018534932 -0.26010144 -0.087624796 0.047917433 -0.025170915 0.0771649
0.05317196 0.07642962 -0.05557453 -0.0019783622 0.08383083 -0.11163995 -0.00058198103 -0.069655746
-0.018338954 0.0031615982 -0.03843478 -0.09998645 -0.026284754 -0.020490538 -0.034898818 -0.010522506
-0.007278435 0.028879387 -0.08256401 0.068590544 -0.036804534 -0.06336501 0.040261827 0.0153413955
-0.03423619 0.0019416292 -0.0049179294 0.009148393 0.06329271 0.04534429 0.012346866 0.047425345
0.012963754 -0.028521076 -0.047720972 -0.09145077 -0.022712959 -0.1813176 0.0067347456 -0.16413285
-0.11024455 0.02499238 -0.00052958576 0.0003191511 0.0041173766 -0.04509077 0.071940385 -0.022313753
-0.0077416482 0.09124074 -0.011151796 0.10812627 0.0069626914 -0.0029104124 -0.026830122 0.10080375
0.06925746 -0.09175376 0.06916581 0.17043105 -0.09463918 -0.026036602 -0.114696115 -0.03603448

vae.enc_convs.3.bias f4 [64]
00000000: 168f 943d 9635 b03c 6bbe bebd b00b 673c
00000010: 1043 16bc c687 f8bb 22b6 e7bd 7975 813d
00000020: 0bb6 17bd c98f 80bc 16fa f0bb 7320 b9bd
00000030: 5d6c 073d 144e cc3d 13d3 1e3e b725 123d
00000040: 507f c5bd d788 fab8 b485 f83d 4315 ffbd
00000050: 822c 30bc 6b4b 5cbd 259d 2ebd 34cd b53d
00000060: 1265 343e 0250 8b3d 6630 6c3d 3bb3 4abd
00000070: 0bb4 d7bc 564d b83d 0770 713e a101 453c
00000080: 082c ba3d bb64 823c c6cc 783c d2f0 263d
00000090: d8c8 97bd 9f86 b33d d834 11bd d0ac 33be
000000a0: 7a69 b03d cbff 3d3c dc0d 263c e2b9 17bb
000000b0: d348 c83d 10bd 7c3d 0e04 9cbc 8c53 bf3d
000000c0: 0ec6 c5bd a351 efbd 6a4d fa3c e87c 083e
000000d0: 0416 323d e6d2 1bbd e8a6 7abd ed6f b7bd
000000e0: a81d 8d3d 4b8e 1b3d 36c7 dbbc 9d6e 1a3e
000000f0: 1eae 853d fc18 ebbb fed2 d33d 5873 b3bc
0.07253854 0.021509927 -0.09313663 0.014101908 -0.009171262 -0.007584545 -0.11314036 0.06321234
-0.037038844 -0.015693562 -0.0073540313 -0.09039392 0.033062328 0.0997583 0.15510206 0.0356805
-0.096434236 -0.00011946417 0.12134877 -0.12455227 -0.010752799 -0.05378286 -0.042630333 0.0887703
0.1761668 0.0680237 0.057663344 -0.049487334 -0.026330968 0.08999126 0.23577891 0.012024314
0.090904295 0.015917173 0.015185541 0.040757008 -0.07411355 0.08765911 -0.035450786 -0.17546391
0.08613868 0.01159663 0.01013514 -0.0023151566 0.09779515 0.06170374 -0.019044902 0.09342107
-0.096569166 -0.11685493 0.030554492 0.13328898 0.043478027 -0.038042925 -0.06119433 -0.08956895
0.06890422 0.037977498 -0.02682839 0.15081258 0.06527351 -0.007174609 0.10342978 -0.021905586

vae.enc_convs.4.weight f4 [64]
00000000: cf63 763f dc5e 7e3f ee7a 563f 869b 8f3f
00000010: ee32 813f c7bf 903f 684f 883f 3c80 6c3f
00000020: e8ef 863f 2970 993f 4cd2 893f 5dd5 853f
00000030: 6eea 7b3f 64e6 3a3f a20a 523f 023d 4f3f
00000040: 0410 863f 4cb6 8d3f 4238 623f 2bbb 853f
00000050: c7da 8f3f 42eb 8f3f 4c34 863f 5a64 753f
00000060: ad8f 7c3f 3f2b 713f 8e13 8f3f 6e18 6c3f
00000070: f96e 833f 778d 913f daef 873f cd38 8d3f
00000080: a7f8 8a3f 9a30 913f d769 943f d478 653f
00000090: 99b7 903f c254 773f 68a8 803f 8e36 813f
000000a0: 8331 7d3f e0a8 893f 4a3c 833f 0afe 843f
000000b0: 26fa 863f 66ec 553f 9b23 573f 5f02 783f
000000c0: 6712 8b3f 1d51 983f 02b4 823f 42ee 5a3f
000000d0: 502b 8c3f d343 4e3f 7690 6b3f e878 903f
000000e0: aba4 5d3f 301f 6b3f 4eee 6c3f 4a10 583f
000000f0: a202 683f 8c65 8e3f 7792 663f d15d 8b3f
0.96246046 0.99363494 0.83781326 1.1219337 1.0093668 1.1308526 1.0649233 0.9238317
1.0541964 1.1987354 1.0767303 1.0455738 0.98404586 0.730078 0.82047474 0.80952466
1.0473638 1.1071258 0.8836709 1.0447744 1.123864 1.124367 1.048471 0.9585625
0.9865673 0.94206613 1.1177843 0.92224777 1.0268241 1.1371297 1.0620072 1.1032959
1.0857133 1.1342957 1.15948 0.89637494 1.130603 0.96613705 1.0051394 1.0094774
0.98903674 1.0754662 1.0252774 1.0390027 1.0545089 0.8356384 0.84038705 0.9687862
1.0864991 1.1899754 1.0211184 0.855198 1.0950718 0.8057224 0.92017305 1.1286898
0.8657939 0.91844463 0.92551124 0.84399855 0.9062902 1.112474 0.9006724 1.0888005

vae.enc_convs.4.bias f4 [64]
00000000: 8dd9 86bd 5eb6 56be bf3d 6dbe 7d76 b1bc
00000010: 2264 c5bd 417a 5dbd 339a b7bd a9b5 c3be
00000020: 8ca8 6bbe 3078 b1bd 6c72 09be b8c6 eabd
00000030: 27e1 31be 38a1 88be 53c1 b9be 4f9f 5cbe
00000040: 77b2 49be b4aa 46bd b8dc 66be 5bff d7bd
00000050: cfb5 473d 0c39 1abe ccce 82bc 0f1f 83be
00000060: 68e6 2cbe 9c24 b4be 074a 17be 3016 82be
00000070: 357f 93be 6ae0 1abb a970 5cbe ef51 cbbd
00000080: 18e1 10be a0ce 2bbe 0857 c83d 5a0c 89be
00000090: 48c4 903d c778 10be 3403 76be d755 50be
000000a0: 1cb6 a1bd df34 c6bd 2702 6ebe 14c7 e2bd
000000b0: d060 a73b 10cd 66be e268 6fbe 8d47 5abe
000000c0: facc 75be b599 8fbd 507c 5bbe 86a3 3bbe
000000d0: 759c 65bd ddee 8abe a800 b0be c449 d9bc
000000e0: 856d 9bbe 6268 d4be 7e6f 48bd a1cf 14be
000000f0: dfbf 29be 3505 c4bd c218 66be bb8d a43c
-0.06584463 -0.20968005 -0.23168086 -0.021662945 -0.096382394 -0.05407167 -0.08964958 -0.38224533
-0.23013514 -0.08665502 -0.13422555 -0.11463684 -0.17371045 -0.266855 -0.36280307 -0.21545146
-0.19696985 -0.04850264 -0.22545135 -0.10546752 0.04875737 -0.15060824 -0.015967749 -0.25609633
-0.16884768 -0.3518418 -0.14774333 -0.25407553 -0.2880799 -0.0023632296 -0.21527351 -0.09927737
-0.14148366 -0.1677804 0.09782225 -0.26767236 0.07068688 -0.14108573 -0.2402466 -0.20345245
-0.07896063 -0.09678053 -0.23243009 -0.110731274 0.0051079765 -0.22539163 -0.23379853 -0.21316357
-0.24003974 -0.07011739 -0.2143414 -0.18324098 -0.056057412 -0.27135363 -0.343755 -0.026524432
-0.30356994 -0.41485888 -0.048934452 -0.14532329 -0.165771 -0.09571306 -0.22470382 0.020087114

vae.enc_convs.4.running_mean f4 [64]
00000000: 0d3f 62c0 84d1 0bc0 833b d8bf 0c29 29c0
00000010: 1dfc 4ebe 5ef1 4ebf 634c 4b3e 728c c6bf
00000020: cb50 d9be 43de 26be ff6c 07c0 c0bc b4bf
00000030: 95d8 10c0 048b f5bf bfc4 02c0 bc02 3ebe
00000040: 6e73 acbd 6752 fdbe 3336 f8be 23a5 a13f
00000050: c1e7 97bf d367 c6bf dfd9 983f 00df 07be
00000060: 76b3 bdbf 4115 2f3f dfbc d9bd ebf7 17c0
00000070: 5b5e 0fbf f740 c23c 6ff5 12be 5049 65bf
00000080: 337a 32bf 9161 aabd 7809 7fbf 1fdf 453e
00000090: 2357 fb3f b6fc 6cbf f5ad a23f a122 c7be
000000a0: 9d81 42c0 4d46 f3be 7ee7 073f 3536 953d
000000b0: 4df1 873f 03b6 ae3e a519 ccbf 3b31 96bf
000000c0: 23f1 a3bf 2a5e 8f3d dd34 0140 4cb0 28c0
000000d0: c7a0 b2be 17d6 0c3e 2a00 aabf 0884 c03e
000000e0: cc2f 02bf d5e7 f03f 0fd8 a6bf 2aa5 58bf
000000f0: 142a cabf e184 92bf 2178 f0bf 6f4c 67bf
-3.5350983 -2.1846628 -1.6893162 -2.6431303 -0.20213361 -0.8083705 0.19853358 -1.551161
-0.42444453 -0.16295724 -2.1160276 -1.4120102 -2.263219 -1.9183049 -2.0432584 -0.1855573
-0.08420454 -0.4947693 -0.4847885 1.2628521 -1.1867601 -1.5500435 1.1941489 -0.13268661
-1.4820392 0.68391806 -0.106317274 -2.3745067 -0.5600335 0.023712618 -0.14351438 -0.8956499
-0.6971771 -0.083193906 -0.99623823 0.19323395 1.9635967 -0.92573106 1.2709337 -0.38893607
-3.039161 -0.47514573 0.53087604 0.0728573 1.0620514 0.3412324 -1.5945326 -1.1733774
-1.2807964 0.07000382 2.0188515 -2.6357603 -0.34888288 0.13753544 -1.32813 0.37600732
-0.5085418 1.882075 -1.3034686 -0.8462702 -1.5794091 -1.1446801 -1.878666 -0.90351003

vae.enc_convs.4.running_var f4 [64]
00000000: cd3c 8c3f 6d23 0240 f1e1 eb3f 2cad cf3f
00000010: eed4 f13f b335 5940 a523 2e40 cf7c 8a3f
00000020: 370a 6940 df79 6240 0a1a 853f 86ed 2940
00000030: 41ae 813f a9b3 da3f 2b38 f73f 1745 3d40
00000040: bb3d 6a40 3b7c 9a40 c726 0140 e2e7 1e40
00000050: 035a cd40 25de ec3f 79d8 6040 90e3 1540
00000060: 9f7c c13f 0581 d43f b6dc 1a40 5fc2 e83f
00000070: 4714 a13f 7972 0240 ec69 3840 d5df 1b40
00000080: 8d12 3d40 d02c 3640 c3a3 e140 0d87 e43f
00000090: 7ff2 4640 d7d5 4140 cb8f 2640 1641 de3f
000000a0: 7a81 a83f 5c8a 5340 98f5 3040 c75b 3040
000000b0: 69e7 6040 2f5f ef3f 461f 963f 85e9 0d40
000000c0: 6cc8 0b40 c3eb 5e40 46e3 de3f 19bd e23f
000000d0: 4cf7 2340 9b44 0540 6c6a 863f f5c1 2d40
000000e0: a9c8 b03f 5bde 483f 376d 393f 67f9 2e40
000000f0: 2b01 a73f b435 c53f a048 5d40 8356 9340
1.0956055 2.0334122 1.8428327 1.6224723 1.8893106 3.3939025 2.7209256 1.0819339
3.6412485 3.5386884 1.0398571 2.6551223 1.0131303 1.7086078 1.9314016 2.957342
3.6600177 4.827665 2.0179918 2.482903 6.4172378 1.8505293 3.5132124 2.3420143
1.5116156 1.6601874 2.4197211 1.8184317 1.2584313 2.0382369 2.881465 2.4355366
2.9542572 2.8464851 7.0512404 1.7853714 3.1085508 3.0286767 2.6025264 1.7363613
1.3164513 3.3053198 2.7649899 2.7556016 3.5141242 1.8700923 1.1728294 2.217378
2.1841078 3.4831398 1.7413108 1.7713958 2.5619688 2.0823123 1.0501227 2.7149632
1.3811237 0.7846429 0.72432274 2.7339723 1.3047231 1.5407014 3.4575577 4.6043105

vae.enc_convs.6.weight f4 [64, 64, 3, 3]
00000000: d996 e43c fd51 cfbc 1ca1 5dbd 2af2 d1bd
00000010: a04a 36bd f355 323d da3d ed3c 85fe dbbd
00000020: b638 1fbc 83d3 103e ca1b 0c3e 9627 ae3b
00000030: b1a9 503d 868a c4bd ee96 f6bd 1d59 be3c
00000040: 14f9 413b c441 143c 734c 00bc 43f9 e2bd
00000050: 54bc 43bc 2da0 8ebd 1bfa 633d 520e 223d
00000060: a3bc f43b 7787 d93d 13d6 0cbd e2e2 0ebd
00000070: cbd2 f7bb 1bd4 033d b880 a0bd 559f b5bc
00000080: 2380 763d 5931 183d 9943 ef3c 185b 963d
00000090: 02af 4c3d 86fb dc3d ff14 2c3d 947a 7d3d
000000a0: 5cc1 26bd d9c1 f13c 5959 38bc 1399 06bb
000000b0: 74da 993d f657 8bbd a807 c1bd adff 24bd
000000c0: 8226 cfbd 7a2a 103d 5763 04bd 393e 6dbc
000000d0: b18b 113c 6216 933c 15fd 94bd f021 a83d
000000e0: 4697 f9bb 8a12 903d 70c2 173e 2a9b 263c
000000f0: f4e7 fa3d 18ac 8d3d fbec 773d c40d 943d
00000100: 8aa7 01bd b651 69bc e56b c33d 3e92 8bbb
00000110: 8a18 6e3d 43dd ad3d b04b 153d 5101 d0bc
00000120: 7675 8a3d 0e9b d73d 5191 6b3d e28b 143d
00000130: cd42 2fbe 52c4 703b 3a7d 953d 141f 61bb
00000140: dbef 913c 7ff8 85bc 4223 cd3d 9360 2dbe
00000150: 197e d2bd 448f 60bd caa7 8a3d f947 38bd
00000160: 91ed 8fbd c6c4 4cbc 7406 79bc d238 323d
00000170: 559a b7bd 44da 14bd 5f54 9ebd 8b38 d1bd
00000180: 6015 19be 07bd 013d 0e19 27be f23a adbd
00000190: 1199 b73c e6d5 dabd 774b afbd ccce 8ebc
000001a0: 040c cf3d 7404 2e3d de6a 81bc 43f8 8c3d
000001b0: 2b2e cd3c 21b4 d4bb 2416 313b a687 b8bd
000001c0: 9c44 0abe 3eac ffbc 607b 40bc 5566 fcbb
000001d0: 744d 7abc d901 153d dce2 9fbd 265a 58bb
000001e0: c8a0 70bb a5f5 e73c 8ad3 083d bdc9 5e3d
000001f0: b7b1 d83d 4414 583d 8663 ccbc 02ad a7bc
00000200: 60b0 d33c 5475 b23d b09f 333e 758d d6bb
00000210: 62c9 c9bc 79ad a83d ae62 e23b ab6f a43c
00000220: 04e0 693d 2c61 7b3d 5b6e 8a3c 6f38 a43d
00000230: 95a3 32bd 97b5 463c 62b0 fe3d b09e 443c
00000240: f907 e2bc a46f 533d a4de ad3d f0eb 02be
00000250: 28e0 523d 5ab9 79bd d0d1 933c a5e9 073d
00000260: 31c2 83bc d8d4 9a3c d43b 123d 1253 a73d
00000270: 7ca9 3d3d efc1 783d b05a 58bc c2ca 23bd
00000280: a046 f13d 4bf2 3f3d 5d79 583c bf72 0fbd
00000290: a13d 873c 8742 2e3d fb0c 413d bae1 0b3c
000002a0: 85b7 ce3c b91f 843d 1d26 993d 6b6c 07bd
000002b0: d900 f6bd f378 4f3d 5c40 54bd d7e1 81bd
000002c0: 2127 17bd c55c 51bd 0387 26be a213 45bd
000002d0: b2e5 0b3b 42c2 91bd 545b 1dbc f290 073e
000002e0: 43c7 ee3d 4f4e bebc 9264 86bd 164e ffbb
000002f0: c013 1cbd 2db9 9f3d d1c1 363c 1142 c33c
00000300: 698c 013c 7521 1e3d 8849 d13d 363f be3c
00000310: 9ce1 64bd 8a51 b0bd 69a0 21be e97b 983d
00000320: 203c a7bd 2422 c4bc 72db 4a3c 2e1d 653d
00000330: 64e9 093d 3268 2cbe 9173 3b3b 1993 323d
00000340: 8602 bdbc 43b8 2d3b 4656 04bd a912 8a3d
00000350: e1c9 343d 8e48 8c3d 6f7e fc3d 22e7 ab3d
00000360: 62d4 9b3c ea02 d1bc 850c 013a e65c 1a3d
00000370: c7ee 733c 199e 843c a6df 96bd 2530 7fb9
00000380: e093 0d3d aa2f c23d d123 deb9 71e9 b7bc
00000390: c682 bebd ad14 f1bd 0ece debd d637 093d
000003a0: 16b8 133c 59c9 af3d d63f 473d 1f4e e6bb
000003b0: f1a6 a339 2b32 5cbd 3acc 5ab9 ab18 5d3c
000003c0: 190b 893d eea5 683c ea5d 4e3d 1df0 05bd
000003d0: 6bc9 563d 23bd a2ba 666d 8c3d c107 a13d
000003e0: 3955 753d 6ed8 093d de53 99bd 905d 8abc
000003f0: c3a5 173d 6c2e 4bbd ab8f d33b ef56 b8bd
0.027903961 -0.02530765 -0.054108724 -0.10251267 -0.04450476 0.043539 0.028960157 -0.10741905
-0.009718111 0.14143185 0.13682476 0.0053147776 0.05094308 -0.09596734 -0.12040506 0.023235852
0.0029597925 0.009048883 -0.007830727 -0.11082699 -0.011946756 -0.06964145 0.05565844 0.03956444
0.0074687763 0.10621541 -0.034383845 -0.03488434 -0.0075629703 0.0321847 -0.07837051 -0.022170702
0.060180794 0.037156437 0.029207038 0.073415935 0.049971588 0.10790162 0.04201221 0.061884478
-0.040711746 0.02951138 -0.011251771 -0.0020538017 0.0751237 -0.068038866 -0.094252884 -0.040282894
-0.10114767 0.03519676 -0.0323213 -0.014480167 0.008883403 0.017955009 -0.07274834 0.08209598
-0.00761691 0.07034786 0.14820266 0.01016883 0.12251273 0.0691759 0.060528737 0.07229188
-0.03165392 -0.014240673 0.095420636 -0.004259377 0.05812887 0.08489468 0.036449134 -0.025391253
0.06760685 0.10527621 0.05751163 0.036266215 -0.17115326 0.003673811 0.07299276 -0.00343508
0.017814567 -0.016353844 0.100164905 -0.16931371 -0.102779575 -0.05482413 0.067702845 -0.044990513
-0.07027734 -0.012498086 -0.015199292 0.04351122 -0.089649834 -0.036340967 -0.07730936 -0.10215863
-0.1494956 0.03167441 -0.16318151 -0.084585086 0.022411855 -0.10685329 -0.08559316 -0.017432593
0.10109714 0.042484716 -0.015798029 0.0688329 0.025046429 -0.0064911996 0.0027021253 -0.09010248
-0.13502735 -0.031210061 -0.011748165 -0.0077026286 -0.015277255 0.036378715 -0.07806942 -0.0033012717
-0.0036716927 0.028315375 0.033404864 0.05439161 0.105807714 0.0527537 -0.0249498 -0.020468239
0.025840938 0.08713785 0.17541385 -0.0065476247 -0.02463216 0.08236212 0.006908736 0.020072779
0.057098404 0.061371967 0.016898325 0.08018576 -0.043613035 0.012128255 0.12435986 0.012000725
-0.027591692 0.05162014 0.08489731 -0.12785316 0.051483303 -0.06096778 0.018044382 0.033181805
-0.016083809 0.01890032 0.035701588 0.08170141 0.04630421 0.060731824 -0.013205215 -0.039988287
0.11781049 0.046861928 0.013212529 -0.03502154 0.01650888 0.042543914 0.04713152 0.008537704
0.025233993 0.06451363 0.07477973 -0.03306238 -0.120118804 0.050652456 -0.05181919 -0.06341904
-0.03690255 -0.051113863 -0.1626244 -0.048114426 0.0021346626 -0.0711713 -0.009604294 0.13238886
0.116591 -0.0232307 -0.06562151 -0.007791291 -0.038104773 0.07798991 0.011154608 0.023835214
0.007907012 0.038606126 0.10219103 0.0232235 -0.05587922 -0.08609302 -0.15783848 0.07445509
-0.08165765 -0.02394206 0.012381421 0.05593603 0.033669844 -0.16836622 0.0028602818 0.043597315
-0.023072492 0.0026507534 -0.03230884 0.067418404 0.04413784 0.06849776 0.12328803 0.083936945
0.01902217 -0.025514085 0.0004922825 0.03768625 0.014888472 0.016188668 -0.07366876 -0.0002433663
0.034564853 0.094817474 -0.00042369825 -0.02245018 -0.09302287 -0.11771522 -0.108791456 0.033500515
0.0090160575 0.08583326 0.048644863 -0.0070283557 0.00031214164 -0.05375878 -0.0002086618 0.013494651
0.0669157 0.014199717 0.050382532 -0.032699693 0.05243818 -0.0012415986 0.068568036 0.07862807
0.059895728 0.03365367 -0.074866995 -0.016890317 0.037023317 -0.04960482 0.0064563355 -0.09000956

vae.enc_convs.6.bias f4 [64]
00000000: 4290 a6bc ef64 27be 0295 8438 18cd 18be
00000010: 3d4a 0b3d 09c9 62be 2901 2ebd 4b6e 3dbe
00000020: 6889 16bd 1134 5ebe 329d a1bd 9b5f cbbe
00000030: de02 c13c 2c3c 7cbe 3c3d a4be 495a 22bd
00000040: 0116 98bd c411 5abe e86d 233c 7352 e9be
00000050: 012a 2abe d372 9c3d 965a 1b3e 5ad2 9cbd
00000060: fc87 9ebe 8da0 bcbd 62ef 0abe b3a4 a8be
00000070: 9106 4c3d c594 11be 1d6c 7abd f388 9dbd
00000080: ead0 a4bd e8cf 82be 5518 423d 2b48 59bd
00000090: f374 c9be 6c2e 78bd 2a68 15bc 1eb7 28bb
000000a0: 309d 63be 134d 32be 8633 61bd fc48 a9bc
000000b0: 2802 9e3d ff2a e7bd c5fc cfbd 2af5 ed3d
000000c0: 0d0e a3be 2bf7 193d 0a73 f6be 3012 a9bd
000000d0: 249a 0d3d 0b7b ef3d b270 e8bd 87fb dcbd
000000e0: aed9 053d e9cb 58be 2bdd 63bd aeb7 bbbd
000000f0: 40c1 e0bb 5eff 043c 9cc6 46bd 8a7f f3bd
-0.02033246 -0.16347097 6.322005e-05 -0.14921987 0.034006346 -0.22147001 -0.042481575 -0.18499105
-0.036752135 -0.2169955 -0.07891311 -0.3972138 0.023560937 -0.24632329 -0.32077968 -0.039636884
-0.07426072 -0.2129584 0.009974934 -0.45570716 -0.16617586 0.076390885 0.15171275 -0.07657309
-0.30963123 -0.0921031 -0.1356788 -0.32938156 0.04981095 -0.14216907 -0.06113826 -0.076921366
-0.0804766 -0.25549245 0.047386486 -0.05304734 -0.39347038 -0.060591146 -0.009119073 -0.0025743912
-0.22227931 -0.17412214 -0.054980777 -0.020664684 0.07715255 -0.11287498 -0.10155634 0.11619027
-0.31846657 0.037589233 -0.48134643 -0.08255422 0.034570828 0.116933905 -0.1134962 -0.107901625
0.0326783 -0.21171536 -0.055630844 -0.091658935 -0.0068589747 0.008117525 -0.048529252 -0.118895605

vae.enc_convs.7.weight f4 [64]
00000000: 45c3 c23f a755 e53f c6db 0640 b18d c53f
00000010: 7f49 ee3f 47f9 f73f 408d f63f 7da3 eb3f
00000020: cffb ec3f 9c7b f33f 1790 fc3f 1cd0 0740
00000030: 3b12 ef3f 05cf d83f f052 ef3f 041d c33f
00000040: 6457 ee3f ef55 0540 41f7 fb3f aff5 fa3f
00000050: 1842 bf3f 5457 d73f b6ce fe3f dfc1 f53f
00000060: 45da ef3f d47b 0140 9d9f d23f aaee ce3f
00000070: cae9 ed3f a1aa e23f ed1a fd3f 5004 ec3f
00000080: 22e7 f33f 1f9b 0140 e2f7 ce3f e8b9 f33f
00000090: 4261 0640 7701 fc3f f111 e23f 798e ef3f
000000a0: fadc 0d40 0f78 eb3f 912a 0140 52ed d93f
000000b0: 5595 f23f ec6d f03f 553a f93f 1321 ec3f
000000c0: 38a9 0740 34c8 dd3f 8ca7 0640 55b6 e13f
000000d0: 55f2 d93f b8ff 0440 8b15 dd3f f494 de3f
000000e0: e22f e93f b007 0840 fe57 ca3f ef83 fb3f
000000f0: 6bed e73f e0fe f43f 008e d43f 09b7 de3f
1.5215842 1.7916764 2.107164 1.5433866 1.8616179 1.9372948 1.9261856 1.8409268
1.8514346 1.9022098 1.9731473 2.122077 1.8677438 1.6938177 1.8697186 1.524323
1.862042 2.08337 1.9684831 1.9606227 1.4942045 1.6823525 1.9906833 1.919979
1.8738486 2.0231829 1.645496 1.6166584 1.8586972 1.7708322 1.9773842 1.8438816
1.9054911 2.0250928 1.6169398 1.9041109 2.0996861 1.9687947 1.7661725 1.8715354
2.2166123 1.8396014 2.018223 1.702555 1.8951823 1.8783545 1.9470927 1.8447593
2.1197033 1.7326722 2.1039762 1.7633768 1.7027079 2.0781078 1.7272199 1.7389207
1.8217738 2.1254692 1.5808103 1.9649638 1.8119329 1.9140282 1.6605835 1.7399608

vae.enc_convs.7.bias f4 [64]
00000000: 5bd3 ca3d 76b0 e53e 3244 963e 919a 593e
00000010: 5d2f f53d 2902 893e b4be 4c3e 59b8 c73e
00000020: 6309 433e 6b97 8a3e a2b7 803e 868d 103f
00000030: 0cdc 3e3e 97fc 5f3e ac9c eb3e ece8 913e
00000040: c358 183e 946b 6e3e 0ea0 6a3e 2e91 133f
00000050: 1c27 753e 26fa 0bbd bd12 733d 48e7 e53d
00000060: 272c b93e 9274 6f3e eef9 853e 5d48 ae3e
00000070: e428 653e c52f 6e3e 33a9 173e ee59 873e
00000080: 34b3 903e 7de5 5e3e da9e 143e 25c8 193e
00000090: 2dad 1c3f 096c 673e ec28 903e 1d33 fe3d
000000a0: 3169 883e baed 5f3e e214 7c3e a8a0 5f3e
000000b0: 959c 9f3e f5ae ae3e 487d cb3e 2b5f 053e
000000c0: db5b c93e 6de4 233e cf94 a03e afb9 a63e
000000d0: 819e 913e a834 8c3e 2215 783e 6aed 4a3e
000000e0: d1ea 9a3e fcfd a33e 4686 4c3e a399 a43e
000000f0: 250d 1b3e d5ee 8f3e 39f6 553e 4961 a13e
0.09903594 0.44861192 0.29348904 0.21250369 0.119719245 0.2675946 0.19994622 0.39007834
0.1904655 0.27068648 0.251401 0.5646595 0.18638629 0.21873699 0.4601797 0.28498018
0.1487761 0.23283225 0.22912619 0.576434 0.239407 -0.034174107 0.059344042 0.11225754
0.36166498 0.23384312 0.26167244 0.34039584 0.2237888 0.2326041 0.14810638 0.26435798
0.2826172 0.2176723 0.14513722 0.15017755 0.61201745 0.22599806 0.2815622 0.12412093
0.26642755 0.21868029 0.24617341 0.21838629 0.3117415 0.34117857 0.3974402 0.13024585
0.39327893 0.16005106 0.31363532 0.3256354 0.2844124 0.27383924 0.24226812 0.19817129
0.30257276 0.32029712 0.19973096 0.32148466 0.15141733 0.28111902 0.20894708 0.31519535

vae.enc_convs.7.running_mean f4 [64]
00000000: 21d4 733d 6f0d 7dbf 379d 0c3e 9841 23bf
00000010: 2d80 323f 86f2 b3bf b22d dabe ca59 31bf
00000020: 128b 563f 250b 31c0 f2ba 93bf de43 3bc0
00000030: 041a 453e 371e c9bf 45c6 32c0 da8e d0bf
00000040: d702 1fbf 75a2 0cbf fcb7 31bf 09cc d9bf
00000050: 6fab b0bf f4ec 89be a5fb a13f 5503 e8be
00000060: 912e 15c0 eb28 febe e179 acbf 8b75 d7bf
00000070: a9d1 abbe 1a6d b2bf 4331 b1be e9e1 3ebf
00000080: cf92 58bf c004 b2bf 6dcc 2e3f 8579 e1be
00000090: dd06 0dc0 b6f3 3a3e d49d 11bf 56f3 813e
000000a0: dc41 eebf 32cc 9cbf fe41 c8be f60a c8be
000000b0: 290e 2f3f 67f9 4bbe be11 c6bf 3845 443f
000000c0: a145 10c0 8c0b f8be ae79 4bc0 d29e eb3c
000000d0: 3d1b abbf 6e31 ab3e 6efe 813e f943 b2be
000000e0: b4ee 403e d636 ecbf 6257 9fbe f960 5fbf
000000f0: 2922 d3be 03cb e43e c465 51bf 049b 1dc0
0.059528474 -0.98848623 0.13731848 -0.63771963 0.6972683 -1.4058387 -0.42612988 -0.6927763
0.83805954 -2.7663052 -1.1541426 -2.9260173 0.19248205 -1.5712346 -2.7933514 -1.6293595
-0.6211371 -0.5493539 -0.6942136 -1.7015392 -1.3802317 -0.26938593 1.2654921 -0.45315042
-2.3309672 -0.49640593 -1.3474694 -1.6832746 -0.33558396 -1.3939545 -0.34607896 -0.7456346
-0.8459901 -1.39077 0.6828068 -0.44038025 -2.203544 0.18257031 -0.5688145 0.25380963
-1.8613849 -1.2249815 -0.39112848 -0.39070863 0.6838098 -0.19919358 -1.5474164 0.7666812
-2.2542498 -0.4844631 -3.1793017 0.028762255 -1.3367687 0.3343615 0.25389427 -0.34817484
0.18841058 -1.8454235 -0.31121355 -0.87257344 -0.41237 0.44686136 -0.8179591 -2.4625864

vae.enc_convs.7.running_var f4 [64]
00000000: fefe be3f dc28 1640 5dee 0f40 26b8 f33f
00000010: 1d72 ec3f 1ea6 0c40 0f3f 1d40 36db 1940
00000020: 123f 0740 6237 1740 941c 1640 a39d e73f
00000030: 007f 0f40 50d7 0340 f761 0340 caf9 bd3f
00000040: 9a37 1440 1201 1a40 35de d83f de88 3c40
00000050: 7284 ed3f c39a e63f b264 ce3f e0a0 2840
00000060: 8491 1d40 9e22 2d40 112b 1b40 a9a8 5140
00000070: c89a e83f a74f ff3f 5821 0340 c1d1 1240
00000080: a325 2e40 7934 3d40 7b93 c53f 0385 1c40
00000090: 06ab 6240 6458 1640 920c 2e40 8583 e83f
000000a0: 4be4 2f40 f14d fe3f 9351 3a40 dc5d 0340
000000b0: 9525 0440 bbbd 2e40 e958 2440 7298 db3f
000000c0: 5b7a 2140 1996 0840 49c5 0140 b1ef 1240
000000d0: 3daf ac3f b1a8 3a40 0593 0a40 2edd 0740
000000e0: 9849 6e40 44fe 1340 bc05 4140 7eb2 0f40
000000f0: f603 0540 c007 0440 6be5 ec3f 4fa3 0040
1.4921567 2.3462439 2.2489235 1.9040573 1.8472325 2.197639 2.4569738 2.4040046
2.1132245 2.3627553 2.3454943 1.8094982 2.2421265 2.0600166 2.0528543 1.4841855
2.3158937 2.4063153 1.6942812 2.9458537 1.8556044 1.801598 1.612448 2.634819
2.4620066 2.7052379 2.4245036 3.2759192 1.8172235 1.9946183 2.0489101 2.2940524
2.7210472 2.9563277 1.5435632 2.4456184 3.5416884 2.349145 2.7195172 1.8165137
2.748309 1.9867536 2.911229 2.0526037 2.0647938 2.7303302 2.5679266 1.7155898
2.523093 2.1341612 2.0276663 2.2958796 1.3490978 2.916546 2.1652234 2.1228747
3.7232418 2.3123941 3.015975 2.2452693 2.0783668 2.062973 1.8507513 2.0099676

vae.mu_linear.0.weight f4 [20, 1024]
00000000: 80ae b03b 2b4b 763c c8fc 29bd b7eb ddbc
00000010: 8b1b 42bd fa20 233e 6e94 903d 3f5b bb3d
00000020: 0867 173d 740b 883e ec73 aabc eecd 32bd
00000030: 0392 643d 2b93 23be 364d a13d 608d 183d
00000040: 7334 443d b002 163d 3695 983b 3ee2 64be
00000050: a468 cebd 8132 d0bd 087b 983c 5d5e d43d
00000060: 5611 e2bd ea5f 643e ed73 453d 5668 75be
00000070: 5d2e c53c 98c3 423e 9561 8e3d 7eaf 8fbc
00000080: 68e1 873c c413 71be 9e62 e13c 04cb 913d
00000090: f264 ffbe ef60 1c3e 1d4c b2bd c62e 103e
000000a0: 8847 c23e 1fe0 1d3d 3dbf e83c 90a2 9fbe
000000b0: 3618 f6bb d42d d53c 1940 433d f709 283d
000000c0: b7b5 3cbd bae7 b53d e347 9c39 5cac 97bd
000000d0: a594 2c3d f011 663c 1d92 4cbc 0183 94be
000000e0: 70c8 cabd 07cf a1bd 47c3 8abd 7fbb 34bd
000000f0: a6f2 623a 5857 0f3d 9ad8 00bb 75f3 76bd
00000100: 1d07 dfbb d8cf ad3a af23 243d 3dff 833c
00000110: 17bc 053c 2877 17bd 4072 f13d b413 233d
00000120: 30ae 39bd 29a3 a73d 775c 6bbe 907e 28bc
00000130: 265a d13c 5c7d c8bd 82a7 b53b ce05 f9bc
00000140: f093 6cbd 1934 573d ec16 e3bc 603c a83d
00000150: 2dc7 9cbc 05d7 073e 8688 42bd 9d6a ddbd
00000160: 7c7b 913c 9ef8 243e cf21 8fbc fb8d 18be
00000170: 0b9a adbb c219 93bc c6b5 183c 4840 54bd
00000180: 77cb 89bc ef4c 98be 1925 15bc 1e3d 203e
00000190: 5f0a c33d cf2e 0d3e e24d 2dbd e30b c8bd
000001a0: 047e d23d ae3f 35bd bc66 093d 6247 2cbe
000001b0: cb77 3ebe b4a0 08bc a293 6ebd 4d4d 9c3d
000001c0: 81e2 243d 1d2d f7bb b871 463d f7d0 9c3c
000001d0: 30c5 6cbb d1ea 27be d9f7 263e 4757 a73d
000001e0: f469 163d 48ec 8f3d 26a1 a1be 497c 81bd
000001f0: 942f 383e 1b2a 923d cb95 243d 5820 55bd
00000200: d827 f1bc 5b1e cfbb b0f3 5a3c 0e22 6f3c
00000210: 0e42 c73c bedc 70bd 339a 273d 8bec 843c
00000220: f919 5f3c de54 8d3e b9fe b9bd 4d82 f6bd
00000230: 801c 6bbd 8409 e23c 4879 823d 54cd e13c
00000240: d9e8 f73c 1b4c c1bb b613 b7bd 177f a33d
00000250: 8b6b 4ebe 34ed 0e3e 0793 333e 269b 46bd
00000260: ff0c d73e f6ca 62be c0ff 733d fe3e 263e
00000270: 0781 05bd 6784 b23b 7a5a 0e3c 34f0 9f3d
00000280: 9f13 94bd c429 703c 5223 7abb 3dd0 733d
00000290: 7c68 543d c56e 3b3e 62d8 c93d 5c97 e63d
000002a0: 9531 393e dbb6 a3bc 824b 23bd fd47 14be
000002b0: 9367 bd3c 3021 853d b4ac c13c 4993 603d
000002c0: 332f 0d3d a290 d0bd 7f67 d6bd 1b90 823c
000002d0: 5eb4 7b3d 453e f6bc c5aa 043e 38d3 c0bd
000002e0: 1157 fabc 9980 773e 9442 583e 426d 3bbd
000002f0: 977a 9f3d e4ad 473c 2aa5 25bd d881 2a3d
00000300: 13ea a8be 2412 c4ba 53e9 ba3d 12f3 f93d
00000310: 11ce 153e 3a73 fa3d fb78 0cbe 16c1 96bd
00000320: 4804 ec3d 7225 87be f1a2 3c3d ac1f 123b
00000330: 3a97 e5bc 16c2 52bd b8ba 2a3d a4c1 c03d
00000340: 8221 d6bd 5365 0c3d 92c8 b93d a3b3 6b3d
00000350: e4be af3e aaa9 aabe bc29 bcbd f2fd a73c
00000360: 9726 4dbd e75f e23d 3994 7fbc 4efb 56bc
00000370: c9fe 15be baec 9b3d 64d6 b33d fd96 89bd
00000380: 2d6a 003c a9c3 aabe 6931 723d 7834 b5bb
00000390: c507 19be 9d7f 97bd 4497 343c 4602 cebc
000003a0: e84c 903e a53f 7e3d 6d9d 96bd 1661 8f3d
000003b0: 1b1b c0bb 2a1f 5a3c 46db 2c3e 348d 443d
000003c0: 7cef 153c 0b98 f4bd 542b 1b3e a72a 3b3d
000003d0: aeb2 eebd a7e4 85be c0d0 1ebd 5d51 c83d
000003e0: eea2 32bb 0721 0e3e 2483 ac3b 63f0 4cbc
000003f0: 5cb0 1c38 3bc1 953d 6c0e 003e 31e1 c3bd
0.005391896 0.01503257 -0.041500837 -0.027089937 -0.04738955 0.15930548 0.07059561 0.09148263
0.036963493 0.26571238 -0.020807229 -0.04365342 0.05580331 -0.15974109 0.07876055 0.0372442
0.047901582 0.036623657 0.004656459 -0.2235193 -0.10078552 -0.10165883 0.018613353 0.10369561
-0.11038463 0.22302213 0.04820626 -0.23965582 0.02406996 0.19019926 0.06952206 -0.017539736
0.016586974 -0.23542696 0.027512845 0.071188 -0.49881703 0.15271352 -0.08705924 0.14080343
0.379452 0.038543817 0.028411502 -0.31178713 -0.0075102104 0.02602283 0.04766855 0.04102513
-0.046071734 0.08882089 0.00029808198 -0.07405922 0.042133946 0.014042363 -0.012486008 -0.29006198
-0.09901512 -0.079008155 -0.067755274 -0.044124123 0.0008657373 0.034995407 -0.0019660355 -0.060290772
-0.006806268 0.0013260795 0.040073093 0.016112918 0.00816252 -0.03697887 0.117893696 0.039813712
-0.045332134 0.08185417 -0.22984491 -0.010284081 0.025555681 -0.097895354 0.00554365 -0.030398276
-0.05775827 0.05253992 -0.027720891 0.082146406 -0.019137943 0.13265617 -0.04749348 -0.108113505
0.017759077 0.16110465 -0.017472176 -0.14897911 -0.0052979044 -0.017956618 0.009320682 -0.051819116
-0.016820652 -0.29746196 -0.009103083 0.15648314 0.095234625 0.13787387 -0.042310603 -0.09767892
0.10277942 -0.044250183 0.03354524 -0.16824105 -0.18600385 -0.008339096 -0.058246262 0.076319315
0.040255073 -0.0075432197 0.048448294 0.019142611 -0.0036128275 -0.16398169 0.16305484 0.08170944
0.03672214 0.07027489 -0.3156826 -0.06322534 0.179869 0.07136937 0.040181916 -0.0520328
-0.029437944 -0.0063207573 0.013363764 0.014595522 0.02432349 -0.058804266 0.04091854 0.016226074
0.013617032 0.2760381 -0.090817876 -0.12036572 -0.057400227 0.027592428 0.06370789 0.027563728
0.030262398 -0.005898965 -0.089393064 0.07983225 -0.20158212 0.13957673 0.17536555 -0.048487805
0.42002103 -0.22147736 0.059570074 0.16234967 -0.032593753 0.0054479125 0.0086885635 0.07809487
-0.07230305 0.014658395 -0.0038168025 0.059524763 0.051857457 0.18303974 0.09855725 0.11259338
0.1808532 -0.019984653 -0.03986693 -0.14480586 0.023120677 0.06500471 0.023641922 0.054827962
0.03446884 -0.101838365 -0.10468959 0.015937855 0.06145131 -0.03005899 0.12955768 -0.09415287
-0.030559095 0.2417015 0.21119148 -0.045758493 0.07787054 0.012187455 -0.040440716 0.041627735
-0.32991084 -0.001495902 0.09126534 0.12204565 0.1462939 0.12229009 -0.13718025 -0.07361047
0.11524254 -0.26395756 0.04605383 0.002229671 -0.028026212 -0.051454626 0.041681975 0.09411934
-0.1045561 0.034276318 0.09071459 0.05754436 0.34325325 -0.33332568 -0.09187648 0.020506833
-0.05008563 0.11053448 -0.015599304 -0.013121439 -0.14647974 0.076135114 0.08781126 -0.06718252
0.007837814 -0.33352402 0.059129152 -0.0055299364 -0.1494437 -0.07397387 0.011022393 -0.025147568
0.28183675 0.062072415 -0.07354245 0.070009395 -0.005862606 0.013313094 0.16880521 0.047986224
0.009151336 -0.119430624 0.15153247 0.045694973 -0.11655174 -0.2615101 -0.0387733 0.09781144
-0.0027257758 0.13879786 0.0052646566 -0.012508485 3.7357546e-05 0.073122464 0.12505502 -0.09564436

vae.mu_linear.0.bias f4 [20]
00000000: 5f0b 1a3d 470e 5d3d 7435 853c 31e8 833d
00000010: 1e88 483c 55e3 0f3d a552 973d f340 153d
00000020: c9a1 75bc 6f2f 623c d38d db3c cc2c 63bd
00000030: 3e07 863d b430 2f3c a90a 09bc 0f6f 7dbc
00000040: ba9d 29bc f851 c0bc 16cd 9d3d 4c69 a13c
0.0376085 0.053968694 0.01626084 0.06440771 0.012239484 0.03512891 0.0738881 0.036438894
-0.014992186 0.013805254 0.026801025 -0.055462644 0.0654435 0.010692764 -0.008364358 -0.015468373
-0.010352546 -0.023476586 0.07705133 0.01970353
