checkpoints/MNISTConvVAE.ckpt (torch, 461167 bytes, 17 tensors)

enc_convs.0.weight f4 [28, 1, 3, 3]
0	0xbdaf25cc	-0.08552131
1	0x3e975527	0.29557154
2	0xbd88b7bd	-0.0667567
3	0x3dc4197b	0.095751725
4	0xbdfca345	-0.12335829
5	0x3e79dc07	0.2440034
6	0x3e9a5fa3	0.3015109
7	0xbe5e17c9	-0.21688761
8	0x3ea2bf96	0.31786793
9	0x3df99292	0.12186159
10	0x3e861897	0.26190636
11	0x3da2866b	0.079357944
12	0x3e78af03	0.24285512
13	0xbc8596ca	-0.016307253
14	0x3e9ec1c2	0.310072
15	0x3dd0a9cd	0.10188637
16	0xbe148e25	-0.14507349
17	0x3e026c81	0.12736703
18	0xbe75fa0b	-0.24021165
19	0xbe7bde05	-0.24596412
20	0xbec3c255	-0.382342
21	0x3e72b158	0.23700464
22	0xbe855e57	-0.26048538
23	0xbe784be6	-0.24247703
24	0xbe0e840f	-0.13917564
25	0xbead9dac	-0.33909357
26	0xbd8736b5	-0.066022314
27	0xbea1618b	-0.31519732
28	0x3e9a6e2a	0.30162174
29	0xbea61cd0	-0.32443857
30	0x3e93316e	0.2874865
31	0x3da30648	0.079601824
32	0xbde9d363	-0.11417272
33	0x3e7fd02a	0.24981752
34	0x3dbcbf5a	0.09216185
35	0x3e97d79f	0.29656693
36	0x3bb9f56f	0.00567501
37	0xbdd71f12	-0.10503973
38	0x3dcb3783	0.099226974
39	0xbdc521fd	-0.096256234
40	0x3e2cc260	0.16871023
41	0x3ea72191	0.32642797
42	0x3e3a1040	0.18170261
43	0xbdf461d4	-0.11932722
44	0x3e5639e9	0.20920528
45	0xbc91cb57	-0.017797155
46	0x3dd9285f	0.10603403
47	0xbeabd6d8	-0.3356235
48	0xbeada475	-0.33914533
49	0xbdfcf455	-0.1235129
50	0xbeaa6415	-0.33279482
51	0x3ecef4a2	0.40421015
52	0x3e7988be	0.24368569
53	0x3e3e9611	0.18611933
54	0x3d2dd4ba	0.0424392
55	0xba007236	-0.0004899831
56	0x3e86825f	0.2627134
57	0xbebe66d2	-0.3718782
58	0xbd508e3f	-0.050916906
59	0xbe92487b	-0.28570923
60	0xbcf1aedd	-0.029502327
61	0xbe3b78aa	-0.18307748
62	0x3d26b471	0.040699426
63	0xbd07eea2	-0.033186562
64	0x3eb2e09d	0.3493699
65	0xbd3eed80	-0.046613216
66	0xbda74ada	-0.08168574
67	0xbd8391f7	-0.06424325
68	0x3ee96fcd	0.4559311
69	0x3e8146e7	0.25249407
70	0x3ef1198f	0.47089812
71	0xbe06ef2e	-0.13177177
72	0xbf0cedd2	-0.55050385
73	0xbef3be52	-0.4760614
74	0xbe985643	-0.29753312
75	0xbd35eca2	-0.044415124
76	0x3d13534f	0.03596812
77	0x3e8637cd	0.26214448
78	0xbec47a98	-0.38374782
79	0xbe9f38c4	-0.31097996
80	0x3e280d91	0.16411425
81	0x3d49f82f	0.049308952
82	0x3e91ea7a	0.28499204
83	0xbdcf5432	-0.10123481
84	0x3ecc01dc	0.3984517
85	0xbe285a56	-0.1644071
86	0xbe3cacac	-0.18425244
87	0x3e949360	0.29018688
88	0x3e0a7d2a	0.13524309
89	0xbdd4cc96	-0.10390584
90	0x3e028f8a	0.12750068
91	0x3e8bfdc9	0.2734206
92	0xbe070713	-0.13186292
93	0xbeb880e6	-0.36035842
94	0x3e4f4597	0.2024139
95	0xbe626617	-0.22109257
96	0xbe9a66ec	-0.30156648
97	0xbf00332e	-0.50078094
98	0xbeddb780	-0.43304062
99	0x3cb267a8	0.021777943
100	0xbd952686	-0.072827384
101	0xbe9550b4	-0.29163134
102	0xbd11fb41	-0.035640005
103	0xbe8478d2	-0.2587343
104	0xbecd4d77	-0.40098163
105	0xbe8d855a	-0.27640802
106	0xbef615ce	-0.4806351
107	0xbeb31723	-0.3497859
108	0x3ec649c0	0.38728142
109	0x3e575a49	0.21030535
110	0x3e759580	0.23982811
111	0xbea9df93	-0.33178386
112	0xbe29e3eb	-0.1659085
113	0xbd8a365d	-0.0674865
114	0xbd3d3e28	-0.046201855
115	0xbeb257e9	-0.34832695
116	0xbe7b3197	-0.24530636
117	0xbecadb94	-0.3962065
118	0xbe23d2c1	-0.15998365
119	0xbeadc2d0	-0.33937693
120	0xbdbce9af	-0.09224259
121	0xbe96b23d	-0.2943286
122	0xbec18089	-0.37793377
123	0xbe92ed93	-0.2869688
124	0xbe733e97	-0.23754345
125	0xbee3afbf	-0.4447002
126	0x3e93da06	0.28877276
127	0xbb9aa592	-0.0047194446
128	0x3eb3df92	0.35131508
129	0x3dceb0f0	0.10092342
130	0xbe6dcb18	-0.23222005
131	0x3e951e3f	0.29124638
132	0xbe4e109b	-0.20123522
133	0xbe4d5b38	-0.20054328
134	0xbeaf7de1	-0.34275725
135	0xbe91ffdf	-0.28515527
136	0x3e059d6d	0.13048334
137	0xbd4d1a9c	-0.050074205
138	0x3e2e045a	0.16993847
139	0xbe808fed	-0.25109807
140	0x3e77ac18	0.24186742
141	0xbe457b1a	-0.19285241
142	0xbd0470c2	-0.032334097
143	0x3d93ace5	0.072107114
144	0x3e0a9c63	0.1353622
145	0x3e905a7b	0.2819403
146	0x3ea023fa	0.31277448
147	0xbe9b7835	-0.30365148
148	0x3dcd138c	0.10013494
149	0xbe0a6a42	-0.13517097
150	0xbdd8681a	-0.10566731
151	0xbe84f7fb	-0.25970444
152	0x3e90b218	0.28260875
153	0xbe80adad	-0.25132504
154	0x3e661ab0	0.22471118
155	0x3e378b1f	0.17924164
156	0x3e3b99c8	0.18320382
157	0xbdd1b25a	-0.10239096
158	0x3eafd6a7	0.34343454
159	0x3e20f1f5	0.157173
160	0x3da023fe	0.07819365
161	0xbebb9f1e	-0.36644834
162	0x3e072260	0.13196707
163	0xbd793979	-0.060845826
164	0xbe4a23a6	-0.19740161
165	0x3e9c1d16	0.3049094
166	0x3dbf490a	0.09340103
167	0xbe4cfaa2	-0.20017484
168	0xbe2fc348	-0.17164338
169	0xbca5f130	-0.020256609
170	0x3e15e277	0.1463717
171	0xbea14e2e	-0.3150496
172	0xbeacd936	-0.3375947
173	0xbe1b8237	-0.15186392
174	0xbeb1e20f	-0.34742782
175	0x3dc4485d	0.09584115
176	0x3e8bb795	0.272885
177	0xbecec66f	-0.40385768
178	0x3db2a0bd	0.08722065
179	0x3e4f75e6	0.20259818
180	0x3d0e8c04	0.034801498
181	0xbe0046a4	-0.12526947
182	0x3e22854c	0.15871161
183	0x3e247800	0.16061401
184	0x3e0e3b7a	0.13889876
185	0xbd542d57	-0.051801052
186	0xbdf69550	-0.12040198
187	0x3d16d790	0.03682667
188	0xbd8cb259	-0.068699546
189	0xbe15cd95	-0.14629205
190	0x3e6857bd	0.2268972
191	0x3e9f75ca	0.31144553
192	0xbd4edc81	-0.050503258
193	0xbd14ef99	-0.03636131
194	0x3d2933be	0.04130911
195	0xbd86c80c	-0.06581125
196	0x3dc85dc4	0.097835094
197	0x3dc5745b	0.09641334
198	0xbe85d3fc	-0.26138294
199	0xbdc6dda5	-0.09710244
200	0x3ea2bf46	0.31786555
201	0x3e25ff4c	0.1621067
202	0xbbd746d6	-0.0065697236
203	0xbe37b30f	-0.17939399
204	0xbe2c4ce0	-0.168262
205	0xbe960d4d	-0.29307023
206	0xbdb568dd	-0.08857892
207	0x3df2af0f	0.11849796
208	0x3e726821	0.23672535
209	0x3e245863	0.16049342
210	0xbe932677	-0.28740284
211	0xbe315fd7	-0.17321716
212	0xbd54671c	-0.051856145
213	0x3ea2c8b0	0.31793737
214	0x3d694cd7	0.056958046
215	0xbdf301f3	-0.11865606
216	0x3c80d058	0.015724346
217	0xbe97f643	-0.2968007
218	0xbef821bb	-0.48463234
219	0x3e01f13d	0.12689681
220	0xbe618451	-0.22023131
221	0xbe1f8a41	-0.15580083
222	0xbeff28c0	-0.49835777
223	0x3e060902	0.13089374
224	0x3e39556b	0.1809899
225	0x3dce9fda	0.10089083
226	0xbea4313f	-0.32068822
227	0xbef2559e	-0.47330946
228	0xbe5d841e	-0.2163243
229	0x3e883104	0.26599896
230	0x3e20a569	0.15688099
231	0x3ebb3cc2	0.36569792
232	0x3e78c24c	0.24292868
233	0x3e1d3ec3	0.15355973
234	0x3c2906e4	0.010316584
235	0xbe855a7e	-0.26045603
236	0xbe91e555	-0.2849528
237	0xbea13996	-0.31489247
238	0x3de220f8	0.110414445
239	0xbe3150ae	-0.17315933
240	0xbd46c3ea	-0.048526682
241	0xbe4c7c85	-0.19969375
242	0xbd2fc811	-0.042915408
243	0xbe1cd7d9	-0.15316714
244	0xbe1a1eb5	-0.15050776
245	0x3e257a59	0.16159953
246	0xbcee63b2	-0.029100273
247	0x3e76eccf	0.24113773
248	0xbd8fe525	-0.07026128
249	0xbe13b4fa	-0.14424506
250	0x38c6534d	9.456892e-05
251	0xbdd65f5b	-0.10467406

enc_convs.0.bias f4 [28]
0	0xbd04e0e2	-0.032441027
1	0xbe9e427e	-0.30910105
2	0x3e3f18f7	0.18661867
3	0xbe28c1e2	-0.1648021
4	0x3e02dd36	0.12779698
5	0x3d1f8722	0.038947232
6	0x3e1c3cf0	0.15257621
7	0xbe0a423c	-0.13501829
8	0x3e619705	0.22030266
9	0xbb95e470	-0.004574351
10	0x3e092144	0.13391596
11	0x3e9f24cc	0.3108276
12	0x3c50ed96	0.012751957
13	0x3d8470be	0.06466816
14	0x3b2116b3	0.002458018
15	0xbe4ac16e	-0.1980035
16	0x3db80283	0.08984854
17	0xbe840c86	-0.25790805
18	0x3e041662	0.12899163
19	0x3e57a463	0.21058802
20	0x3e778f32	0.24175718
21	0x3a552a6f	0.0008131628
22	0xbe5796b0	-0.21053576
23	0x3c652b5a	0.013987387
24	0x3e1ea262	0.15491632
25	0xbe63441b	-0.22193949
26	0xbd1b4ace	-0.037913136
27	0xbddf5816	-0.10905473

enc_convs.2.weight f4 [64, 28, 3, 3]
0	0xba5b9f8e	-0.00083779625
1	0xbd91b34f	-0.071142785
2	0xbdda70a7	-0.10666018
3	0xbc6fdd32	-0.014640139
4	0xbdf126c9	-0.11774976
5	0xbd33b866	-0.043877028
6	0x3d03c994	0.03217466
7	0xbc889b2f	-0.01667556
8	0xbdd43cde	-0.10363172
9	0xbd3bc491	-0.045841757
10	0xbdf96707	-0.12177854
11	0xbe0859ee	-0.13315555
12	0x3a9333d8	0.0011230661
13	0xbe333451	-0.17500426
14	0xbe374664	-0.17897946
15	0xbc83305b	-0.016014269
16	0x3c39ea50	0.011347368
17	0xbd8d8e32	-0.06911887
18	0x3d157d57	0.036496487
19	0x3c412d62	0.011790605
20	0x3c103d4a	0.008803675
21	0xbba525ff	-0.00503993
22	0xbd15435e	-0.0364412
23	0x3d9d0e15	0.076687016
24	0x3c521435	0.012822201
25	0x3d314c46	0.04328563
26	0x3c2a057c	0.010377284
27	0x3bd9e570	0.0066496655
28	0xbc4b75c6	-0.012418216
29	0xbd2425ed	-0.04007523
30	0xbd70bd4f	-0.05877429
31	0xbcc15e33	-0.023604488
32	0xbd1554ac	-0.036457703
33	0xbc85ae4d	-0.016318465
34	0x3cdcc227	0.026948048
35	0x3d149ea7	0.036284115
36	0x3b6bf901	0.0036006572
37	0x3caee03d	0.02134716
38	0xbd4302c2	-0.047610052
39	0xbbe43e04	-0.0069654007
40	0x3d4ca3bd	0.04996084
41	0x3cba269a	0.022723485
42	0xbd05f854	-0.032707527
43	0xbd4212df	-0.047381278
44	0xbd5d8e7a	-0.054090954
45	0xbcd2c9ed	-0.025731051
46	0xbd06a8a5	-0.032875676
47	0x3bd829bd	0.0065967725
48	0x3d6ab5ac	0.057302162
49	0x3cfd504a	0.030922074
50	0xbcb4acca	-0.022055048
51	0xbd650351	-0.055911366
52	0x3cc0bfa2	0.023528878
53	0xbd555d45	-0.052090902
54	0x3be6442a	0.0070271688
55	0x3d324dcd	0.043531228
56	0xbc842b9c	-0.016134076
57	0x3c0f0640	0.008729517
58	0x3c1b85f7	0.009492389
59	0xbb49ad35	-0.0030773405
60	0xbc8eff4e	-0.017455723
61	0xbd2ea5c8	-0.04263857
62	0xbd24bdf3	-0.040220212
63	0xbd6098e6	-0.054833315
64	0xbd0e8a29	-0.03479973
65	0xbd6540bb	-0.055969935
66	0xbdbb2a47	-0.09138923
67	0xbd9991c6	-0.07498507
68	0xbdabe259	-0.08392782
69	0x3c027e1d	0.007964638
70	0x3d0ef25d	0.034899104
71	0xbcb28aad	-0.021794641
72	0xbd3c1de8	-0.04592696
73	0x3cf3febe	0.029784556
74	0x3d7b46ae	0.061346702
75	0x3c2bfe65	0.010497664
76	0xbcc3dfeb	-0.023910483
77	0x3d948d07	0.07253461
78	0x3b9b482f	0.0047388296
79	0xbc3f04b0	-0.011658832
80	0xbd157b82	-0.03649474
81	0x3ce460e2	0.027878229
82	0x3c2b7a11	0.010466115
83	0x3d7ce76e	0.061744146
84	0x3d349312	0.04408557
85	0xbdbd62ba	-0.09247346
86	0x3dab1d99	0.08355255
87	0x3c16e4ab	0.009209792
88	0x3cb8a27a	0.022538412
89	0xbc2088d5	-0.009798248
90	0xbcc8e994	-0.024525441
91	0x3bcb6fea	0.0062084096
92	0xbc9cc4f7	-0.019136889
93	0xbc84e514	-0.016222514
94	0x3cf5e0da	0.030014444
95	0x3d6fb144	0.058518663
96	0x3da0d505	0.0785313
97	0xbcee4a96	-0.0290883
98	0x3d9c4c89	0.076317854
99	0xbc3bb076	-0.011455646
100	0x3d3c1a54	0.045923546
101	0x3da8b703	0.08238032
102	0x3cee9c95	0.029127399
103	0x3d99bb05	0.07506374
104	0xbce231bd	-0.027611608
105	0x3c74fb20	0.014952451
106	0x3d8529d7	0.06502121
107	0x3ca6f4ad	0.020380342
108	0xbcd2fea4	-0.025756188
109	0xbd7c5fe1	-0.061614875
110	0xbc4b4580	-0.012406707
111	0x3dc14701	0.09437371
112	0x3d4d08d1	0.050057236
113	0x3be93ba7	0.007117707
114	0xbd0101ca	-0.031495847
115	0x3c8001cb	0.015625855
116	0x3e1aeb56	0.15128836
117	0xbc6d7e5b	-0.0144954575
118	0x3cbd2094	0.023086824
119	0x3ddd8651	0.108166344
120	0x3c9a0724	0.018802233
121	0x3cc74d6c	0.02432891
122	0x3cf65841	0.03007138
123	0xbc6068bd	-0.013696847
124	0xbbfb1fcc	-0.0076637026
125	0x3cc5f1b7	0.02416311
126	0xbcab1fe7	-0.020889236
127	0x3c94426f	0.018098084
128	0xbd8e4431	-0.069466
129	0x3ca622cf	0.02028027
130	0x3d5888a9	0.052864704
131	0xbd7db13c	-0.061936602
132	0x3d804b21	0.0626433
133	0xbd41f599	-0.04735336
134	0xbd1e36cf	-0.03862649
135	0x3c1379a5	0.00900117
136	0xbd4b9e26	-0.04971137
137	0xbd60e43a	-0.054905154
138	0xbc8042a1	-0.015656771
139	0xbcfa1964	-0.030529685
140	0xbd6c6eb5	-0.057722766
141	0x3ce1a0f0	0.027542561
142	0x3d35ccd3	0.04438479
143	0x3b8d0ef4	0.004304761
144	0xbbde0895	-0.0067759254
145	0xbd61df37	-0.055144515
146	0xbcc490b8	-0.023994789
147	0x3cacf9f7	0.021115286
148	0x3d1cbe8b	0.038267653
149	0xbc37be72	-0.011214839
150	0xbc918d78	-0.017767653
151	0x3d20ad4f	0.03922778
152	0xbd64c8ce	-0.055855565
153	0x3d1a3f83	0.037658226
154	0xbe1f69ae	-0.15567657
155	0xbd20caa1	-0.039255742
156	0xbd9945bc	-0.07484004
157	0xbc7ab509	-0.015301951
158	0xbdcaa561	-0.09894825
159	0x3d52268d	0.051306296
160	0xbd6b55a9	-0.05745474
161	0xbd19a630	-0.037512004
162	0x3d9569b8	0.07295555
163	0xbc9a8c15	-0.018865624
164	0xbd01a6ff	-0.0316534
165	0x3d89a619	0.06721134
166	0x3d60d0fa	0.054886796
167	0xbd143dd3	-0.036191773
168	0x3c08e66e	0.00835572
169	0xbd59c43b	-0.053165656
170	0xbd24a457	-0.04019579
171	0x3cbf8683	0.02337957
172	0x3d102f70	0.03520149
173	0x3cf448c1	0.029819848
174	0xbba8629a	-0.0051387073
175	0x3d9245e9	0.071422406
176	0x3c9829e3	0.01857466
177	0xbc806777	-0.015674336
178	0x3c732673	0.01484071
179	0x3cf52f28	0.029929712
180	0x3d1230a5	0.035690922
181	0xbd00e303	-0.031466495
182	0x3d1597b8	0.036521643
183	0xbca22d12	-0.019796882
184	0xbd33b697	-0.043875303
185	0xbcdc1ad3	-0.02686826
186	0x3d98e697	0.074658565
187	0x3d84f456	0.06491916
188	0x3d8750c5	0.066072024
189	0x3cb57403	0.022150045
190	0x3d2f6545	0.042821188
191	0xbda6da97	-0.081471615
192	0xbd9a5d8f	-0.07537376
193	0x3e09dd74	0.13463384
194	0xbe07a7f4	-0.13247663
195	0xbda3f66f	-0.08005988
196	0xbd42668d	-0.04746108
197	0xbd9fb337	-0.077978544
198	0x3cac069b	0.020999243
199	0xbcf8d413	-0.030374562
200	0xbd349132	-0.04408378
201	0x39f83190	0.00047339173
202	0xbd2ac90f	-0.04169565
203	0xbd32b214	-0.04362686
204	0x3cdffe3c	0.027342908
205	0xbc1be999	-0.009516143
206	0x3d8067c4	0.06269792
207	0x3d92596c	0.07145962
208	0x3c600cde	0.013674943
209	0x3cce7a69	0.025204854
210	0x3ccde623	0.025134152
211	0x3c6b0ea2	0.01434675
212	0x3b3a7f43	0.0028457202
213	0xbb2ebcf4	-0.0026662918
214	0x3c56fbc1	0.013121546
215	0x3d1be683	0.03806163
216	0x3ab3e4d4	0.0013724812
217	0xbc152ffb	-0.009105678
218	0x3bb1bb9c	0.005423976
219	0xbcaf133f	-0.021371482
220	0x3cba0dd5	0.022711674
221	0x3d84bfab	0.0648187
222	0x3d8c8db9	0.06862969
223	0x3d352035	0.04422017
224	0xbcca9b8e	-0.024732377
225	0x3e09c30f	0.13453315
226	0xbc8aa964	-0.016926475
227	0xbdc55bb8	-0.096366346
228	0x3e22248d	0.15834256
229	0xbdb6be9f	-0.08923077
230	0xbe0e44bf	-0.13893412
231	0xbbe8fb91	-0.007110067
232	0xbcb11f10	-0.021621257
233	0xbda39def	-0.07989108
234	0x3d583ab8	0.052790374
235	0xbd4ca9f1	-0.049966756
236	0x3d8ed5e7	0.069743924
237	0xbbdd2125	-0.006748336
238	0x3bc0f982	0.0058891186
239	0x3d96c66f	0.07362067
240	0xb9ccc955	-0.00039059916
241	0x3d4fb859	0.050712917
242	0x3da5a825	0.08088712
243	0xbd864403	-0.06555941
244	0x3ca52c56	0.020162743
245	0x3bd1a97c	0.006398378
246	0xba349e15	-0.0006890011
247	0x3bea5ba2	0.0071520368
248	0x3c313d77	0.010817877
249	0xbd1cd517	-0.038289156
250	0xbbdb42c7	-0.00669131
251	0x3d82f075	0.0639352
252	0x3d6a5b6c	0.057216093
253	0x3cc047ac	0.023471676
254	0xbdaaa625	-0.08332471
255	0x3c9f2f0a	0.01943161

enc_convs.2.bias f4 [64]
0	0xbc3ba256	-0.011452278
1	0x3c9797e9	0.018505054
2	0x3c5caac8	0.013468452
3	0xbc0e3f73	-0.00868212
4	0x3d5aa277	0.053377595
5	0x3c97ed5d	0.0185458
6	0xbd19d0c1	-0.0375526
7	0x3d702731	0.058631126
8	0xbc4bf9eb	-0.012449722
9	0x3ca6faa6	0.02038319
10	0xbb896895	-0.0041933754
11	0xbcdf668c	-0.027270578
12	0x3d500865	0.050789256
13	0xbd9926c1	-0.07478095
14	0xbd0e874a	-0.03479699
15	0x3d73e620	0.059545636
16	0x3d54329c	0.051806077
17	0xbc4cd4f2	-0.012501942
18	0xbd19f450	-0.03758651
19	0x3d45200f	0.048126277
20	0x3c6ae181	0.014335991
21	0xbd71216e	-0.05886977
22	0xbd3bfb91	-0.04589421
23	0xbc3493d7	-0.011021576
24	0xbcb9d284	-0.02268339
25	0x3bbd2c50	0.0057731047
26	0x3c4ffb28	0.012694158
27	0xbdfaf683	-0.1225405
28	0x3d1933eb	0.03740303
29	0x3d0800d4	0.033203915
30	0xbdb06026	-0.08612089
31	0x3d9a682d	0.07539401
32	0xbbd2f35b	-0.0064377016
33	0x3d621d00	0.055203438
34	0x3d1abdd5	0.037778694
35	0x3cdac978	0.026707396
36	0x3d2be7f6	0.041969262
37	0x3cae7c64	0.021299548
38	0xbcb151a5	-0.021645376
39	0xbd76e608	-0.06027797
40	0xbd85f903	-0.06541636
41	0x3d5e9c41	0.054348234
42	0xbd435b74	-0.04769464
43	0x3d5124b6	0.0510604
44	0xbd60e51f	-0.054906007
45	0x3daccce6	0.08437519
46	0x3d564a82	0.05231715
47	0xbcf2b87d	-0.029628986
48	0xbbd9abf3	-0.0066428124
49	0xbd83a373	-0.0642766
50	0x3d736ea0	0.059431672
51	0xbc5dc7d4	-0.013536412
52	0x3d744d9d	0.05964433
53	0x3d1b1345	0.037860174
54	0xbd6ac22a	-0.057314076
55	0xbd8b90ae	-0.06814705
56	0xbcbfe00d	-0.023422265
57	0xbb8489ee	-0.004044763
58	0x3d4ab828	0.04949203
59	0xbc538fd5	-0.01291271
60	0xbba82b03	-0.0051320805
61	0x3c8a3140	0.016869187
62	0x3d614629	0.05499855
63	0x3d3f9c3d	0.04677986

enc_convs.4.weight f4 [64, 64, 3, 3]
0	0xbcb1b620	-0.02169329
1	0xbd8e8808	-0.0695954
2	0xbd91e961	-0.071245916
3	0x3c87615f	0.016525922
4	0xbd2cbc2b	-0.04217164
5	0x3d0717c3	0.032981645
6	0x3d85b262	0.065281644
7	0x3d8861c8	0.06659275
8	0xbcacc4bd	-0.021089906
9	0x3d9fc39f	0.07800984
10	0xbc3877b1	-0.011259005
11	0x3d9a52ed	0.07535348
12	0xbd433fef	-0.047668394
13	0xbcbac0ea	-0.022797067
14	0x3c5b205a	0.013374412
15	0x3d408114	0.0469981
16	0xbcd16ff8	-0.025566086
17	0xbd0cfcf9	-0.03442094
18	0x3d17a2af	0.03702038
19	0x3c25ae0d	0.010112298
20	0xbd283d3b	-0.04107402
21	0xbcf8e312	-0.030381713
22	0xbc3f3413	-0.01167013
23	0xbde2aba9	-0.11067898
24	0xbd71e218	-0.05905351
25	0xbcd519c8	-0.02601327
26	0x3d82234e	0.0635439
27	0xbb406736	-0.0029358394
28	0xbd5d2209	-0.053987537
29	0xbd383e2a	-0.04498116
30	0xba49f14a	-0.00077034964
31	0xbd65639b	-0.056003194
32	0xbd0d6a17	-0.034525003
33	0x3b8128b9	0.003941622
34	0x3d40c196	0.047059618
35	0xbd179f6d	-0.037017275
36	0x3bed02bc	0.007232992
37	0x3c1657e7	0.009176231
38	0x3d6a10dd	0.05714499
39	0xbead4008	-0.33837914
40	0xbeadd1e6	-0.33949202
41	0xbe83beef	-0.25731608
42	0xbd95b7e7	-0.07310467
43	0xbc49a962	-0.01230845
44	0xbca484a1	-0.020082774
45	0xbd01e683	-0.031713974
46	0x3dc1fc21	0.09471918
47	0x3d80709d	0.06271479
48	0xbca35895	-0.0199397
49	0xbb8b1b99	-0.0042452333
50	0xbdb63690	-0.08897126
51	0x3d954a1a	0.072895244
52	0xbbfc26d3	-0.007695058
53	0xbd6de9b8	-0.05808422
54	0xbd7cee72	-0.061750837
55	0x3c9fe95e	0.019520458
56	0x39bf2674	0.0003645901
57	0x3df32724	0.118727
58	0x3ca1a46c	0.019731723
59	0xbcf7609a	-0.03019743
60	0x3de44785	0.11146454
61	0xbbdc2c95	-0.006719182
62	0x3b1885b7	0.002327306
63	0x3d889d92	0.06670679
64	0xbd5b685f	-0.053566333
65	0xbce8e35b	-0.028428724
66	0x3dce5572	0.10074891
67	0xbca4feee	-0.020141091
68	0x3cacaa77	0.021077378
69	0xbd1f6639	-0.038915846
70	0x3d3bf6b3	0.045889568
71	0xbd4b8f81	-0.049697403
72	0xbc7b55b4	-0.015340257
73	0xbd67b47c	-0.056568608
74	0xbdb135cf	-0.08652841
75	0xbc3e7f1a	-0.011626983
76	0xbd9f6a7d	-0.07783983
77	0x3cda9575	0.026682595
78	0xbd13e880	-0.0361104
79	0x3d36da85	0.04464199
80	0xbd94cb42	-0.07265331
81	0xbd12ad28	-0.035809666
82	0x3d9912dd	0.07474301
83	0x3d8f1d21	0.06987978
84	0x3c33da8f	0.010977401
85	0x3c7b0a56	0.0153222885
86	0x3d3cbdc3	0.04607941
87	0x3c467857	0.012113652
88	0xbb6623a6	-0.0035116463
89	0xbd18e666	-0.0373291
90	0xbb5e3bbb	-0.0033910114
91	0x3c397a68	0.011320688
92	0x3c10aa4e	0.008829666
93	0x3d0e43fb	0.0347328
94	0xbd45d1af	-0.048295673
95	0xbd0cb357	-0.03435072
96	0xbd61a8b5	-0.055092532
97	0xbd6a071a	-0.05713568
98	0x3ce153db	0.027505806
99	0x3da9a5b1	0.08283556
100	0x3ce1ebc3	0.02757824
101	0xbccd5811	-0.025066407
102	0xbda1f4bc	-0.079080075
103	0x3baa7754	0.0052022133
104	0x3b12974f	0.002236802
105	0xbda58a8a	-0.08083065
106	0xbd81abf3	-0.06331625
107	0x3cbdc12a	0.023163397
108	0x3d47c281	0.048769478
109	0x3bd449df	0.0064785327
110	0xbe0cd91d	-0.13754697
111	0x3e0aa26e	0.13538525
112	0x3d45db79	0.04830501
113	0xbdbec7af	-0.093154304
114	0x3c6c6823	0.014429125
115	0xbcf045ed	-0.029330218
116	0x3d210376	0.03930994
117	0x3cccf0c5	0.025017152
118	0xbcaf08a2	-0.021366421
119	0x3d403d25	0.046933312
120	0x3d13137c	0.035907254
121	0x3d1e6806	0.038673423
122	0xbd074489	-0.033024345
123	0x3c3d9101	0.011570216
124	0x3d1e82ea	0.038699068
125	0x3bf1b062	0.007375763
126	0x3d4c7962	0.049920447
127	0x3ccac752	0.024753246
128	0xbc192810	-0.009347931
129	0xbbb6ba3c	-0.0055764
130	0xbcde19bf	-0.027111886
131	0xbbdc7b89	-0.0067285937
132	0xbdcc8ec2	-0.099881664
133	0xbaebf508	-0.0018002102
134	0xbbda162e	-0.006655476
135	0x3c4e1d3b	0.012580211
136	0x3d40a5e2	0.0470332
137	0x3e093289	0.13398184
138	0xbdaecb16	-0.08534829
139	0xbd9f1c32	-0.0776905
140	0xbdf3aadd	-0.11897824
141	0x3bd30515	0.006439815
142	0xbd95d8a7	-0.07316714
143	0xbd26458e	-0.040593676
144	0x3d2d1761	0.042258624
145	0xbdc9d6e2	-0.09855439
146	0xbe3b7178	-0.18305004
147	0xbdb65012	-0.08901991
148	0xbe372293	-0.17884283
149	0xbded5483	-0.11588385
150	0xbda67844	-0.081284076
151	0xbe4306fe	-0.19045636
152	0x3de5fc47	0.11229759
153	0x3d05f7ce	0.032707028
154	0xbc71ca49	-0.014757701
155	0x3b11061f	0.0022128893
156	0x3cb4741a	0.022028018
157	0xb9b61a80	-0.0003473349
158	0x3d11c06a	0.03558389
159	0xbdb2c683	-0.08729269
160	0xbc66aa5b	-0.014078702
161	0x3d57604f	0.05258208
162	0x3cabcab9	0.02097069
163	0xbbb36b84	-0.0054754633
164	0x3d40f0f1	0.04710478
165	0x3de5fb92	0.11229624
166	0xbc941023	-0.0180741
167	0xbd677804	-0.05651094
168	0xbdd1dd81	-0.10247327
169	0xbd55bd6c	-0.0521826
170	0x3bc1ea55	0.005917827
171	0xbd401f68	-0.04690495
172	0x3d8251b1	0.06363238
173	0x3cfb7641	0.030696036
174	0x3d887767	0.06663399
175	0x3d5c8677	0.053839173
176	0xbd22e0b0	-0.03976506
177	0xbde24d81	-0.11049939
178	0xbd80fff1	-0.06298817
179	0xbd77c71f	-0.06049263
180	0xbe1d6ba7	-0.15373097
181	0x3bfa8ee1	0.007646427
182	0xbd81d2ca	-0.06339033
183	0xbdd04f05	-0.10171322
184	0x3c5eeea6	0.013606703
185	0xbdde4e13	-0.10854735
186	0x3d235fe0	0.039886355
187	0xbd737342	-0.05943609
188	0xbd0e2d2e	-0.034711055
189	0x3dd34ce9	0.10317404
190	0x3a8ea2b2	0.0010882227
191	0xbd266989	-0.04062799
192	0x3cac15b9	0.021006452
193	0xbb98dc45	-0.00466493
194	0xbd4d0f93	-0.05006368
195	0xbd1b547f	-0.03792238
196	0xbd065b90	-0.032802165
197	0x3d67f192	0.056626864
198	0x3d49c510	0.0492602
199	0xbb5893e1	-0.0033047127
200	0x3dfbaba7	0.122885995
201	0x3e1f27da	0.15542546
202	0x3d55a9bb	0.05216382
203	0xbd95c05d	-0.07312081
204	0xbd8692e1	-0.06570984
205	0xbd8d0624	-0.06885937
206	0xbd5d858c	-0.05408244
207	0xbb7b5957	-0.0038352811
208	0xbc4f5184	-0.012653712
209	0x3a86fd9c	0.001029897
210	0x3beef8a3	0.0072928234
211	0x3cde4f52	0.027137432
212	0x3d579d73	0.05264039
213	0x3cb97738	0.022639856
214	0x3d05ee85	0.032698173
215	0xbd966b43	-0.07344677
216	0x3dddd999	0.10832519
217	0x3c5c6d73	0.013453829
218	0x3ca99cab	0.020704588
219	0xbd25b310	-0.04045397
220	0xbc8e97f3	-0.01740644
221	0xbdbcf49c	-0.09226343
222	0xbc94aa05	-0.018147478
223	0xbd757290	-0.05992371
224	0xbcff42df	-0.031159816
225	0x3d8954cf	0.06705629
226	0xbb955ba4	-0.0045580436
227	0x3c83846d	0.016054356
228	0xbd8825f8	-0.06647867
229	0xbcc8722e	-0.024468508
230	0xbcb1ac8d	-0.021688724
231	0xbdfafcb7	-0.12255233
232	0xbccc333b	-0.024926772
233	0xbd91410e	-0.07092486
234	0x3d4229e5	0.047403235
235	0x3c36453a	0.011124903
236	0xbc902979	-0.0175979
237	0xbdb9e1d7	-0.09076279
238	0x3b960ca6	0.0045791445
239	0x3d489e14	0.04897888
240	0x3e22923f	0.15876101
241	0xbc0a848f	-0.008454456
242	0x3c4fb979	0.0126784975
243	0xbcca7d5c	-0.02471798
244	0x3d1cfe41	0.038328413
245	0x3da48095	0.080323376
246	0xbe3102c5	-0.17286213
247	0xbbb64666	-0.0055625914
248	0xbd18164d	-0.037130643
249	0xbd707bda	-0.058711864
250	0xbc82e76a	-0.015979487
251	0xbd93ca75	-0.0721635
252	0xbcc1888d	-0.023624683
253	0x3ca1e1d9	0.019761013
254	0x3a96d540	0.0011507645
255	0xbcab997b	-0.020947209

enc_convs.4.bias f4 [64]
0	0x3d3ac53f	0.045598265
1	0x3d494450	0.049137414
2	0x3d571a4e	0.05251532
3	0x3d73b5b5	0.05949946
4	0x3ccabba0	0.02474767
5	0x3d60ea3d	0.054910887
6	0x3cc6731e	0.024224814
7	0xbc4d5581	-0.012532593
8	0x3d5dc42a	0.054142155
9	0xbd2db44f	-0.042408284
10	0x3d0f641b	0.035007577
11	0x3c545372	0.012959348
12	0xbd5b4819	-0.053535555
13	0xbd21d711	-0.039511744
14	0xbc8b45d2	-0.017001066
15	0xbc6aba18	-0.014326595
16	0x3b374731	0.0027966017
17	0x3c6acc6d	0.0143309655
18	0xbd0307e3	-0.031989943
19	0xbcaa1683	-0.020762688
20	0x3d28f822	0.041252263
21	0x3c895c2f	0.01676759
22	0x3c96ec44	0.018423207
23	0x3c725247	0.014790124
24	0x3c5dfbb2	0.013548778
25	0x3b91d47f	0.0044503803
26	0x3d4fd003	0.050735485
27	0x3d23f8c7	0.040032174
28	0x3d2f2af7	0.042765584
29	0xbcf1facb	-0.029538533
30	0x3c003170	0.007824287
31	0xbcf49cc7	-0.029859914
32	0xbc42f8d2	-0.011900144
33	0xbc65abf7	-0.01401805
34	0xbcd7d5b0	-0.026347011
35	0xbc8fe952	-0.01756731
36	0x3d838e59	0.06423635
37	0xbca94f00	-0.020667553
38	0xbc00b4ab	-0.007855575
39	0x3c054a65	0.008135413
40	0x3d18f8cf	0.037346657
41	0xbd627004	-0.055282608
42	0xbce15b19	-0.027509259
43	0xbc0682bc	-0.00820988
44	0x3d30227c	0.043001637
45	0x3c73c285	0.01487792
46	0x3da35466	0.07975082
47	0x3d9b25d3	0.07575574
48	0xbcb9a9b1	-0.022663923
49	0x3c9345ae	0.017977562
50	0xbc51284a	-0.012765953
51	0x3d099fc2	0.033599623
52	0xbd893a47	-0.06700569
53	0x3cc565b5	0.02409635
54	0x3d59c9a0	0.0531708
55	0x3ccc5735	0.024943927
56	0x3ca8c86b	0.02060338
57	0xb9dffc6f	-0.00042721952
58	0xbd03640f	-0.032077845
59	0xbd58425b	-0.052797657
60	0xbc371579	-0.011174553
61	0x3d1a6d67	0.03770199
62	0x3cc1e788	0.023669973
63	0xbcb8aecd	-0.022544289

mu_linear.weight f4 [2, 1024]
0	0xbc2b5991	-0.010458366
1	0xbcd7a278	-0.026322588
2	0x3c85dafa	0.016339768
3	0x3c0828fe	0.008310555
4	0x3cba623c	0.02275192
5	0xbcc8252b	-0.024431786
6	0x3ca485a3	0.020083254
7	0x3c86c7e4	0.016452737
8	0xbb8209f0	-0.00396847
9	0xbd7249bb	-0.059152346
10	0xbc62d33e	-0.013844309
11	0xbdfb17e3	-0.122604154
12	0x3c917c72	0.017759535
13	0x3d80f1dc	0.06296131
14	0x3e424493	0.18971471
15	0xbcab2562	-0.020891849
16	0xbc867e2d	-0.016417587
17	0x3bf4e2a7	0.007473308
18	0xbdadb67c	-0.08482072
19	0xbc7ec430	-0.015549704
20	0x3cebbb82	0.028775934
21	0x3cd74430	0.026277632
22	0x3b00561d	0.0019582578
23	0x3d426272	0.047457166
24	0x3d38daf7	0.045130696
25	0x3d057a1b	0.032587152
26	0x3cbbf3c8	0.022943392
27	0xbe64fd74	-0.2236231
28	0x3ca44381	0.02005172
29	0xbb2c9a26	-0.0026336997
30	0xbcd23ed7	-0.02566473
31	0xbcb69ffb	-0.022293082
32	0x3c1e9c95	0.009680887
33	0xbbe24a64	-0.0069058407
34	0xbc255937	-0.010092071
35	0xbdc23652	-0.09483017
36	0x3dc5400e	0.09631358
37	0x3ae4e47b	0.0017463112
38	0x3c73c8f8	0.014879458
39	0x3dfa7fa6	0.12231378
40	0xbd85fc80	-0.06542301
41	0xbb6c4be0	-0.0036055967
42	0xbc80fc99	-0.015745448
43	0xbc53d482	-0.012929084
44	0xbe462d7d	-0.1935329
45	0xbc9a6d08	-0.018850818
46	0x3d858559	0.06519575
47	0xbcdeec26	-0.027212214
48	0x3c8485a4	0.016177006
49	0xbc89ba6a	-0.016812522
50	0x3cc235ee	0.023707356
51	0x3c0cdd22	0.008597644
52	0x3ce97d8b	0.028502246
53	0xbb546845	-0.0032410782
54	0xbcb1dcf4	-0.021711804
55	0x3ac3404f	0.0014896485
56	0xbcd7bdef	-0.026335685
57	0xbd32794d	-0.043572713
58	0x3bbcd194	0.0057622883
59	0x3ca8a96b	0.020588597
60	0xbc3786a1	-0.011201532
61	0x3d115e72	0.03549046
62	0x3e9bebf9	0.3045347
63	0x3a7af47d	0.0009573175
64	0x3c914716	0.017734092
65	0x3cb79846	0.022411477
66	0x3aa9e5a4	0.0012962115
67	0x3b9b1525	0.0047327452
68	0xbc3c7832	-0.011503266
69	0x3ac9337d	0.0015350428
70	0xbcab5232	-0.020913217
71	0x3ba62f74	0.005071575
72	0xbcab520c	-0.020913146
73	0x3c06ae3b	0.008220251
74	0xbd117c3c	-0.03551887
75	0x3cfc28ee	0.030781236
76	0x3c75133b	0.014958198
77	0xbcfd1f2d	-0.030898655
78	0xbc28a580	-0.0102933645
79	0xbc9b2c1b	-0.01894193
80	0x3a8738ed	0.0010316648
81	0xbbebf466	-0.0072007654
82	0x3a4ee438	0.00078922836
83	0xbd28a1e5	-0.04117002
84	0x3ab8c095	0.001409548
85	0xbac105e8	-0.0014726492
86	0xbaae569d	-0.0013300959
87	0xbe2a6ea4	-0.16643769
88	0xbb80e100	-0.003933072
89	0x3d1fefa2	0.03904689
90	0xbcedac1c	-0.029012732
91	0x3c688a23	0.014193091
92	0x3c79f3ed	0.01525591
93	0xbdd906c7	-0.10596996
94	0x3d31a26d	0.043367792
95	0xbc952387	-0.018205417
96	0xbbd70ba0	-0.006562665
97	0x3c5c5a6d	0.013449294
98	0x3bb791ab	0.005602082
99	0x3d1d1e65	0.038359065
100	0x3b34b66a	0.0027574548
101	0xbdb09402	-0.0862198
102	0xbe0411f1	-0.12897469
103	0xbc5ff55a	-0.013669336
104	0xbcf82051	-0.030288847
105	0xbe08a5bf	-0.13344477
106	0xbdb1c72c	-0.08680567
107	0x3cba4e23	0.022742337
108	0xbb8a3633	-0.004217887
109	0x3e16ba75	0.14719565
110	0xbe22f1a8	-0.15912497
111	0x3c874c47	0.016515864
112	0x39dbcbc4	0.00041922752
113	0x3cab5bac	0.020917736
114	0x38972e8d	7.208912e-05
115	0xbbca94fa	-0.00618231
116	0xbc0e6e05	-0.008693223
117	0x3dab8783	0.08375456
118	0xbcede55c	-0.029040031
119	0xbaeb7216	-0.0017963077
120	0xbd02f476	-0.031971417
121	0x3d7fb3d4	0.062427357
122	0x3cc91888	0.02454783
123	0xbc498582	-0.012299897
124	0x3d0489ea	0.032358088
125	0xbc38776c	-0.011258941
126	0x3d2431cc	0.040086553
127	0x3bd6af9d	0.0065516965
128	0x3c6efff6	0.014587393
129	0x3c5dbab2	0.013533281
130	0xbc2e41d5	-0.010635813
131	0xbc661467	-0.01404295
132	0x3d5f81de	0.05456721
133	0x3b91350a	0.0044313716
134	0xbbb86bef	-0.005628101
135	0x3c949889	0.01813914
136	0x3ce8a163	0.028397268
137	0x3b7c70b6	0.003851933
138	0x3ce2ab97	0.027669711
139	0xbc89816b	-0.016785344
140	0xbb24a29d	-0.002512134
141	0xbcf4cf2c	-0.029883943
142	0xbbc8e21d	-0.0061304704
143	0xbc1a4486	-0.009415751
144	0x3cf04a9b	0.02933245
145	0xbc3dfbfb	-0.011595721
146	0x3ccdfd12	0.025145087
147	0xbc884427	-0.01663406
148	0xbb96a99f	-0.004597857
149	0x3cba9336	0.022775274
150	0x3e100e09	0.14067854
151	0x3d2593d3	0.04042418
152	0x3cf8c202	0.030365948
153	0x3d635c6c	0.055508062
154	0xbe1d8cfa	-0.1538581
155	0x3c873cec	0.016508542
156	0xbd2a0bc6	-0.041515134
157	0xbd734ef1	-0.059401456
158	0x3d8343e3	0.06409433
159	0xbd8d3d78	-0.0689649
160	0xbb144c2f	-0.0022628417
161	0xbc8cb2df	-0.017175136
162	0xbc09c741	-0.008409322
163	0x3bb075df	0.005385145
164	0x3bf8b3f1	0.00758981
165	0x3c44fe3b	0.012023504
166	0xbc55e88b	-0.013055931
167	0xbcb5a9c5	-0.022175679
168	0xbce68d8b	-0.028143665
169	0xbb0845a3	-0.002079346
170	0x3c69d892	0.014272826
171	0xbd059881	-0.032616142
172	0x3ba61550	0.0050684586
173	0xbb69c7d2	-0.003567208
174	0x3b14789f	0.0022654904
175	0x3c8c8391	0.01715258
176	0x3b28f932	0.0025783298
177	0xbd026dfe	-0.031843178
178	0xbc44cf02	-0.012012245
179	0xbd46955f	-0.048482295
180	0xbdd03aa5	-0.101674356
181	0x3d280f99	0.0410305
182	0x3dbf8c45	0.09352926
183	0xbcd4b104	-0.025963314
184	0x3c94997e	0.018139597
185	0x3c805ac7	0.015668286
186	0x3da69a47	0.08134895
187	0xbcec3246	-0.028832566
188	0xbda3b99a	-0.07994385
189	0xbc8be2e1	-0.017075958
190	0x3e29991e	0.16562316
191	0x3dbf5c84	0.09343818
192	0x3cadfcc0	0.021238685
193	0x3bd89daa	0.006610592
194	0x3d26f1ad	0.040757824
195	0xbbcaf8c9	-0.0061942083
196	0xbc940e0e	-0.018073108
197	0xbde6d96b	-0.11271938
198	0xbcedda18	-0.02903466
199	0x3c211a13	0.009832877
200	0xbc145e65	-0.009055709
201	0x3cbb6947	0.022877349
202	0xbc3c5da4	-0.011496935
203	0x3d4b6caa	0.049664177
204	0x3c218473	0.0098582385
205	0x3dbe2c99	0.0928585
206	0xbd8effb8	-0.06982368
207	0x3d0aa5b8	0.033849448
208	0xbc6b563e	-0.014363823
209	0xbb5384ea	-0.0032275268
210	0x3cafeceb	0.021475276
211	0x3d27c295	0.040957052
212	0xbbff5230	-0.00779178
213	0xbdb44a93	-0.088032864
214	0xbcb01227	-0.02149303
215	0xbd9f582f	-0.077804916
216	0x3cb36a27	0.021901203
217	0xbd00427a	-0.031313397
218	0xbe245b93	-0.16050558
219	0xbc70d9da	-0.014700377
220	0xbad661bc	-0.0016356031
221	0x3dc205e8	0.09473783
222	0xbe8775ef	-0.26457164
223	0x3ba91289	0.0051596803
224	0x3b25f30b	0.0025321867
225	0xbcd89d40	-0.02644217
226	0xbab5819a	-0.0013847828
227	0xbc63cb27	-0.013903416
228	0x3bf06f40	0.007337481
229	0x3c1d190e	0.009588493
230	0xbcf65233	-0.030068493
231	0xbc1370eb	-0.00899909
232	0x3cdcef3d	0.026969546
233	0xbe177d2f	-0.14793848
234	0xbc71f028	-0.01476673
235	0x3cd2255d	0.025652582
236	0x3d650528	0.05591312
237	0xbcba0bca	-0.0227107
238	0x3d0b4da0	0.034009576
239	0x3af062a8	0.0018339949
240	0x3cc721f3	0.02430818
241	0x3c96c2d7	0.018403454
242	0xbc22a3ae	-0.00992672
243	0xbc2ce1de	-0.010551898
244	0x3c954d5a	0.01822536
245	0xbd3114ad	-0.04323261
246	0x3d0b094e	0.03394442
247	0xbe1f6779	-0.15566815
248	0x3c726ef9	0.014796966
249	0xbcb357ee	-0.021892514
250	0xbdc89427	-0.09793883
251	0xbaa0fa3f	-0.001228161
252	0x3acba203	0.0015535954
253	0x3c98205e	0.018570121
254	0xbc318ebc	-0.010837253
255	0xbca63941	-0.020290973

mu_linear.bias f4 [2]
0	0x38a1fb36	7.72387e-05
1	0xbd39c1ec	-0.045350954

log_var_linear.weight f4 [2, 1024]
0	0x3bc79e17	0.006091844
1	0xbd14538d	-0.036212493
2	0xbd2c3d6f	-0.042050775
3	0x3c10b471	0.008832083
4	0xbc02b260	-0.007977098
5	0xbd96e198	-0.07367247
6	0xbe0a60e2	-0.1351352
7	0xbdad1235	-0.08450738
8	0xbc42530a	-0.011860618
9	0x3d6c34f2	0.05766768
10	0xbd3207ea	-0.04346458
11	0x3d846d8e	0.064662084
12	0xbd3b3c02	-0.045711525
13	0xbca87406	-0.020563137
14	0x3d51c549	0.051213536
15	0x3ab0e219	0.0013495117
16	0x3bb612df	0.005556449
17	0xbc96bfd5	-0.01840202
18	0xbd8abf48	-0.06774765
19	0xbdb171be	-0.08664273
20	0xbc53b188	-0.012920745
21	0xbe20ff44	-0.15722376
22	0xbd1e2f65	-0.038619418
23	0xbc0809bf	-0.008303105
24	0xbd01951a	-0.031636335
25	0xbdc9f58b	-0.09861287
26	0xbdd05e75	-0.10174266
27	0x3c5d8d45	0.013522451
28	0xbd6ad097	-0.057327833
29	0xbde708f5	-0.11281005
30	0xbc8cbb7b	-0.017179241
31	0x3ce29d65	0.027662942
32	0x3b13a757	0.0022530162
33	0xbd9e3c0f	-0.07726299
34	0xbe0a4269	-0.13501896
35	0x3d16180c	0.036644027
36	0xbc391966	-0.011297559
37	0xbbe14818	-0.0068750493
38	0xbda14d3f	-0.07876062
39	0x3d4407a5	0.047858853
40	0x3c5f8c47	0.013644285
41	0xbd0fc3c9	-0.035098825
42	0x3caca1b6	0.021073204
43	0xbc5ceb75	-0.013483872
44	0x3df1c520	0.11805177
45	0x3d94cedf	0.0726602
46	0xbd5758b1	-0.052574817
47	0xbb89ce7a	-0.004205522
48	0xbd97bcf6	-0.07409088
49	0xbe1ed0d1	-0.15509345
50	0xbda2f26a	-0.07956393
51	0xbcfa65fa	-0.030566204
52	0xbe162ccd	-0.14665528
53	0xbc5cb8f6	-0.0134718325
54	0xbd63caa9	-0.055613194
55	0xbccd7847	-0.025081767
56	0xbddc92d5	-0.107701935
57	0xbd2eea22	-0.042703755
58	0xbc8199ab	-0.015820345
59	0xbbd913b7	-0.0066246646
60	0xbdcc2a33	-0.09968986
61	0xbcf88c61	-0.030340375
62	0x3daa86dc	0.08326504
63	0x3db8beeb	0.0902079
64	0x3d031612	0.03200347
65	0x3cd21fa7	0.025649859
66	0x3d2afce2	0.041745074
67	0x3d478ba5	0.04871716
68	0xbb4043a7	-0.00293372
69	0x3d6ebfcc	0.05828838
70	0x3ce246c4	0.027621634
71	0x3ce85400	0.028360367
72	0x3be85e35	0.0070913085
73	0x3d259a27	0.040430214
74	0x3d83cb34	0.06435242
75	0x3cbc33a9	0.022973852
76	0xbc1cc1e4	-0.0095677115
77	0x3d0a8dc3	0.0338266
78	0x3c99138f	0.018686084
79	0xbc264d30	-0.010150239
80	0xbc905ae7	-0.01762147
81	0xbdd68782	-0.10475065
82	0xbd9a3896	-0.07530324
83	0xbc231824	-0.009954486
84	0xbcad5bd0	-0.021161944
85	0xba9e2252	-0.0012064672
86	0xbda32eab	-0.079678856
87	0x3df2ce4c	0.11855754
88	0xbc2203ec	-0.00988863
89	0x3d2509ac	0.040292427
90	0x3ccab2ee	0.024743523
91	0xbc289709	-0.010289916
92	0xbc8a868a	-0.016909856
93	0x3df732c3	0.12070229
94	0xb9eab12e	-0.00044763967
95	0xbd179e5a	-0.03701625
96	0xbd1d2108	-0.03836158
97	0xbd794eac	-0.060866043
98	0x3c1b4206	0.00947619
99	0xbd818749	-0.06324632
100	0xbda4d8fa	-0.080491975
101	0xbd1c16f7	-0.03810784
102	0xbd3c263a	-0.045934893
103	0xbdc29419	-0.09500904
104	0xbd814a95	-0.063130535
105	0xbd13a0ee	-0.036042146
106	0x3d74b9a0	0.05974734
107	0xbe027139	-0.12738504
108	0xbcdcc656	-0.026950043
109	0x3c353bb5	0.011061599
110	0x3daf7fb6	0.08569281
111	0xbd10d30d	-0.035357524
112	0x3cf964b4	0.030443527
113	0xbb4fbda4	-0.0031698728
114	0xbe287a4d	-0.16452904
115	0xbd3a4590	-0.045476496
116	0x3caa2a4c	0.020772122
117	0x3c54f872	0.012998687
118	0xbbe2713c	-0.0069104712
119	0xbdc5e95f	-0.09663653
120	0xbc15f768	-0.0091532245
121	0x3d084d20	0.033276677
122	0x39aa4ea8	0.0003248353
123	0xbe03ea31	-0.12882306
124	0x3be55a38	0.0069992803
125	0xbbb48873	-0.00550943
126	0xbc031f9a	-0.00800314
127	0xbd55ea0e	-0.052225165
128	0x3ca1eec6	0.019767176
129	0xbbc5580a	-0.006022458
130	0xbda7bd6f	-0.081904285
131	0xbc6629ba	-0.014048034
132	0xbc25ecad	-0.010127229
133	0xbdc7b203	-0.0975075
134	0xbd1e6be8	-0.038677126
135	0xbd82c539	-0.063852735
136	0x3bce91bc	0.006303994
137	0xbda0e137	-0.07855456
138	0xbd9951b4	-0.07486287
139	0xbd80b6aa	-0.062848404
140	0xbe0df29c	-0.1386208
141	0xbe12019d	-0.14258428
142	0xbddd1ff0	-0.10797107
143	0xbdd04526	-0.10169439
144	0xbce55082	-0.02799249
145	0x3cd50e30	0.026007742
146	0x3d485614	0.048910215
147	0xbcac0157	-0.020996733
148	0xbe4027c7	-0.18765174
149	0xbd82fa41	-0.063953884
150	0x3c357414	0.011075038
151	0x3e48944d	0.19587822
152	0xbdaddc61	-0.084892996
153	0xbd88e5a7	-0.06684428
154	0x3d8b5d8f	0.06804954
155	0xbc94cf4d	-0.018165255
156	0xbdcab22a	-0.09897263
157	0x3d17d1f2	0.037065454
158	0x3d7edd45	0.062222738
159	0xbce06a75	-0.027394513
160	0xbc9ada8b	-0.018903038
161	0xbbca95c5	-0.0061824047
162	0xbdc2e6d3	-0.095166825
163	0xbd0648c1	-0.032784227
164	0xbd23dff7	-0.04000851
165	0xbd931977	-0.071825914
166	0xbd629f82	-0.0553279
167	0xbd49ecbb	-0.04929803
168	0xbc04d38e	-0.008107079
169	0xbcaec32d	-0.021333301
170	0xbcd8d825	-0.026470253
171	0x3b511021	0.0031900483
172	0x3d0ab24c	0.033861443
173	0xbe12d8e3	-0.14340548
174	0xbdc8f5c9	-0.09812505
175	0xbd31e37d	-0.04342984
176	0x3c6735c7	0.014111943
177	0xbe7bb816	-0.24581942
178	0xbbd92060	-0.006626174
179	0x3dadd3fa	0.08487697
180	0xbdd8b5c7	-0.10581546
181	0xbda313f7	-0.07962792
182	0xbdcc279b	-0.09968492
183	0x3e086db2	0.13323095
184	0x3d9d1ab2	0.07671107
185	0xbc6db85c	-0.014509287
186	0xbe0a9646	-0.13533887
187	0x3dcc0c40	0.09963274
188	0x3db32da2	0.08748938
189	0x3d3080ef	0.04309171
190	0x3de247a1	0.110488184
191	0x3df332d0	0.11874926
192	0xbd363d8f	-0.0444923
193	0xbd510d5d	-0.051038135
194	0x3b070d3b	0.0020607251
195	0xbcd10d0c	-0.025518917
196	0xbd1b8001	-0.03796387
197	0xbdc716e4	-0.09721163
198	0x3e129c52	0.14317444
199	0x3c6d9ceb	0.014502744
200	0xbc3ce300	-0.01152873
201	0x3e0cef2d	0.13763113
202	0x3d4b46dd	0.049628127
203	0xbd92e1c2	-0.07171966
204	0xbd0828f0	-0.033242166
205	0x3d80cdb6	0.06289236
206	0x3da2c864	0.07948378
207	0xbc88c83d	-0.016697044
208	0xbe0756fb	-0.13216774
209	0xbdec0be3	-0.11525705
210	0xbdb1815b	-0.08667251
211	0xbde4bf42	-0.11169292
212	0xbd7c9899	-0.061668966
213	0x3d6db876	0.058037244
214	0x3d0adb25	0.0339004
215	0xbdc8bb7f	-0.09801387
216	0xbe3cc0ec	-0.18432969
217	0x3ce8f9cb	0.028439423
218	0x3e333a20	0.17502642
219	0xbd1c4a95	-0.038157064
220	0xbd8a17a6	-0.06742792
221	0x3d1dd37f	0.038531777
222	0x3e3b25f7	0.18276201
223	0xbd9d181a	-0.07670613
224	0xbc464c7d	-0.012103197
225	0x3c6c9a09	0.014441022
226	0xbde86714	-0.113477856
227	0xbda497fd	-0.08036802
228	0xbcfb4070	-0.030670375
229	0xbc5bf9ff	-0.013426303
230	0xbd02fc32	-0.031978793
231	0xbd11d80f	-0.03560644
232	0xbba66f7a	-0.005079207
233	0x3db3fb76	0.08788197
234	0x3ca1bdc5	0.01974381
235	0xbd2d5b82	-0.042323597
236	0x36cbb767	6.0712223e-06
237	0xbb8686cb	-0.004105424
238	0xbc7aa0dd	-0.015297142
239	0x3d3b160f	0.045675334
240	0x3d37588f	0.04476219
241	0x3ce42243	0.027848369
242	0x3ab3daf5	0.001372187
243	0x3c05dc41	0.008170188
244	0x3d3f1942	0.046654947
245	0xbc55b023	-0.013042483
246	0xbd45968b	-0.048239272
247	0xbcef0175	-0.0291755
248	0xb9e3e7ec	-0.0004346961
249	0xbcdd0fd0	-0.026985079
250	0xbdf1f5ba	-0.11814447
251	0xbd613b41	-0.05498815
252	0x3d12594f	0.035729703
253	0xbce92e16	-0.028464358
254	0xbd0847d0	-0.03327161
255	0xbcd1f8ed	-0.025631392

log_var_linear.bias f4 [2]
0	0xbddd4f68	-0.10806161
1	0xbdaea257	-0.085270576

decoder_linear.weight f4 [1024, 2]
0	0x3f1beff3	0.6091301
1	0xbec13fc0	-0.3774395
2	0xbea4b7b5	-0.32171407
3	0x3f0d2513	0.55134696
4	0x3ef3c2a9	0.4760945
5	0x3c841e06	0.016127598
6	0xbe492930	-0.19644618
7	0xbeea6f1b	-0.45787892
8	0x3f26031b	0.6484849
9	0xbed3175d	-0.41228762
10	0xbacce36c	-0.0015631742
11	0x3eff6ec4	0.49889195
12	0xbd8e7f77	-0.06957906
13	0x3e889990	0.2667966
14	0xbd16382c	-0.036674663
15	0xbe9b9861	-0.30389693
16	0xbf14783f	-0.5799598
17	0x3ee865b1	0.45390084
18	0x3ec7cd23	0.39023694
19	0xbe2cea2f	-0.16886209
20	0xbdf28da2	-0.118434206
21	0xbccc7148	-0.02495636
22	0xbd080843	-0.033211004
23	0xbcea4344	-0.028596528
24	0x3d8938e8	0.06700307
25	0xbe0d4a5a	-0.13797894
26	0xbe9e2145	-0.30884758
27	0x3f0c0d85	0.5470813
28	0xbec1a1fd	-0.378189
29	0xbe1b68e2	-0.15176728
30	0x3dd4d5e2	0.103923574
31	0x3eaf84a3	0.3428088
32	0xbf0401dd	-0.51565343
33	0x3b0ed1b0	0.0021792464
34	0x3df44030	0.11926305
35	0x3e60f50c	0.21968478
36	0x3ee4c0e6	0.4467842
37	0xbf1e2176	-0.6176981
38	0xbf1b1df3	-0.60592574
39	0xbf138754	-0.5762837
40	0xbe9161d5	-0.28394952
41	0xbe6ae35f	-0.22938298
42	0x3d0cf227	0.034410622
43	0xbdfdc5e9	-0.12391264
44	0x3f2a155e	0.66438854
45	0x3f1e636a	0.61870444
46	0x3e8e7a94	0.27827895
47	0x3dc6af39	0.0970139
48	0xbdf44f84	-0.11929229
49	0xbf0eb42a	-0.5574366
50	0xbdb3dad9	-0.08781976
51	0xbdd1f0b5	-0.10250989
52	0xbede3bcc	-0.43404996
53	0xbf20af54	-0.6276753
54	0xbf00d0d3	-0.5031864
55	0x3f20aa83	0.6276018
56	0x3f2cee62	0.67551243
57	0x3f0888d7	0.533338
58	0x3f1be7d5	0.6090062
59	0x3ee16ff7	0.44030735
60	0x3f3ad999	0.7298828
61	0x3e6f7dbe	0.2338781
62	0x3e36eb37	0.17863165
63	0x3eac62d0	0.33669138
64	0xbe54cf36	-0.2078217
65	0x3ef29712	0.47380883
66	0x3e9417a3	0.28924283
67	0x3f193b6f	0.59856313
68	0xbed79dfa	-0.42112714
69	0xbe22cec7	-0.15899192
70	0x3e72ce1a	0.23711434
71	0xbf2f4356	-0.6846212
72	0x3e8cfe94	0.27537978
73	0xbf1423cb	-0.57867116
74	0xbf240a5c	-0.6407831
75	0xbef29a26	-0.4738323
76	0xbe288bc1	-0.16459562
77	0xbee88da2	-0.45420557
78	0xbe2347ca	-0.15945354
79	0xbed823a3	-0.4221469
80	0x3f22ac2c	0.63543963
81	0x3e9ce9dc	0.3064717
82	0xbf24dffb	-0.6440427
83	0xbed18f8d	-0.40929833
84	0x3df7e879	0.121048875
85	0xbf061a5c	-0.5238397
86	0xbf0da8fc	-0.55335975
87	0x3f2454e5	0.6419204
88	0x3e852962	0.26008135
89	0x3f0d71a6	0.5525154
90	0x3e7a0f2a	0.24419847
91	0xbf11fbe9	-0.5702501
92	0x3d35a496	0.044346415
93	0x3ea72a17	0.326493
94	0x3e41bd02	0.18919757
95	0xbd20e478	-0.039280385
96	0x3eb6df19	0.35717085
97	0xbdd654f2	-0.10465421
98	0x3ed4270a	0.41436034
99	0xbe44b9a9	-0.19211449
100	0xbf0c1628	-0.5472131
101	0x3ed41052	0.414187
102	0xbed097ef	-0.40740916
103	0x3f0db1e0	0.5534954
104	0x3ef3943c	0.4757403
105	0x3f170f0c	0.59007335
106	0x3ea97e1c	0.33104026
107	0x3e623885	0.22091873
108	0xbe938577	-0.28812763
109	0x3dc4e4b5	0.09613935
110	0xbdd5f07c	-0.104462594
111	0xbecb2004	-0.39672863
112	0xbe06e726	-0.13174114
113	0x3dcbb121	0.09945894
114	0xbe13d4b2	-0.14436606
115	0xbeb1eb4d	-0.34749833
116	0xbef5adf7	-0.47984287
117	0xbd862dc8	-0.06551701
118	0x3eca5ecb	0.39525446
119	0x3eff6c63	0.4988738
120	0x3e499db4	0.19689065
121	0xbd49907a	-0.04921005
122	0x3f188aa3	0.5958654
123	0xbf2c8741	-0.6739388
124	0xbe964f65	-0.29357448
125	0xbd87bcd7	-0.06627815
126	0xbeac2bf5	-0.33627287
127	0xbef1f3fe	-0.47256464
128	0xbf2663b7	-0.649959
129	0xbf1ddf29	-0.6166864
130	0x3e013738	0.1261872
131	0x3f3570bb	0.7087514
132	0x3e97e4d5	0.29666772
133	0x3f26e1be	0.65188205
134	0x3f096541	0.53670126
135	0xbf1b9ffe	-0.60791004
136	0xbe4330f3	-0.19061641
137	0xbf1c3651	-0.6102038
138	0x3eed1360	0.46303844
139	0x3e696892	0.22793797
140	0x3ee28565	0.44242397
141	0x3e51bedf	0.20482968
142	0x3f1661a7	0.58742756
143	0xbe50e325	-0.20399149
144	0x3f0b9456	0.5452322
145	0x3e47dd40	0.19517994
146	0xbe175dc5	-0.14781864
147	0xbe7d692b	-0.2474715
148	0x3e8bb16e	0.27283806
149	0x3ec317d4	0.38104117
150	0x3ca63bc5	0.020292172
151	0xbf0eea75	-0.55826503
152	0x3acaca45	0.0015471658
153	0x3dd63d20	0.104608774
154	0xbf3f76fa	-0.7479092
155	0xbb4a110b	-0.0030832912
156	0xbde5c3c7	-0.11218982
157	0xbe3d4391	-0.18482806
158	0xbef1bf7b	-0.472164
159	0xbf117d25	-0.5683158
160	0xbe0dd443	-0.13850503
161	0xbe4cc26d	-0.19996043
162	0xbdab1f1f	-0.08355545
163	0xbb9476b5	-0.0045307525
164	0x3f05a389	0.5220266
165	0x3e9975eb	0.29972777
166	0x3f20e4d1	0.62849146
167	0x3e99d8d0	0.30048227
168	0xbd2f0118	-0.042725652
169	0xbeb5fd41	-0.3554478
170	0x3e4c3680	0.19942665
171	0xbf1b4d5b	-0.6066491
172	0xbec6b386	-0.3880884
173	0xbd8b1368	-0.06790811
174	0xbec9d313	-0.3941885
175	0xbf0cce66	-0.5500244
176	0xbf11e673	-0.5699226
177	0xbf238657	-0.6387686
178	0xbed8720e	-0.42274517
179	0x3ee9d900	0.4567337
180	0x3e355c2f	0.17710947
181	0x3ecb283a	0.39679128
182	0xbf2fe274	-0.68704915
183	0x3f0ed675	0.55795985
184	0x3f057599	0.52132565
185	0x3e118d83	0.14214139
186	0xbecd6708	-0.4011767
187	0xbc458356	-0.012055239
188	0x3e3956b7	0.18099485
189	0xbe55631d	-0.2083859
190	0xbe1c0c7e	-0.1523914
191	0x3f301ee9	0.68797165
192	0xbe95a13f	-0.29224584
193	0xbe4301e1	-0.19043685
194	0xbef23d8f	-0.4731259
195	0xbea47bb9	-0.32125643
196	0xbe5dfca6	-0.21678409
197	0xbf2ab1fc	-0.6667783
198	0x3ebba9d9	0.3665302
199	0xbf0a02f0	-0.5391073
200	0x3ec162f2	0.37770802
201	0xbda9ed88	-0.082972586
202	0x3f3073c3	0.6892664
203	0xbdc419d8	-0.09575242
204	0x3f26d207	0.65164226
205	0xbf0aa7c4	-0.5416224
206	0x3db3d739	0.08781285
207	0xbd92f662	-0.071759
208	0x3efbca43	0.4917775
209	0x3e904540	0.28177834
210	0x3ebfb005	0.3743898
211	0xbe848adc	-0.2588719
212	0x3ede0712	0.4336477
213	0x3f274c87	0.65351146
214	0x3f099b4d	0.53752595
215	0xbea1a496	-0.31570882
216	0xbc3848c0	-0.011247814
217	0xbf1d1db8	-0.6137347
218	0x3e07d894	0.13266212
219	0x3e3d4c2b	0.18486087
220	0x3f16f4d5	0.58967334
221	0xbf066c83	-0.52509326
222	0x3e6832a3	0.22675566
223	0x3e3d5dc9	0.18492807
224	0xbed5fcf3	-0.41794547
225	0x3c1c69f6	0.009546747
226	0xbf014d70	-0.50508785
227	0x3e69ad20	0.22819948
228	0xbf2ba3ed	-0.67047006
229	0xbf1b1f81	-0.60594946
230	0xbe9a96f6	-0.301933
231	0xbf0ba1b7	-0.5454363
232	0x3f04b64e	0.51840675
233	0xbd400be0	-0.046886325
234	0x3ee12bdb	0.43978772
235	0x3e486e00	0.19573212
236	0xbf059666	-0.52182615
237	0x3e01a03e	0.12658784
238	0xbe8b4fa9	-0.27209213
239	0xbdb8256b	-0.08991512
240	0x3ef5e7f6	0.48028535
241	0xbf2e6407	-0.6812138
242	0xbee6fd6c	-0.4511522
243	0xbf0ccc03	-0.549988
244	0xbf0444e6	-0.5166763
245	0xbf0f1fa6	-0.55907667
246	0x3f18ea74	0.5973275
247	0xbefd42b1	-0.49464944
248	0x3e3dec38	0.18547142
249	0x3d92bb1a	0.07164593
250	0x3ec5c6be	0.3862819
251	0xbf2c32da	-0.67265093
252	0xbbe5aeda	-0.0070093693
253	0xbf3aa07a	-0.7290112
254	0x3e5ba4f3	0.21449642
255	0x3eeea6c0	0.46611595
