checkpoints/vae-mnist-conv-latent-dim-2.ckpt (torch, 461167 bytes, 17 tensors)

vae.enc_convs.0.weight f4 [28, 1, 3, 3]
00000000: a3e3 4c3e 9e8e 183e 4f9a 183b 158e 953e
00000010: 8f9b 25be 9878 a6be 687c 943e 5361 20be
00000020: 8846 de3d 95cf 8a3e eb2e 343e 1bcb a1be
00000030: 4eab e7bd 0f0f 94bc a596 26be d4b6 a3bc
00000040: 572e 9b3e ae99 1fbd 3910 45be 8876 a53e
00000050: d7ea 903e 593a 79bd e9a0 1e3e 7d15 8d3e
00000060: bc51 63bc efca d0bd d919 0cbd cac8 783e
00000070: 3763 893e 5a2d 19be cddd 99bc 7379 21be
00000080: f292 b43e f253 933e 285f de3d 5075 c83d
00000090: 6506 953e 9b11 ae3d 6951 c63c 1e05 3b3d
000000a0: f0d1 87be c49c 873e 758f 3c3e 608a 7b3e
000000b0: 5cb8 7e3e a989 09bf ab7a d9be 4d24 a6be
000000c0: d602 e1be 52ce 0abd 5cd6 d23e 5051 29be
000000d0: bdf3 723e 6991 b73b 35f5 343e 5b41 abbe
000000e0: 4241 eebe 2bba 13be 422d d83d 9c00 cdbe
000000f0: e221 193f 524e fa3e a2b4 40bd 6519 fe3d
00000100: 5e9c 4ebe 8165 803e c429 973e 04ab 293e
00000110: 7796 7d3e 66f7 06bf 03b5 223e 4bce 40be
00000120: acfb cd3d f802 6fbe 9324 07bd 5a06 b93e
00000130: 7ffc 023e 580c b1be ad40 433e 8891 963d
00000140: f546 bebe 2ae5 12bf 702a f93d 42eb 8e3e
00000150: a056 9fbd 68a8 c53d 8bbe abbd 2eb0 0bbd
00000160: de2f 463b 61f9 c33e 593f 943e 4c64 133e
00000170: 234b 4ebd 3d34 253d 9f6b b9bb c0ec 913e
00000180: 1145 123e 6338 04be 48db 763e 24f1 ec3d
00000190: a29d 2cbd adb0 fe3c 3bcc 32be 4ed7 4a3e
000001a0: dec3 c73d 8b65 843e a2cd 243c b46a 1d3e
000001b0: 10e1 973e 8a7a 153d f56d 9dbe 6c5a dfbe
000001c0: 1097 3fbe 7ae4 84be be51 adbe c6cc 9b3d
000001d0: 720a 12be 2254 03bf 68c0 d0be 4ce1 7d3d
000001e0: d8bc abbd e1f7 353d 8bcf b9bd 219f d93e
000001f0: 1d87 a23e cacc 533e c528 64be 155f 08be
00000200: cdc9 1d3e 7139 513e face 63bc 8bb1 983d
00000210: ec93 ee3d ee36 533e 9500 9d3d 38df 163e
00000220: d462 f93e 4ec9 f53e f381 a0bd 46bf 8cbe
00000230: a8d7 57bc 6546 e2be 4e7a c3be 704d 5ebe
00000240: fd07 5d3e 6863 5a3d effe 2a3e 6d68 acbe
00000250: 584c 3d3e 9791 debd c071 b13d 5628 253e
00000260: fbfe 45be 9e0c 2b3e 3671 063e ec2b 5ebe
00000270: 4c3c 19bc 86ba 72bd 867f 42be cd59 933e
00000280: 49c6 57be c2e3 70be 0bac 2dbd cc31 abbd
00000290: 9e33 0ebf 4174 e83e bb02 8ebc 362b 32be
000002a0: 6ff6 813d 5360 823e 8e58 bc3e 9296 86bd
000002b0: 8982 6b3e de04 b7be 85e1 1fbe e16a df3d
000002c0: 2d0a 513e 62f4 2b3e 5972 ee3d aa33 0f3e
000002d0: 4b30 b7be 9f36 873e 09e5 a0bd e6a8 9a3d
000002e0: 1031 38be 4d9e b2be 533b eb3d d189 c1be
000002f0: aa1f 8bbf 5cdb 793b a378 a8bb 7ccb 723e
00000300: 0c9f f23d ec18 a23d c2a1 d03e 3a70 c1be
00000310: da52 d9be d593 90ba 29a3 dbbe 99e9 afbe
00000320: 7c56 933b 77e3 823e db0b 973d cd81 8e3e
00000330: 301c ae3e 2dba 1bbd 64b4 4f3d f452 dcbe
00000340: dae3 adbe 9b08 64bf 065d 00bf f909 a0be
00000350: c3a1 3ebe 50fc 18bf 1019 4cbf 1347 8abe
00000360: 3068 2b3d 8f9c 213d 33c9 b7be 0325 943e
00000370: cd8e 0ebe 9c5d 91be 46ae ad3e c340 a03e
00000380: 1de7 533e 6eca 5d3e e033 ce3e 8797 fb3d
00000390: c9a9 13bf 9652 21bd 394a a3be baf2 7cbf
000003a0: 9a5d fdbe ea10 00bf 416e 613e d666 963e
000003b0: 9920 643e bede 803e e997 a73d cbb4 4ebd
000003c0: 0057 8dbe eef3 2a3e ab2b 28be 029f e6bc
000003d0: 03f3 cf3d b291 803e bd14 203e 8547 593e
000003e0: 58e2 5a3e 1ae6 81bd 40e9 88be ae22 93be
0.20008712 0.14898154 0.0023285334 0.29209962 -0.16172622 -0.3251388 0.29001164 -0.15662126
0.108532965 0.27111498 0.17596023 -0.3160027 -0.11311971 -0.018073587 -0.16268404 -0.01998464
0.30308792 -0.03896492 -0.1924447 0.32316995 0.2830417 -0.06084666 0.1549107 0.27555457
-0.013874467 -0.101949565 -0.034204338 0.24295345 0.26833507 -0.14958706 -0.01878252 -0.15768985
0.3526836 0.28774983 0.10857993 0.097880006 0.2910644 0.08499452 0.024208741 0.045659177
-0.26527357 0.2648679 0.184141 0.24564505 0.24875015 -0.5372568 -0.424764 -0.3244957
-0.43947476 -0.03388817 0.41179168 -0.16534925 0.23725791 0.005602051 0.17671664 -0.334483
-0.46534163 -0.14426486 0.10555507 -0.40039527 0.59817326 0.4888788 -0.047047265 0.12407187
-0.20176837 0.2507744 0.29524052 0.16569144 0.24764429 -0.5272125 0.15889363 -0.18828695
0.10057768 -0.23340976 -0.032993864 0.36137658 0.12791632 -0.3457973 0.1906764 0.07351977
-0.3716351 -0.57380927 0.121662974 0.27913862 -0.07780194 0.096512616 -0.083859526 -0.034103565
0.0030240933 0.38276199 0.2895458 0.14393729 -0.050364625 0.04033302 -0.0056585814 0.28500938
0.14284159 -0.12912135 0.24107087 0.115694314 -0.042142518 0.031090105 -0.1746072 0.19808695
0.097541556 0.2585872 0.010058792 0.15372735 0.29663897 0.036493815 -0.30747953 -0.43623674
-0.1870997 -0.25955564 -0.33851427 0.07607417 -0.14261797 -0.5130025 -0.40771794 0.061982438
-0.083856285 0.04442585 -0.09072789 0.42504218 0.31743708 0.2068359 -0.22281177 -0.13317521
0.15409012 0.20432068 -0.0139043275 0.07455739 0.116493076 0.20626423 0.07666127 0.14733589
0.48708212 0.48005146 -0.07837286 -0.2748968 -0.013173975 -0.44194332 -0.3817925 -0.21709228
0.21585079 0.053317457 0.16698812 -0.3367342 0.18486154 -0.10867613 0.08664274 0.16128668
-0.19335549 0.16704032 0.13129124 -0.21696442 -0.009352755 -0.059259914 -0.18993959 0.2877945
-0.21071734 -0.23524383 -0.0424004 -0.083591074 -0.5554751 0.45401195 -0.017335286 -0.17399296
0.063458316 0.25464115 0.36786312 -0.06571688 0.22999014 -0.357459 -0.15613373 0.109090574
0.20414038 0.16792443 0.11642904 0.13984552 -0.35779032 0.2640886 -0.07856185 0.07551746
-0.17987466 -0.348864 0.114859246 -0.37800458 -1.0869038 0.0038125133 -0.005141334 0.23710436
0.11846742 0.0791491 0.4074841 -0.37780935 -0.42446023 -0.0011030386 -0.4289792 -0.34357908
0.0044963937 0.25564167 0.07375308 0.27833405 0.3400588 -0.038019348 0.050709143 -0.43032038
-0.339629 -0.8907563 -0.5014194 -0.3125761 -0.18616395 -0.5976 -0.7972574 -0.2700735
0.041847408 0.039455947 -0.3589569 0.28934488 -0.13921662 -0.2839173 0.33922023 0.3129941
0.20693631 0.21659252 0.40273952 0.12284761 -0.57680947 -0.0393854 -0.31892565 -0.9880787
-0.49485475 -0.5002581 0.22014715 0.29375333 0.2227806 0.2516994 0.081832714 -0.050465386
-0.27605438 0.16694614 -0.16422908 -0.028151993 0.10153773 0.25111157 0.15632911 0.21218689
0.21375406 -0.063427165 -0.26740456 -0.28737396

vae.enc_convs.0.bias f4 [28]
00000000: 37c3 7838 82b3 563c 320a 30bb d41a abbe
00000010: 58b2 d3bd 2ba8 853e dccf 3fbd 5a98 68be
00000020: f7ef c03b e534 20bb 91fb 9fbe f0a0 abbd
00000030: 74a6 843e 6451 ac3c ec8f 4ebe 93eb 1b3c
00000040: cc05 2ebe faa7 743e 8702 95bd a045 093e
00000050: 2eb5 113e c200 1f3c d789 b43c ffeb 383e
00000060: a535 553c d2ca 793e 0f5c bd3b bdf9 cbbc
5.9309616e-05 0.013104321 -0.0026861546 -0.33418906 -0.10336751 0.26104864 -0.04682909 -0.22714368
0.005887981 -0.002444559 -0.31246617 -0.08380306 0.25908244 0.021034904 -0.2017209 0.0095166145
-0.16994399 0.23892203 -0.07275873 0.13405466 0.14229271 0.0097047705 0.022038383 0.18058775
0.013013278 0.24393776 0.0057787965 -0.024899358

vae.enc_convs.2.weight f4 [64, 28, 3, 3]
00000000: 3667 803c f14e a33d 6541 abbc c4dd 7ebc
00000010: b0a8 373c 031c 883c be07 cf3b 96e8 6e3c
00000020: ddb0 c73d cd81 a83d f1c9 5f3e 1b5e 86bc
00000030: b299 fa3d e9b8 8c3e f85a 97bc fcef 1f3e
00000040: 7ced 493e 5b9d 033d da8b 813d 31a9 33bd
00000050: adb8 463d 17bb c33d cbf7 b9bd 987d 653d
00000060: e5a5 c0bc 7429 c53d 8fa2 30bb 65ea cdbd
00000070: cbb8 48be 2fa6 6dbe 4290 2cbe 3f80 47be
00000080: 3fc5 65be dc66 77be 7d05 35be aac3 3dbe
00000090: 0efb 49bc 7d97 a73c 30f5 81bd 5389 ff3b
000000a0: 0182 ccbb 4d8d 24bd b3c7 43bd fa4f ba3d
000000b0: bac4 663d a8bc 7d3d a655 993d b7e7 0abc
000000c0: 2136 da3d bf2a 2fbd f9ec 193c 3938 b03c
000000d0: 66e9 1f3d eb91 cb3b 695d 02be ec1d 073e
000000e0: aa82 e03c bd3e 9ebd 38b6 f03d 482e 8abd
000000f0: b8c3 6fbc f0a5 04be 5ac8 e23c 9af6 4bbe
00000100: 4cc2 693d d817 103c 0c0a 1abd 1c00 113d
00000110: 2084 47bd e061 54be 12e7 1c3d bc21 72be
00000120: 0cbd 49be 6c29 ae3e db86 3e3d 6f23 cebd
00000130: c550 863e 455f f23d 4fd0 8d3d 9348 e7bd
00000140: cd67 913e 47e9 b8bd fe66 28bd cdb8 be3c
00000150: 999a cabc f482 3c3d 671f 593d 5b4d b7bd
00000160: 99cf e53d 41dd 853d cb4b 23be b404 86be
00000170: bac2 83be e20b 90be abc6 7cbe 3f65 c5be
00000180: 7faf a9be fb17 29be b17f 91be 1d93 6bbc
00000190: 37a7 82bc 193e f8bb 08df 74bd be89 c23c
000001a0: 90f0 653d 63a0 71bd e95f a7bc 3c09 c6bc
000001b0: 8e59 9d3d 51e4 913c 9c80 59bd dc0f 153d
000001c0: 17ad b8bb d982 acbd de88 4c3c 12f7 df3b
000001d0: 30a4 36bd cffa 40be dc49 bf3c fa92 8a3c
000001e0: 4a77 b23c a96e 21bd 1fa8 033d d26c 08be
000001f0: 67ad 833d 6e7c 243d 66cc ebbd 6ab6 febd
00000200: 9e16 bcbd c257 c9bd 5161 01bd f006 96bd
00000210: afac 3abe 8d7f 3b3c 922f 5abd 9a22 ae3d
00000220: 0236 8bbd c95b 45be 819f 6d3e c8ab 5f3e
00000230: 4f21 2e3e 37b1 053e 1940 193e f25a bebd
00000240: 7616 9abd e007 7dbe d288 7a3d 084e 32bd
00000250: 586e 05bd 6c2e 3ebd 4951 ba3b 3b7e 70bc
00000260: 36bd 853e 98d1 bb3c fa83 903c df7e 463d
00000270: c8b4 93bc 0c0d 4bbc 030c 463c d96f 99bc
00000280: 08d0 06bd 9103 e73d d644 083e 66a9 e03d
00000290: 47fc dd3d 6905 1cbe e0d1 253e 88a0 74bd
000002a0: e392 d83c c7cd 923d ba8c e3bd 8766 343c
000002b0: c92c 4c3c 32fe 893d 6ad4 8f3d 61fa 453d
000002c0: 6211 e13a 5f61 a7bc 4f7e fb3c a9e4 d73c
000002d0: 0044 a63d 2b16 8dbd c5b5 8339 64f9 70bd
000002e0: 922c dfbd 3530 063b 8572 21bb 38b2 90bd
000002f0: 4ffd 88bc 3261 9a3d 902b bc3d 7235 933d
00000300: 43fc 8d3d 1ff9 28bd ad46 64bd c127 183e
00000310: e860 703c 2bf2 37be c9a2 3fbc 93e7 733d
00000320: dd13 683d abd7 f1bc 817b 5d3d 4d45 613d
00000330: 9796 86bd bc93 e03d eb48 db3d 544c 833d
00000340: b20d 7abd 5f3a e7bc 0efe bfba c647 58be
00000350: a92b 7cbd ed03 36bd e861 b5bd 1fc4 57bd
00000360: 25d7 4ebb 45de 3f3c 7b6e a13d 1e2f 80bd
00000370: 1c13 763d a149 9e3c b719 403d 5ff3 9abb
00000380: 0350 9c3d 1217 e7bc e6a0 e3bd 4e9f 2abd
00000390: b241 de3c 0b12 d6bd d3cb aabd 608a 953d
000003a0: f17b edbc 8d34 aab8 b78e d73b 551f 2cbd
000003b0: 9971 973a f92b af3c ba87 01bd d52d 18bd
000003c0: 53fd 68bd 44d0 9c3d f5ac 183c 294d 25bc
000003d0: 6f29 bebc e04c 2b3d 7e4c 9fbc fe88 6fbd
000003e0: 6d13 07bd e5b9 893c 58a6 d4bd 6fd7 c63c
000003f0: 82c2 0abd c731 7a3b 9974 71bc 597a 143d
0.015674215 0.07974041 -0.020905206 -0.015555803 0.011209652 0.01661492 0.0063180616 0.01458182
0.09750531 0.082278825 0.21854378 -0.016402295 0.12236346 0.27484825 -0.018475994 0.1561889
0.197195 0.032132488 0.06325503 -0.043862525 0.048515964 0.09557169 -0.09080466 0.05602798
-0.023516605 0.09627047 -0.0026952361 -0.10054473 -0.19601743 -0.23207925 -0.16851905 -0.19482516
-0.22438525 -0.24160331 -0.17677875 -0.18531671 -0.0123279225 0.020457977 -0.06345594 0.0077983527
-0.0062410836 -0.040173817 -0.04779787 0.090972856 0.056339957 0.061947495 0.07487039 -0.008478097
0.106548555 -0.042765375 0.009394878 0.021511184 0.039040945 0.006212463 -0.12730946 0.13195008
0.027406055 -0.0772681 0.117535055 -0.06747109 -0.014634065 -0.12953925 0.027683426 -0.1991829
0.05707006 0.008794747 -0.037607238 0.035400495 -0.04870999 -0.20740461 0.038306303 -0.23645681
-0.19701022 0.34015977 0.046515327 -0.10065352 0.26233497 0.118345775 0.06924497 -0.11293139
0.28399506 -0.09028869 -0.041113846 0.02328148 -0.024731921 0.046023324 0.053008463 -0.08950301
0.11221237 0.065363415 -0.15946881 -0.26175463 -0.25734502 -0.28134066 -0.24685161 -0.38553807
-0.33141705 -0.16513054 -0.28417733 -0.014378336 -0.015948875 -0.007575762 -0.05978301 0.023747321
0.05613762 -0.058990847 -0.020431476 -0.024174325 0.07683097 0.017809065 -0.053101167 0.036392078
-0.0056358683 -0.08423395 0.012483804 0.006834873 -0.044590175 -0.18845676 0.023350649 0.016915787
0.021785397 -0.039412174 0.032142755 -0.13322762 0.06429558 0.040157728 -0.11513595 -0.124371365
-0.091840014 -0.098311916 -0.03158695 -0.07325542 -0.18229936 0.011443985 -0.053268023 0.085026935
-0.067974105 -0.19273295 0.23205377 0.21842873 0.17004894 0.13055883 0.14965858 -0.0929469
-0.07523815 -0.24710035 0.06116564 -0.043531448 -0.032575935 -0.04643099 0.0056859595 -0.014678533
0.2612092 0.02292709 0.017641056 0.048460837 -0.01803054 -0.012393247 0.012087825 -0.01873009
-0.032913238 0.11279977 0.13307509 0.1096981 0.10839134 -0.15236439 0.16193342 -0.059723407
0.026437229 0.07168155 -0.11110826 0.011010773 0.0124618495 0.06737937 0.07022937 0.048334483
0.0017171318 -0.020432172 0.030699877 0.02635415 0.08118439 -0.06888994 0.00025121696 -0.058831587
-0.10897173 0.002047551 -0.002463491 -0.070652425 -0.01672235 0.0753807 0.091879964 0.07187928
0.06932881 -0.041253205 -0.055731464 0.14858915 0.014671542 -0.17963473 -0.011696526 0.05954702
0.056659568 -0.029521784 0.05407286 0.05499773 -0.065716915 0.10965678 0.107072674 0.06411043
-0.061048217 -0.028226076 -0.0014647858 -0.2112113 -0.061565075 -0.044437338 -0.08856565 -0.05267727
-0.0031561342 0.011710708 0.078824006 -0.06258987 0.060076818 0.019322218 0.046899524 -0.004728719
0.076324485 -0.028209243 -0.11114673 -0.04165583 0.027130935 -0.1045266 -0.08339658 0.073017836
-0.028989764 -8.11602e-05 0.006578292 -0.042022068 0.001155424 0.021383272 -0.03162358 -0.037153084
-0.056882214 0.07656911 0.00931858 -0.010089197 -0.023213116 0.04182136 -0.019445654 -0.058480255
-0.03297751 0.016812274 -0.1038329 0.024272649 -0.033876903 0.0038176642 -0.014737272 0.036249492

vae.enc_convs.2.bias f4 [64]
00000000: 13ee 493d e692 f53b 4efd b73d 6845 273d
00000010: 33c2 95bd b72e e2bd 0d5a 8b3d 5544 963d
00000020: 15d9 eebb 1f78 b2bd 28e7 d6bd 335e ad3c
00000030: c08d 66bd 7534 5d3d feb9 20bd 9c4c 1bbd
00000040: 7922 1cbd 536e 1f3c 8483 753d 1c7c 223d
00000050: dfa0 2ebc 2f3c 62bd 038e 413d 1b0b d7bc
00000060: b8fc e73c 4d39 9c3c 044a c33b 2ac8 193d
00000070: 698f acbc c772 83bb 6745 a23d 2e0f a13d
00000080: 5ac7 53bd 36f9 3f3d d94d cd3d 687a 163d
00000090: b125 01bc 3197 ddba 521e 373d d3c0 cc3c
000000a0: f4a4 04bd 200b 753d b47c 3f3d 47a0 9dba
000000b0: 5201 00be bbef efbc 51e6 f2bb 705b efbb
000000c0: df1a 003d 600c d63c 1183 b7bd 2a04 3fbc
000000d0: 46f8 013d 9572 3f3a cc72 acbd 895c 91bd
000000e0: 8003 12bd 8e36 0e3d 35b8 7f3d 69d1 0b3d
000000f0: 5aec fc3c 21e1 27bd 9670 d43c 971c d03c
0.04929931 0.0074943183 0.08983861 0.040837675 -0.07312431 -0.110440664 0.06804285 0.07337252
-0.007289062 -0.087143175 -0.10493308 0.021163082 -0.056287527 0.054005105 -0.039239876 -0.037914857
-0.038118813 0.009730893 0.059939876 0.03966914 -0.010658472 -0.055233177 0.047254574 -0.026250413
0.028318748 0.019070292 0.005959751 0.037544407 -0.021064477 -0.0040114853 0.07923394 0.078642234
-0.05170379 0.046868525 0.10024614 0.03673783 -0.0078825215 -0.001690602 0.04470665 0.02499429
-0.032383874 0.059825063 0.046749786 -0.0012025916 -0.12500504 -0.029289117 -0.0074127098 -0.0073046014
0.031275626 0.026128948 -0.08960546 -0.011658708 0.031730913 0.0007303146 -0.08420333 -0.07097728
-0.03564787 0.034719996 0.062431533 0.034135256 0.03087442 -0.040986184 0.025932591 0.025404258

vae.enc_convs.4.weight f4 [64, 64, 3, 3]
00000000: 3667 47bd b629 b83d f049 9abd 808e 3abc
00000010: ada3 b33d c58b d93c a011 c0bd 2c91 9e3b
00000020: 9b82 b9bc 5c61 a83d 618f 2cbc d27c 643a
00000030: 949a 723c 886f 133d 06b8 d73c ce27 273d
00000040: bf21 c03b 2a27 853d 4e97 193d 8e5d 983d
00000050: 6ce4 a03d abfc 04bc 4da4 6cbd 71d3 123e
00000060: b836 25bd 207d 543b d904 b33c b47d 053d
00000070: 3b80 d3b9 2692 393d 3c90 3f3d 1684 50be
00000080: 92e6 40bd c618 723d 8f6b 5b3b 212c e03c
00000090: 4d6e c8bc 324f e5bc c3af 473d 2dcd fcbd
000000a0: 8b6e b3bd c808 d8bc 8348 243c c0d5 fabb
000000b0: 70ba e83d cf0d c0bc 6ea1 443d 6044 b5bd
000000c0: 0708 98bd c79d 3bbd 4e29 0c3d a2be 8cb9
000000d0: 5c0c 17bc 8d3e 8bbb 2e1e ff3c d0ab 46be
000000e0: fe1a 933d 8cac 89bd 92a6 a13c b599 24be
000000f0: 5e1c 8fbd ab11 a7bd 4bf9 72bd 6b31 093d
00000100: bfec f43d 1c0a 9dbc 27b5 f1bc cce6 823c
00000110: 0f25 993c 6e04 883d c549 e7bc e572 0ebd
00000120: e87a 90bd ec04 1dbe efe3 cd3d a999 003c
00000130: caf7 05be 01ef 5bbd 5ef5 eebc cf0f 533c
00000140: feac 43be cb8d b83c c776 a63c 3104 f23c
00000150: 4b99 0d3c 4793 a93c 8687 19bc 1557 08bc
00000160: 6574 f8bc 2955 0b3c 2b40 cc3d 4933 233d
00000170: 4535 083e 204a d1bc 9418 083e 5118 27bd
00000180: 7352 1bbe 9a57 653e 1762 b3bd f747 f13c
00000190: b747 2bbe 6703 f43d b3b1 1d3d d156 343d
000001a0: 5e0a 25be e93d fb3d b685 cbbd 60e3 053e
000001b0: b9ce d43d 387e acbd e93d 12bd fa7c abbd
000001c0: 875e 32bd 9fe2 a5bd ec01 14bd 35f2 7fbc
000001d0: a6cc 57be 98a9 0fbe 4c7b eabd 0d0d c8bb
000001e0: e22b 5f3b 9900 50bd 3b65 0d3d 146c 883d
000001f0: 0f3f 9ebc c41f 33bd 140a abbd f0cc 123b
00000200: 3cf6 2fbc b650 c73c f05e a6bd 50c6 debd
00000210: c4ab e13d db9b b1be b1f0 bfbe 5e2e f0bc
00000220: df0e e6bd 9074 a53d 9019 43bd 1fb7 7bbe
00000230: 113d ab3d 6f34 58ba 01a2 9cbd 5af0 bbbd
00000240: e374 0e3d 5fff eabd 03b0 b5bb b280 123d
00000250: 35e8 4fbc 3118 8ebe 01d7 bb3d c888 30bd
00000260: a972 7cbe 2241 14bc d7e6 b2bd 3a23 62bc
00000270: e95f c83d 34ec 27bd 365e 873d 2be3 d93d
00000280: 03a0 d53b 60b0 ab3c 2fe4 65bc 2088 95bd
00000290: 8561 75bb 9dae b43d 56f6 743d 1e3a 04be
000002a0: 3383 373e 24c3 613d 688e 8a3d 45a5 7dbd
000002b0: 8679 6e3c cdda babc 18d3 633c 803d 84bc
000002c0: 5122 1bbd 599c 6cb9 e19e fdbc 0764 82bd
000002d0: ee76 ac3c ac68 d5bc a4d9 27bd 8ed6 993c
000002e0: f1bd 073d b0bd 33be a3d3 1dbe 4bb0 19be
000002f0: 2526 9dbd 28ac cb3c 3e5e bfbd 9939 08be
00000300: 7e0b a73a 4e54 f3bd dc71 9e3a 4f30 b8bd
00000310: 6cd3 14be 4bb5 ae3b 7f03 4fbd 03ca d1bc
00000320: 40f8 48bd e257 d53d defb 5e3d eee5 123e
00000330: fd19 aabc 1ea0 213d ba62 debd 09ce 853d
00000340: b410 a7bc 2162 6a3d 192f 853c d66c 093c
00000350: 2d23 08be f9ca 0fbd 555b 7bbd a109 48bd
00000360: 94db aabd f8e2 82bd b368 a73d 64d0 75bc
00000370: f3ad b2bd 8300 3a3d 9d57 4ebd 6975 74bd
00000380: 5845 9bbd 7883 8a3a 163f a1bd 304a bdbb
00000390: 68c0 babc e1da a63b 77d6 80bc 744e ef3d
000003a0: e00a e23c 41de 543c 4bdc f53b 4dc5 42b9
000003b0: a19c 6a3d 564e 303d d32f 8cbd 7489 763c
000003c0: 5eba 9c3d 2d8f 28bc d092 0abd 903d 303d
000003d0: 42e0 abbc dcea a83b 504f 1d3d b808 8d3d
000003e0: 0d62 a13d d2f1 213d 664e 05bc 42d1 053d
000003f0: 3069 cc3c a8ea abbb 908d 0fbe 6e0d cd3b
-0.048682414 0.08992331 -0.07533634 -0.011386514 0.08771453 0.026555905 -0.09378362 0.004839083
-0.022645285 0.08221695 -0.010532231 0.00087161094 0.014807362 0.035995036 0.026332866 0.040809445
0.005863398 0.065016106 0.03749781 0.07439719 0.07856068 -0.008116881 -0.057773877 0.14338471
-0.040335387 0.0032423213 0.021852897 0.032590583 -0.00040340595 0.045305394 0.046768412 -0.20362887
-0.04709489 0.059105657 0.0033480858 0.027364792 -0.024466658 -0.027991865 0.048751604 -0.12343822
-0.08761319 -0.026371375 0.010027054 -0.0076548755 0.11363685 -0.023444084 0.048005514 -0.08850932
-0.07423406 -0.045804765 0.03421908 -0.00026844913 -0.009219255 -0.0042494 0.03114232 -0.19401479
0.07182883 -0.06722364 0.019732747 -0.1607426 -0.069878325 -0.08157667 -0.059319776 0.033494394
0.11959218 -0.01916986 -0.029505325 0.015979193 0.018694429 0.0664147 -0.028233418 -0.03477754
-0.070546925 -0.15333909 0.100532405 0.007849135 -0.13082805 -0.05369473 -0.029169735 0.012882187
-0.1910896 0.02252855 0.02032031 0.029543014 0.008642505 0.02070011 -0.00937069 -0.008321543
-0.030328939 0.0085041905 0.099731766 0.03984383 0.1330157 -0.02554804 0.13290626 -0.040794674
-0.1516817 0.22396699 -0.087589435 0.02945326 -0.16726576 0.119147114 0.038499545 0.044028107
-0.16117236 0.12267668 -0.09937613 0.13075018 0.10390992 -0.08422512 -0.035703573 -0.08373447
-0.04354718 -0.08099865 -0.036134645 -0.0156217115 -0.21074161 -0.14029539 -0.11449298 -0.0061050714
0.0034053256 -0.05078182 0.03452037 0.06661239 -0.019317178 -0.043731466 -0.083515316 0.0022399984
-0.010739859 0.024330478 -0.08123577 -0.10877669 0.1101909 -0.3468922 -0.3748832 -0.029318985
-0.11233305 0.08078873 -0.0476318 -0.24581574 0.08361257 -0.00082475593 -0.07648087 -0.09176703
0.03477944 -0.114744894 -0.005544664 0.035767265 -0.01268964 -0.27752832 0.09171868 -0.043099195
-0.24653114 -0.009048732 -0.087354355 -0.013802344 0.097839184 -0.040996745 0.06609766 0.10639032
0.006519319 0.020958126 -0.014031454 -0.073013544 -0.003744216 0.08822367 0.059805237 -0.12912795
0.17921142 0.05511774 0.06765443 -0.06192519 0.014555341 -0.02280941 0.013905309 -0.016142607
-0.037874524 -0.00022564958 -0.030959548 -0.06366735 0.021052804 -0.026050888 -0.040979043 0.018779065
0.033140127 -0.17552829 -0.15412764 -0.15008657 -0.07673291 0.024862364 -0.09344147 -0.13303222
0.0012744514 -0.11881314 0.0012088376 -0.08993589 -0.14533776 0.0053316704 -0.050540444 -0.025609022
-0.049064875 0.10417153 0.054439418 0.14345524 -0.020764345 0.03945934 -0.10858674 0.06533439
-0.020393707 0.05722249 0.01625781 0.008387765 -0.13294668 -0.03510568 -0.061366398 -0.048837308
-0.083426625 -0.06390947 0.08174267 -0.0150032975 -0.087245844 0.045410644 -0.050376523 -0.059682284
-0.07581586 0.0010567745 -0.07873361 -0.005776666 -0.022796825 0.0050920104 -0.015727265 0.116848856
0.027593076 0.012992443 0.0075030676 -0.00018574782 0.05727828 0.043043457 -0.06845059 0.01504742
0.07652734 -0.010288042 -0.033831418 0.04302746 -0.020980958 0.0051549505 0.038405716 0.068864286
0.0788003 0.03953726 -0.008136367 0.032670267 0.024952501 -0.005246479 -0.14018846 0.0062577045

vae.enc_convs.4.bias f4 [64]
00000000: 6673 b6bc 49e2 d9bb 8bfa abbc 4796 123d
00000010: 8493 fc3c ddbf a8bc e617 e6bc a1c6 573b
00000020: aa22 8e3c ef9c dfbb 5806 643d 4c8e 9e3a
00000030: 79a1 c73b fcfc 393d 024c 6fbd 2754 efbb
00000040: c04b 5f3c a4d0 643c e629 053d 8942 373d
00000050: caff b8bc 9369 50ba b3f8 61bd 829a 0ebd
00000060: 784d 32bb 31fe 1e3d b310 843c cc79 273d
00000070: e945 ed3b aa1d 7f3d cd39 71bd 6554 babc
00000080: 955d 203d 8cdb 99bd cc65 93bd 08c3 e73c
00000090: 7276 383d ed9e 14bc ec7a 8bbc a33e ae3b
000000a0: aff9 94bc e8e2 043d 6be3 d7bc 570d c33d
000000b0: 8d5f 313d 2c2c 4f3d 7894 393d c7eb c6bd
000000c0: 7a0b 243d 1feb a73c 705b 903b 567a 15bd
000000d0: 3075 49bb 7a3e 453d 2079 ea3c 96b4 34bd
000000e0: 85b7 693d ea2a 103d d6ed 393c 8bd4 253d
000000f0: 98cc 5a3d ce0f a6bc 7fe8 6b3d 750e 59bc
-0.022271823 -0.0066492897 -0.020993492 0.035787847 0.03083206 -0.0205993 -0.028087568 0.0032924789
0.017350513 -0.006824128 0.055670112 0.0012096851 0.006092247 0.04540728 -0.058422096 -0.007303733
0.0136289 0.013965759 0.03251066 0.044741187 -0.022582907 -0.0007950302 -0.05516882 -0.03481532
-0.002720682 0.038816635 0.016121244 0.04088764 0.007241 0.06228415 -0.058893014 -0.02274532
0.039151747 -0.07512578 -0.071971506 0.02829124 0.045034833 -0.009071094 -0.017026387 0.0053175255
-0.018185465 0.032442957 -0.026353559 0.09524029 0.043304015 0.050579235 0.045307606 -0.0971294
0.040050007 0.020497857 0.0044054314 -0.03649362 -0.0030740015 0.048155285 0.02862221 -0.044117533
0.057059783 0.035197176 0.011348208 0.0404859 0.053417772 -0.020271208 0.057594772 -0.013248076

vae.mu_linear.weight f4 [2, 1024]
00000000: 7a89 e5bc c612 873c 638c 19bc 9561 7f3c
00000010: 8e17 e03c bebd 4d3d 989a a139 772c 233c
00000020: 7931 5dbc 68ea 37bd ed38 4e3d 975f 94bd
00000030: 4485 34bb 2870 1abe e16a 7c3e 5b41 59bb
00000040: 9040 8ebc 5f81 613c e02d 963c 5561 873c
00000050: bbf9 a23b 9384 e6bb a7f6 aebc b051 9bbb
00000060: 27a0 91bc 4538 86bc 58da a33c 6ada 8ebe
00000070: 2836 eb3c 3de0 3abe 38fa f9bd 0aa8 863c
00000080: 265d 55bc 74ac 263c 9f0a 0f3d f2f3 9cbc
00000090: 8640 2abe a35a e7bb a2f9 e03d 44d1 51bc
000000a0: 9380 0b3d 0fa4 50bc bb04 f5bd 40c3 94bc
000000b0: 3e27 7ebc 3e8f d23c 661e 11bc c075 fc37
000000c0: db7a 9cbc b2ac 863b 54ea fc3b 3a83 f13b
000000d0: c5bb fcbb eaeb 443c 7f87 25ba ed07 663a
000000e0: 1932 fe3c 93f2 a9bc 39ee 02bd 559c ffbc
000000f0: 6928 793b 2f72 26bd 8829 bfbd 3fed 27bc
00000100: faf9 7dbc 965d f93c d9d4 8d3c f4aa 4d38
00000110: 777a d73b 5d7a dcbc d42c f1bc 5e8a a03b
00000120: 9def 88bc 5308 3ebd 7fbc 1a3d 1b70 aebc
00000130: dc7e 9d3c ec41 13bd f9ed 01bd a2fc aa3d
00000140: d468 bbbc cb0f ef3b b308 ff3c 7f5e 07bd
00000150: 700d 9ebd 2bae 713b 328b 10bd 2793 0c3e
00000160: 2cfb 25bd 0c83 623c c6e6 c9bc c7ae a2bb
00000170: 8e3f b4bc cc1a 3f3c 9025 cb3d b49c 05bc
00000180: 43bc 78bc 83f8 00bc 6a29 ed3a 40bf 0abd
00000190: 84cf 14bd d5f3 373c f5d2 793c f02a fa3b
000001a0: 9aaa 80bd ab3f 883c 7f38 2fbd 3a41 d3bb
000001b0: 29f3 1ebc ed32 193c d2b5 25bd 0c52 423c
000001c0: f469 9bbb d417 8a3c 5c8e 11bc f78d 663c
000001d0: 4d2d 96bb 1f1e 63ba d0ae 8e3b 15b1 473d
000001e0: 4671 d8bc 3415 29bb feda 26bc ab40 1dbc
000001f0: a6dc ec3c 7c75 45ba 848e e0be 9102 50bd
00000200: 1b24 263c 8f35 02bc d9f9 993b bda6 8dbb
00000210: a4d1 d5bc 340f 173a 1558 273e cd8e 8a3b
00000220: a5ea 74bb c1b3 0fbc d7a4 d23c 45d2 49be
00000230: a05d d13c 51c3 be3c 21c8 2ebd fd60 f9bc
00000240: a66d 5dbc 192a 0c3b 0309 2ebc fe71 19bc
00000250: de4d c3bb 8163 40bc a00a 4e3b 4eaa afbc
00000260: 6463 8ebc 2306 85bc ee06 9c3c cbab 9d3b
00000270: a51a 183c 3823 0abc 6ad3 9bbc d298 6e3c
00000280: f3a4 89bc 0af3 f13b 2b85 2c3c 32cd 89bc
00000290: b6ce 65bc 83c5 463c e2a5 833c ad1a ff3c
000002a0: 8472 11bb 3cff 733b 0859 8e3a 486d 83bd
000002b0: 9415 983b 0121 bebc 5607 eabe 3667 0f3c
000002c0: 20f3 26bc 609e 81bd 364c 073e 62d1 d43b
000002d0: fb4c e33d a09b 8e3c 71fa f0ba 9be8 9b3a
000002e0: c560 09bd 3af7 ce3c bc6f 18bd 825f c2bc
000002f0: ddfe c2bc 11f9 903d 535d 923c 0466 e6bb
00000300: 8365 b73a 2d86 9b3b 6aef 1f3d e96e c0bb
00000310: 82ae 113d 6492 923b 8199 e33c 5517 983c
00000320: d9a6 2cbb b661 b6bb 3704 503e 557a 623d
00000330: dd0c 35bb a0fe 99bd df0e 673e affa d4bc
00000340: 49dc f6bb ade0 123c 1655 b03c 8c47 4bbd
00000350: 4c1d ef3b 7447 453a 0fe1 433c 77b8 deba
00000360: 086e 743c 6992 e5bb 7b78 eebc 32f3 47bc
00000370: 33a8 ab3b bf07 f83b d502 413c e003 cb3c
00000380: 9110 b9bc c5aa 853c f627 c93b aee1 bfbd
00000390: b406 1d3d 26ad 4c3d 7eed a4bc 2a23 6d3d
000003a0: 7a9c 83ba 1cf8 253d 0927 d5bd 920e 35bd
000003b0: 5999 e33c 72ec 1b3e b7fd 72bd cbfa a8bc
000003c0: 85e7 1abc 6045 b2bb 6fdb 52bd 4851 e2bb
000003d0: 119c 0d3c 33f2 c1bb 3406 953c 17e0 b5bc
000003e0: 100c 0cbc 3d6b 5839 7587 e93c d9aa d63c
000003f0: 44ef 643c 9d98 1e3d f435 aa3d b227 7e3b
-0.028019655 0.016488444 -0.00937185 0.01558723 0.027354982 0.05022978 0.00030823494 0.009959332
-0.013500565 -0.04490128 0.050347257 -0.07244795 -0.0027545253 -0.15081847 0.24650146 -0.0033150527
-0.01736477 0.013763755 0.018332422 0.016525904 0.004973618 -0.007034847 -0.021357847 -0.0047399625
-0.017776562 -0.016384253 0.020001575 -0.27901012 0.028712347 -0.18249603 -0.122059286 0.01643755
-0.013022697 0.010172952 0.03492224 -0.019159291 -0.16626176 -0.0070603653 0.10985114 -0.0128062405
0.034058165 -0.012734427 -0.11963793 -0.018159509 -0.015512286 0.025703069 -0.008857345 3.0095573e-05
-0.01910155 0.0041099424 0.007718364 0.0073703798 -0.0077128136 0.012019137 -0.0006314441 0.0008774985
0.031029748 -0.020745551 -0.031965468 -0.031202475 0.003801847 -0.040636238 -0.09334093 -0.010249435
-0.015501494 0.030440133 0.017313408 4.903502e-05 0.0065758782 -0.026913816 -0.029440321 0.004899307
-0.016715819 -0.046394657 0.03777742 -0.02129369 0.01922553 -0.03595154 -0.03172109 0.08348967
-0.022877134 0.007295584 0.031132078 -0.033049103 -0.07717407 0.0036877494 -0.035288997 0.13728009
-0.04052274 0.013825189 -0.024646174 -0.0049646827 -0.022002961 0.011664104 0.09919274 -0.008155037
-0.015181604 -0.00787175 0.0018094007 -0.033873796 -0.036330715 0.011227568 0.01524805 0.007634513
-0.0628254 0.016631922 -0.04277849 -0.0064469846 -0.009701529 0.009350521 -0.0404566 0.011860382
-0.004742855 0.016857065 -0.008884039 0.014071933 -0.004583037 -0.0008663851 0.0043543354 0.048752863
-0.0264212 -0.0025799992 -0.010184048 -0.009597938 0.028913807 -0.000753246 -0.4385873 -0.050783698
0.010140444 -0.00794734 0.0046989736 -0.0043228553 -0.026100941 0.00057624583 0.16342194 0.004228449
-0.0037371304 -0.008770884 0.025713367 -0.19709118 0.02555734 0.023286493 -0.042671327 -0.030441755
-0.013514912 0.0021387397 -0.010622266 -0.009365557 -0.00596021 -0.011742474 0.0031439438 -0.021443512
-0.017381378 -0.016238278 0.019046273 0.004811739 0.009283696 -0.008431248 -0.019021709 0.014562802
-0.016802287 0.007383709 0.010529797 -0.016821478 -0.0140263345 0.012132051 0.01607031 0.03114065
-0.00221935 0.003723099 0.0010860274 -0.06417328 0.004641244 -0.023209097 -0.45708722 0.008752635
-0.010189801 -0.06329036 0.13212666 0.006494687 0.11098667 0.017408192 -0.0018385184 0.0011894883
-0.033539552 0.025264371 -0.037215933 -0.023727182 -0.023803169 0.07078756 0.017866766 -0.007031204
0.0013992045 0.0047462196 0.039046682 -0.0058725965 0.035566814 0.0044730175 0.027783157 0.018565813
-0.0026344566 -0.0055658473 0.20314108 0.055292446 -0.0027626075 -0.07519269 0.22564267 -0.025998442
-0.0075335843 0.0089647 0.021524947 -0.04962878 0.0072971936 0.0007525601 0.011955514 -0.0016992231
0.014918812 -0.007005979 -0.029110184 -0.012203978 0.005238557 0.007569283 0.01178046 0.024782121
-0.022590907 0.01631678 0.006138797 -0.09369217 0.03833647 0.049969815 -0.020132776 0.057894863
-0.001004114 0.04051982 -0.10407836 -0.04420335 0.027783083 0.15226915 -0.059323993 -0.0206274
-0.009454613 -0.005440399 -0.0514788 -0.006906662 0.008643166 -0.005918765 0.018191434 -0.02220158
-0.008547798 0.00020639315 0.028506974 0.026204513 0.013973061 0.038719762 0.08311072 0.0038780984

vae.mu_linear.bias f4 [2]
00000000: 107b 13bb b877 dfbc
-0.002250377 -0.027278766

vae.log_var_linear.weight f4 [2, 1024]
00000000: 333c 08be 0c58 12be 168d 52be 9b91 4abd
00000010: 5b2d efbd ca9d 19bb 87e9 ae3d d2fd 86bd
00000020: 7ffb 1ebe 5dfe eabc 1585 c93d 3048 183e
00000030: 2bd5 c5bd cd82 07bd e1dc ce3c cf52 d1bd
00000040: bca8 0dbd 1840 19be bfc2 0cbe 9bc8 03be
00000050: 4581 1cbd 63ae 8fbd 5c53 0b3e 50d1 cabd
00000060: 08dc 20bc c068 273e 7efe fa3d 7226 313e
00000070: 90be 0a3a da59 703e c627 6f3e 618a 6e3d
00000080: 53ca fc3c 2ba6 0b3d 4ccd 063c 63db 993c
00000090: a0f0 6f3d c3cd b2bb 815b 923c 4bee 933d
000000a0: 8f13 7a3d 67f2 1a3e 332c 463d 6254 6d3d
000000b0: 364d 443d a14f 4fbd ee22 913d 934e a63d
000000c0: c171 46bd c51c 13be fb4c dabd 4c7e babd
000000d0: 798b 9fbd 56e5 c5bd 5dbf ec3c e1f9 853a
000000e0: bd87 13be f43b 95bd 5d4e 2b3c f62d 943c
000000f0: 9812 85bd 0826 863c fde3 0cbd 71d2 48bb
00000100: f864 0fbd d025 08be 93d9 1cbe dd26 9dbe
00000110: 9cbc 8cbc 440e dcbd b05f 3abc 52e1 9ebd
00000120: c1ac 84bd f339 a0be b883 c7bc adba 2ebd
00000130: 95a4 66bc be42 9fbd cd15 11be 2480 e83a
00000140: 0ac1 b93d 78e3 5f3c 6982 863d 843d efbc
00000150: 4d35 98bc 3a6b 32be d02d edbc 34df f83c
00000160: e1b7 44be 79c4 343c 2cf7 46bc b366 95bd
00000170: 9d1b d13b b3b3 95bd 3930 84bd d786 0b3d
00000180: ffe3 01bd 950b 91bd b5c2 08be f98d 7cbc
00000190: a8d1 46bd 52ce e9bd 2b1b 06be c142 4bbd
000001a0: 9b8f a9bd eabd 83bd 1532 98bd 03b3 3e3d
000001b0: d9f3 4fbe 954a 2cbe 587d a6bc f838 6dbc
000001c0: 2010 b3be 66f1 e3be 300a a0be 1c6b 7dbe
000001d0: 8868 d1be 8b7b 56be da4b 26be b2a7 0bbe
000001e0: cb9f b6be 3d6d 6cbe f509 1ebe d6e7 fbbd
000001f0: d9c6 c1be 331b 72bd 55a7 9c3e fc86 cabd
00000200: 876c 5abc 223c 4ebe b76a 34be 39ae 5abe
00000210: 210a a6be daf0 19be 43f9 c93d bd93 c23d
00000220: e9e1 a6be e59c 1ebe 4f93 c63d b793 f63d
00000230: 052d 98be 2409 41bd 0819 a53d 7673 43bd
00000240: 87b7 b53c db88 c03c a849 e33d 0233 ba3d
00000250: c44e 1a3d 2548 133e cff2 f93d c253 503e
00000260: 8e0a 62ba 7300 153e 8b47 1c3e be4a 673d
00000270: 89fb 0f3d 34af f93d ec1e 0b3e 1038 313e
00000280: 41f0 92bd 8e6c 43be 8a1a 25be 8b8b 8abd
00000290: 1668 a2be 728c 5dbe 1b32 aa3c 9952 9abd
000002a0: ad96 30be 65ce 9fbc 7e34 fb3d a220 593d
000002b0: 18bc 8dbe bda2 09be b9c6 623e d235 bc3d
000002c0: 549e 77be 325d 30bc 18fb c2bd 4a98 babe
000002d0: e3ab b1bd 6f86 abbd a09f 59bd f43b d0bd
000002e0: 3c83 c5bd 030c 05be 7a64 b4bd 52ad 74bd
000002f0: f645 b5be bcf1 a3bd e2d7 eebd 7578 61be
00000300: 717f abbe eb2d 0dbe 0e2d 15be e446 d2bd
00000310: d809 87be dcd1 55bd 2b3e 9f3c 5a91 2abe
00000320: b4c2 8fbe b376 77bd 9b1c 233d 9e66 dd3b
00000330: 7a70 87be e273 193c a38f efbc 542d 05bd
00000340: 818f 14be 61a2 74bd c8f2 c5bd 758c 03be
00000350: f163 77bd 4bab 7abe 422a 83be 30f8 8fbd
00000360: 84b1 8bbd c3b6 03be 547b acbe 3da4 e3bd
00000370: b35a f6bd bb64 fabd 3982 78be f1a5 27be
00000380: a2c1 1d3e e41b 403e aa5c 863e b436 a53d
00000390: f0b5 be3e f3e4 af3d 6128 d53d 7b8c 853c
000003a0: 2268 a63e e581 333e b783 f33c 5205 503d
000003b0: cee0 833e 2fdb 633e 3e1a b43d eb33 f5bd
000003c0: 4452 5bbe 8c12 05be 32de 8bbd 151b 26be
000003d0: 87e5 c8bd 8092 a9bd f140 52bd 0d5d c7bc
000003e0: 177a cebd 3969 f4bd 0fac e3bc 333f c2bd
000003f0: b090 28be 853a 233d f576 9c3b a4e4 afbd
-0.13304214 -0.142914 -0.20561633 -0.049455266 -0.11678573 -0.0023439997 0.085406356 -0.06591381
-0.15525626 -0.028685743 0.098398365 0.14871287 -0.09659799 -0.033083726 0.025251808 -0.102208726
-0.034584746 -0.14965856 -0.13746165 -0.12869494 -0.03820922 -0.070156835 0.13606018 -0.099032044
-0.009818085 0.16348553 0.12255572 0.17299822 0.0005292678 0.23471776 0.23355016 0.058237437
0.030858194 0.034094017 0.0082276575 0.01878137 0.058579087 -0.0054566576 0.017865898 0.07223185
0.06105381 0.15131532 0.048381995 0.0579418 0.047925197 -0.05061305 0.070867404 0.081204556
-0.048448328 -0.14366443 -0.10659214 -0.091061205 -0.07790274 -0.09662883 0.028899843 0.0010221564
-0.14407249 -0.07286826 0.010455695 0.018088322 -0.06497687 0.016375557 -0.034397114 -0.003064301
-0.0350084 -0.13295674 -0.15317373 -0.30693713 -0.01717978 -0.107449085 -0.011375353 -0.0775782
-0.06478263 -0.31294212 -0.0243548 -0.042658497 -0.014077325 -0.07776402 -0.14168473 0.0017738384
0.090700224 0.013665073 0.065678425 -0.029204138 -0.018580103 -0.17423716 -0.02895251 0.030379869
-0.19210769 0.011033171 -0.012143891 -0.07294979 0.0063814656 -0.073096655 -0.0645451 0.03406414
-0.031711575 -0.07082287 -0.13355525 -0.015414708 -0.048539788 -0.114163056 -0.13096301 -0.04962421
-0.08279344 -0.064327076 -0.074314274 0.046557438 -0.20307864 -0.16825326 -0.02032344 -0.014478914
-0.3497324 -0.4452011 -0.31257772 -0.2474789 -0.40900064 -0.20945565 -0.16239873 -0.1363819
-0.35668787 -0.23088546 -0.15433486 -0.123000786 -0.3784702 -0.05910797 0.30596414 -0.098890275
-0.013331539 -0.20140126 -0.17618833 -0.21355523 -0.32429603 -0.15033284 0.09861996 0.09500835
-0.3259423 -0.15489538 0.09696066 0.12039893 -0.29721847 -0.047127858 0.08061415 -0.047717534
0.02218224 0.023502758 0.11098033 0.0909176 0.037672773 0.1438299 0.12204515 0.20344451
-0.00086227886 0.14550953 0.15261666 0.056467764 0.035151992 0.121916205 0.13586015 0.17306542
-0.07174731 -0.19084379 -0.16123405 -0.06764897 -0.31720036 -0.21635607 0.020775845 -0.075352855
-0.17244978 -0.019507596 0.122658715 0.053009637 -0.27682567 -0.13440986 0.22146119 0.09189953
-0.24181491 -0.010764407 -0.095205486 -0.36444312 -0.08675363 -0.083752505 -0.053130746 -0.10167685
-0.096441716 -0.12992863 -0.08808227 -0.059735604 -0.35404938 -0.080050915 -0.1166227 -0.22018607
-0.33495668 -0.13787048 -0.14567968 -0.102674276 -0.26374698 -0.05220209 0.019438824 -0.1665701
-0.28078234 -0.060415935 0.039822202 0.0067566177 -0.26453 0.0093660075 -0.029243296 -0.03251393
-0.14507867 -0.05972517 -0.096654475 -0.12846549 -0.060398046 -0.24479406 -0.25618178 -0.0702976
-0.06820968 -0.12862687 -0.33687842 -0.1111531 -0.12029018 -0.12226244 -0.24268426 -0.16371895
0.15405896 0.1876064 0.26242572 0.080670744 0.37248182 0.085885905 0.10408092 0.016302338
0.32501322 0.1753002 0.029725892 0.050786324 0.2575745 0.2225158 0.08794068 -0.11972793
-0.214181 -0.12995356 -0.0682949 -0.16221268 -0.09809404 -0.08279896 -0.051331464 -0.024336362
-0.100818805 -0.11934132 -0.027792005 -0.094847105 -0.16461444 0.03985073 0.004774923 -0.085885316

vae.log_var_linear.bias f4 [2]
00000000: 301b 16be 8b1c a4bd
-0.14658809 -0.08013257

vae.decoder_linear.weight f4 [1024, 2]
00000000: a221 ac3d 7bd4 223d ccf0 f33e 16ca cc3d
00000010: 5966 353f 6296 263e 3b9b 2cbf 55aa f53e
00000020: 46e5 27bf c47d af3d 547b d0be be19 cebe
00000030: 8749 3ebe 8846 d63e 1668 07bf 767b 22bf
00000040: 2bb0 b0be b040 5d3e 005a e83d 288a 373e
00000050: 961e f5bd b442 86be 30b4 e3bd b165 f93e
00000060: e2b9 29bf c3ae 2a3d 3c65 2fbe 9252 aabe
00000070: c03f 283e 50e5 28bf 3cd3 f2be 3d73 9f3e
00000080: 0e4e c8be 5a39 5e3e 611f 633e c857 78be
00000090: 51e2 10bd ec7d e43e 72ad 453f 75a3 13bf
000000a0: d1e3 733e aa0c dbbe fafe 373f e1de d9be
000000b0: 998f 9dbe 7403 14bf c3d1 5c3e 1ed0 14be
000000c0: 8424 c6be e82e bf3e 65fc 223f d9ca 06bf
000000d0: 111d cebe 0480 1bbf 3592 30be 3c9f fdbe
000000e0: 70ae c2bd d241 f73c e820 4a3e 6ede d5be
000000f0: eb23 103f 87e4 2ebf 14ec 07bf b517 91bd
00000100: 65d2 303f 32b4 81bd e376 e83e 8e09 b1bd
00000110: b9e5 cdbe 8ffa 9bbd 8f39 e6be 846b 17bf
00000120: 3cd6 28bf 164f 323f 3b46 ce3e b585 2cbe
00000130: 3a1d 013f d1a6 a1be c571 193f 5523 483e
00000140: 0e4b 1abf a601 df3c 4a27 c73e 0705 e4be
00000150: 11a2 993e 6e08 db3b 92c3 1e3f a8c3 0b3e
00000160: f76e 62bf 408d 943e d57f fdbe a4b8 32bf
00000170: 98df de3d 2fb0 243f df4a 00be 6f4f 963e
00000180: 26a0 133f dc6b 01be d94a 20be 6f77 f5be
00000190: 65e8 31bf 0da6 06bf 613e 33be 44b2 04be
000001a0: f88d f13c 81c8 9b3e 7597 df3e 92e3 25bc
000001b0: 4394 c9bc 1a71 b53d 3f6f 37bf b08c 8abe
000001c0: 9703 eb3e f26b 76be 7e4b 2e3f 605a c03e
000001d0: 7490 ee3e 9d0f c9be bdba 78bd 6253 c33d
000001e0: 6349 febe 4a5d f33e 6b3b 3abf 940c 08bf
000001f0: 93c3 993d ebc3 2fbe 9e67 22bf ad24 063f
00000200: 6e6b cf3e 5d05 a13e f030 af3e fb78 2a3e
00000210: 5e2f 703e ff71 383e 91b8 ecbe 257b 3d3c
00000220: 3d4e 823e 9634 333d 1a54 323e eeec 3bbf
00000230: 870c c13d 553c 01bf 78ab 103f 543d 603c
00000240: 11f2 1ebf 1bef 6abe e4c8 11bf 2e37 13bf
00000250: e01d ef3d 50c4 6c3c 0844 d2bd bc67 033e
00000260: 2060 cd3e caf2 063e 770b ffbe 5a19 2c3f
00000270: fc81 583e 8907 203f c675 4e3f 170a 47be
00000280: b074 a43d 3072 2d3e c00c 783e aea2 343f
00000290: 30eb f2be 241e f4be 7f5c 683d 6c21 e83d
000002a0: e92c 353e 39dd b6bd abce a63e c8b4 b03e
000002b0: 287f 4c3e 199e 8bbe 500b d83e 0e73 13bf
000002c0: 5170 27bf 2143 f03e 3dcd 9dbe a4a1 b03e
000002d0: 28af 1e3f 0e55 f2be 74ad 9a3e a9f5 083f
000002e0: 9835 f8bb cd46 38be 7a9f 1fbf 5634 f23d
000002f0: de5f a43e edb3 a73d cbd3 323f 3e6b 0ebe
00000300: c323 1f3e 4e68 893e 38c3 2dbf c379 1c3f
00000310: c757 11bf 80c0 013f b799 0abf 3bff e13e
00000320: 4594 813c c410 adbe 38f6 b1be f21c d6be
00000330: 696d 2bbf 58b2 2d3f 18fc cf3e 78dc 09be
00000340: 03ec ca3e 47a8 c43c e57e 833e a852 263f
00000350: f930 a43b e665 04bf 8403 3abe b6d2 ca3e
00000360: e36f e6ba a6e6 a23d 258b 143f c8aa 0cbf
00000370: e8f0 bb3e e0cf 0dbf 8bd6 2dbf 3908 bebe
00000380: 654e df3d 3cde ebbe 214a ec3e fa28 83be
00000390: 2c00 b83a c74f 09be 2d73 a5bd 3b38 55bd
000003a0: fe69 81be b816 0cbf e82d 53be 267c 72bd
000003b0: 8599 0c3e 20fa 123e 11b1 2dbe d600 983d
000003c0: 3c29 a93e 611a 993e a75a 1abf 1e8c 0fbf
000003d0: 3aaa fcbe 1d5b 463e 3761 0b3e f861 ad3e
000003e0: 9710 1dbe f27d bdbc 0cd4 10bf 07a9 99be
000003f0: 46c1 f23e 646f d13d 2f2b 223f 7e3b 353f
0.084048524 0.03975342 0.4764465 0.09999482 0.70859295 0.16268304 -0.6742436 0.47981516
-0.6558422 0.0856891 -0.40719092 -0.40254015 -0.18582736 0.41850686 -0.528932 -0.63469636
-0.34509405 0.21606708 0.11345291 0.17923796 -0.119687244 -0.26222765 -0.111183524 0.48710397
-0.6629926 0.041670572 -0.17128462 -0.3326612 0.16430569 -0.65974903 -0.47426784 0.31142607
-0.3912205 0.21701565 0.22179939 -0.24252236 -0.035372082 0.4462732 0.7721778 -0.5767129
0.23817374 -0.427831 0.7187344 -0.42552856 -0.3077362 -0.5781777 0.21564393 -0.14532515
-0.38699734 0.37340474 0.63666373 -0.5265327 -0.4025655 -0.6074221 -0.17243274 -0.4953555
-0.095059276 0.030182753 0.19739115 -0.41771263 0.56304806 -0.68317455 -0.530946 -0.070846
0.69071037 -0.06333198 0.45403203 -0.086444005 -0.40214327 -0.0761615 -0.4496579 -0.5914843
-0.65951896 0.69651926 0.40287957 -0.1684788 0.5043522 -0.31572583 0.59939224 0.19544728
-0.60270774 0.027222466 0.38897163 -0.44535086 0.3000646 0.0066843545 0.62017167 0.13648856
-0.8845057 0.29014015 -0.4951159 -0.6981299 0.10882491 0.64331335 -0.12528561 0.29357478
0.5766624 -0.12638801 -0.15653552 -0.47942683 -0.6949523 -0.52597123 -0.17504264 -0.12958628
0.029486641 0.3042641 0.4367024 -0.010125058 -0.02460683 0.08859463 -0.71654123 -0.2706046
0.45901176 -0.24064615 0.6808394 0.3756895 0.46594584 -0.39269724 -0.060724963 0.095373884
-0.49665365 0.4753211 -0.72746915 -0.5314419 0.07508006 -0.1716458 -0.6343936 0.5239971
0.4051165 0.31449404 0.34217024 0.16647713 0.23455569 0.18012236 -0.46234563 0.0115650045
0.25450316 0.04375132 0.17414895 -0.734084 0.094262175 -0.50482684 0.5651164 0.013686497
-0.62088114 -0.22942774 -0.5694716 -0.5750607 0.1167562 0.014451101 -0.10266882 0.1283254
0.401124 0.13178554 -0.49813434 0.67226183 0.21143335 0.625115 0.8064846 -0.19437443
0.08030069 0.1693809 0.24223614 0.7056073 -0.4744506 -0.47679245 0.056728836 0.113345
0.17692913 -0.089289136 0.3257955 0.34512925 0.19970381 -0.27269056 0.4219613 -0.57597435
-0.65405756 0.46926215 -0.30820647 0.34498322 0.6198602 -0.47330517 0.3021046 0.5349985
-0.0075747482 -0.17995758 -0.62352717 0.118263885 0.3210439 0.08188615 0.6985442 -0.13908097
0.15540986 0.2683739 -0.67876005 0.61123294 -0.5677456 0.50684357 -0.541408 0.44140038
0.01581777 -0.33801854 -0.34758162 -0.4181896 -0.6696382 0.67850256 0.4062202 -0.13463008
0.39633188 0.024006022 0.2568275 0.64969873 0.005010721 -0.51717985 -0.18165404 0.39613885
-0.0017580952 0.07954149 0.5802482 -0.5494809 0.36707234 -0.5539532 -0.6790549 -0.37115648
0.109036244 -0.4606799 0.46150306 -0.256172 0.0014038137 -0.13409339 -0.08078609 -0.05205558
-0.25276178 -0.54722166 -0.2062298 -0.05920043 0.13730438 0.14353228 -0.16962077 0.074220344
0.33039272 0.29902938 -0.60294574 -0.56073177 -0.49348623 0.19370694 0.13611303 0.33863807
-0.1533836 -0.023131344 -0.5657356 -0.3001177 0.4741308 0.10226324 0.6334714 0.707939

vae.decoder_linear.bias f4 [1024]
00000000: fd8c a5bd 6038 683e 0b2c aa3e 196d c7be
00000010: d69a e23e c479 343f c7f7 863d fa0e 22bf
00000020: 2073 d9be d97c 3c3e 8aa0 ab3c 3c28 823e
00000030: cbbe 3bbd 6b7f a4be 8d76 ad3c bacd 0d3e
00000040: e233 7abd d148 273e 2f6b 0a3f 5223 87be
00000050: cd4a 043e fef7 0ebf fc3f 04bf 093f 1bbf
00000060: 9295 2bbf 596d 9c3d daae 063f 655a dabe
00000070: 3828 c03e 5bbf 9bbd d544 0abf ab17 323e
00000080: 70d5 b13e 8c00 923e 48e3 903d 8865 6b3d
00000090: 903b 26bf 9969 cd3e 86cb ed3e 4c44 52be
000000a0: 89de 01be 05b1 c7be 13be eabd 0c76 44be
000000b0: 7d79 1fbe d346 e0be 6054 123e bbe0 ac3d
000000c0: a8c9 5dbe ee63 82be 8f2a 36be cf60 103f
000000d0: 0fbc 063e 704b 063e 0a83 c03e 6d1d 0cbd
000000e0: 2da2 013e 9f98 a4be 08ba e2be 4f65 64be
000000f0: 07ce 033f 32c6 11bf 409e a2be 3f84 dbbe
00000100: 75bf 17bf 54ce efbd 8fd6 8a3d 0140 24bf
00000110: b04b d73e e23b 25bf 3b61 1bbf 35fa 90be
00000120: 2770 6a3d bb37 afbe e56a 2ebe 202b bd3d
00000130: a2df 5bbe bd92 043d 6eb5 1fbf e0bd 26be
00000140: 8c54 57be d75f 1cbf 34a1 2bbe 190e 00bf
00000150: a348 cf3e bac1 593e c0d2 c43e 2cdf d6bd
00000160: 4d9c bfbc abfb 153f bd3b 2abf 621a ca3d
00000170: 8f05 383f ddd3 eb3e 0e73 853e c0fc 3f3f
00000180: 8a5e 41be bd63 83be 405e a93e d515 bcbe
00000190: 8f33 acbd 7092 fc3e e17c 293f c5a2 94be
000001a0: 69d4 1dbf 0e02 2a3e 17db 253f f67e 0c3f
000001b0: 1768 04bf f616 833e 1741 2a3f 6f13 573e
000001c0: f964 133f c874 a1bb 28ce 9d3e 0e3b 1d3f
000001d0: e4bf b73e 9f82 823e fb8c 183d db56 9a3e
000001e0: abc6 74bb ecdf 023f 5ce4 fcbd 1c83 c7be
000001f0: f4bd d6bd 9b77 413e 93ab 163f c0d9 8c3e
00000200: 7883 703d dc0d a6be 3b70 043f c959 83be
00000210: 3596 f8be 2028 30bd fcc7 13bf 9483 10be
00000220: 5c5a 1abc a08d 8dbe b9bf d3bd df65 3dbf
00000230: 2cb7 1cbf 2155 8dba 9e9b cfbe 1c00 cbbe
00000240: 5dbd 273f f33a d83e f5b6 2bbe 53da 723e
00000250: 97d0 a43e 70b5 81be 3151 3d3d 04a9 673d
00000260: 7668 0fbf 0290 e13d 05d3 8cbd cea1 d4be
00000270: 9576 923c 8074 f43d af84 bd3e 5ac9 fcbe
00000280: fe06 c33d 162f 7dbe d982 ccbe 8513 b1be
00000290: 8613 b2bd d4b2 1d3f 676e 05be 3322 863d
000002a0: 8098 613e 5b9c 823e 8658 e73d 7c78 773e
000002b0: 0161 333f bbfd 0e3f c6c4 ca3e f5e4 a93c
000002c0: c7f8 3e3e b81e 05bf e544 883e 8470 e33c
000002d0: e255 13bf c67a 123f eedb 24be 9ec7 3dbd
000002e0: a20c f43e ccae 0dbf 69e7 e7be 153c 6e3e
000002f0: 1f53 a93e adba bd3d eea1 4cbe 943c be3e
00000300: 1191 13bf 2989 323f 1807 f83e 68b8 d33e
00000310: e554 92be 9fd8 1dbd 3e64 b73e 0919 f1bd
00000320: 353d e4be 3294 4d3e ffbb 5dbe bd1d 903e
00000330: 8503 e4be 5e41 55be 11a7 813e a369 963d
00000340: 6a15 183f dda3 4fbe bc9f df3e 186b 353f
00000350: fd99 17bb c142 033f a967 e5bd 485a d2bd
00000360: 741f 263f ba44 13bf 6e14 d8be 9ff1 cc3d
00000370: a503 dfbe 77bd aa3e 9968 1ebf 3635 17bc
00000380: 3440 243f f9c7 a4be a975 d9be 49ca 4ebd
00000390: 4e24 bfbe d27d 023f e91e a8be a5de 0bbf
000003a0: 6bd6 bc3c 0aa2 123e 4421 cbbd 5311 093f
000003b0: 2a79 f3bd ab27 ea3e 4a2c ecbe 3b12 f03e
000003c0: 0ab8 f03d 2344 c13e fb03 8a3e dc68 153f
000003d0: e86e 2b3e 3940 ac3e 415f d33d 4fe1 38bd
000003e0: 6509 d0be 9487 0cbe 71c0 0a3f eb0d 99bd
000003f0: b773 1cbf aabd c9be a5f8 f23e ccb9 12be
-0.08083532 0.22677755 0.33236727 -0.38950422 0.44258755 0.704983 0.065902285 -0.633041
-0.42470646 0.18407 0.020950574 0.2542132 -0.04583625 -0.32128462 0.021174693 0.1384801
-0.061084636 0.16336371 0.540698 -0.26394135 0.12919159 -0.55847156 -0.5166013 -0.6064306
-0.670251 0.07638044 0.5261055 -0.4264709 0.37530684 -0.076048575 -0.5401128 0.17391841
0.34733152 0.28516042 0.070746005 0.057469875 -0.64934635 0.40119627 0.4644434 -0.20533866
-0.12682547 -0.39002243 -0.11462035 -0.19185656 -0.15573688 -0.43804035 0.14289999 0.084413014
-0.21658957 -0.25466865 -0.17789672 0.5639772 0.13157676 0.13114715 0.37599975 -0.03420775
0.12659521 -0.3214769 -0.44282556 -0.22304271 0.5148625 -0.5694305 -0.3176136 -0.42874333
-0.59276515 -0.11709276 0.06779205 -0.6416016 0.42049932 -0.645445 -0.60695237 -0.28315893
0.057235863 -0.34222206 -0.17032965 0.09236741 -0.21472028 0.032366503 -0.62386215 -0.16283369
-0.21028346 -0.6108374 -0.16760713 -0.5002151 0.40485105 0.21265307 0.3844204 -0.104917854
-0.02338996 0.5858714 -0.66497403 0.09868313 0.7188348 0.46060076 0.26064342 0.7499504
-0.1888372 -0.25662032 0.3307972 -0.36735407 -0.084082715 0.49330473 0.66206175 -0.29030433
-0.6165224 0.16602346 0.6478743 0.54881227 -0.5172133 0.25603455 0.6650557 0.21003507
0.5757595 -0.0049272515 0.30821347 0.61418235 0.35888588 0.2549028 0.037243824 0.3014439
-0.003734986 0.5112293 -0.123482436 -0.38967216 -0.104854494 0.18893282 0.5885555 0.2750988
0.05871913 -0.3243245 0.5173375 -0.25654438 -0.485521 -0.043007016 -0.57727027 -0.14112693
-0.009420957 -0.27647114 -0.103393026 -0.7398357 -0.61217 -0.0010782817 -0.40548414 -0.3964852
0.6552332 0.42232475 -0.16769011 0.23716097 0.3219039 -0.25333738 0.04622001 0.05655767
-0.5601877 0.110137954 -0.06876186 -0.41529697 0.01787881 0.11936283 0.37015292 -0.4937237
0.09522818 -0.24724993 -0.3994358 -0.34585205 -0.0869513 0.61600995 -0.13030396 0.06549492
0.2203083 0.25509915 0.112961814 0.24167055 0.7006989 0.5585591 0.3960325 0.020739058
0.18649589 -0.52 0.26615062 0.027763613 -0.5755292 0.5721859 -0.16099522 -0.046332948
0.47665888 -0.55344844 -0.4529374 0.23265107 0.3307123 0.09264121 -0.19983646 0.37155592
-0.5764323 0.6974054 0.48442912 0.41351628 -0.28580394 -0.038536664 0.35818666 -0.11772353
-0.44577947 0.20076063 -0.21653746 0.28147689 -0.44533935 -0.20825717 0.25322774 0.07344367
0.59407675 -0.20277353 0.43676555 0.7086654 -0.0023132556 0.51273733 -0.11201412 -0.10271126
0.64891744 -0.57526743 -0.42203087 0.10007023 -0.43557468 0.33347675 -0.61878353 -0.009228995
0.64160466 -0.32183817 -0.4247258 -0.050485883 -0.37332386 0.50973237 -0.32836083 -0.54636604
0.023051461 0.14319625 -0.09918454 0.5354206 -0.118883446 0.4573339 -0.4612754 0.4688891
0.11753853 0.37747297 0.26956162 0.5836313 0.16741526 0.33642748 0.103209026 -0.045136746
-0.40632167 -0.13723594 0.5419989 -0.07473358 -0.61114067 -0.39402515 0.47455326 -0.14328688
