checkpoints/vae-mnist-conv-latent-dim-20.ckpt (torch, 694052 bytes, 37 tensors)

vae.enc_convs.0.weight f4 [28, 1, 3, 3]
00000000: 5494 4ebd d818 00be f187 413c f461 983d
00000010: 5d0e 8fbe 4132 e1bd c0c7 afbe b43f 9a3d
00000020: 6d84 8a3e 2cb7 b3bc a301 5b3e 1578 253d
00000030: 8724 ab3e 93c4 1a3d 6d03 8f3e dee7 90be
00000040: e47a 963c 7d3c 823e 7eb2 373e c7d3 74bd
00000050: 4442 7ebe 25f6 f23b 4f34 2ebe 2b9e 28bd
00000060: a405 5dbe f049 7cbe dd27 ea3d 9adc b33e
00000070: a822 b73d 105f 263e 8f0c 913d 348f 7abe
00000080: 2a03 bebe 67d3 1c3e 215a 86be 1e70 633e
00000090: b7d7 51be c287 e63d fe25 313e 879f a9be
000000a0: 592a 63be b0ea a43e a38c 0d3e ec63 c4bc
000000b0: f8b4 52be e764 843e fb4f 1e3e a868 b7be
000000c0: d51c 913e e79f b5be f7c4 c33d 31a2 b2be
000000d0: 8426 5fbc 9018 97be b357 49be 2857 ad3e
000000e0: 77a1 b53d 5822 493d a47f 31be e92e a4be
000000f0: d83a 9fbe 8207 e03b 19f1 603d 4285 a4bc
00000100: 6e09 44be 1395 78be 9fb7 09be 5364 49bd
00000110: d0ea 0abe 19fa 8cbe 4867 a23e 4337 b8bd
00000120: 0403 3cbe 33be c6be 4104 d23d 7fc4 2dbc
00000130: eb19 b3bd 4c58 5e3e 94ca 54be 04e2 48be
00000140: 1c54 29be 95ba 3abd 70e5 273e a337 dd3d
00000150: 260b 393e edae 883e 434d b0bd ac1d 823d
00000160: 7471 163d 385b 683d 9b39 5b3e 825b f23d
00000170: de31 c33e d900 4c3e f327 8bbe 555b 5dbe
00000180: f31a a0be ffad a7be f043 8abe 3c4a 50be
00000190: cb8b d2bd 50f1 7fbe d891 8fbe 2191 813c
000001a0: 5b2a cebe c117 a03e 75e7 e7bd da11 9bbe
000001b0: 75f3 a7be 219a 8abe 2490 3c3d 27cb 903e
000001c0: 7088 33bd 88e5 22be 543f 4a3d e57b 933e
000001d0: 2e27 ff3d c17d c9be d7e8 a23e 9ffe 7b3a
000001e0: 49ed b3bc 2d21 28be 1a73 a23e 4824 12bd
000001f0: f682 f5bb 29e8 3abd 760d 533e 3627 8cbe
00000200: 499c 653e a0ac a63d af45 92bd 4916 433e
00000210: cea6 9d3e f69d d0bc 96b1 7bbe 69c1 bdbe
00000220: 17e8 d13d 6065 de3b ac69 06bd 4280 963e
00000230: 7c28 d8bd 0b32 6e3e ca4a 063e 3609 c6be
00000240: 425e 23be 40de 823e 80ba 943e 729b 303e
00000250: 43bc fa3d 5166 46be 7f27 babc 5d2e 80be
00000260: b0ec 58be 3d7a 2bbe eec3 7e3e 8f4a 20be
00000270: ccbb fc3d c982 833d f33f 26be c800 883e
00000280: 9a58 dfbd e874 11be 206c 473e e874 f53d
00000290: 3d24 8cbe 8553 923e a21b c63e 5950 6f3e
000002a0: 1c5f 39be e5c2 263e 90fd 953e 282b 1c3e
000002b0: 270f a2bd f2bd b9bd fbe9 c6bd ea83 df3d
000002c0: 89b7 6dbd 3de2 893a b4b7 13be 5538 97bd
000002d0: b264 95be 4e7f e4bb babb 0dbe f907 153e
000002e0: 14c6 16be 0f6a 7abd feeb 0c3c c017 b8be
000002f0: d07a 83be 6187 f43d 087e 943d 6336 853d
00000300: 043f 183e b487 d03e caaf 613e 67c7 873e
00000310: 8da1 7fbd 6e4c 9dbd 576e a3be 6171 94be
00000320: ea7f 6abe cea7 7dbe 1805 9c3e ff30 273e
00000330: 3eee 063e 14b7 123e 47e5 3dbe 51c4 d1bc
00000340: 0d3d ef3d e77b 9fbe 4155 27be 14d4 763e
00000350: 1726 ae3d 37d1 373e 85e5 b23e 323c 7c3c
00000360: d4c1 193e 5bca f43d 3ac3 69be cc04 a23e
00000370: 4a86 243e 501e a3be 3d69 fe3c 1142 b7be
00000380: 62ed b7be c603 d1bd fcab 463d fc93 643e
00000390: e2f4 36be 3545 b83e 97d2 a53d f0d8 86bb
000003a0: ba5b 813d 5bfb a33d 118f 92bd ab77 86be
000003b0: d9ac 093b b278 afbe efd8 79be ce1a 9c3e
000003c0: c503 543e ec1c e73d 235a 663e 84cf 8a3e
000003d0: 3c47 8c3e 5291 74be 4977 663d 33fd 2dbe
000003e0: 1b5d d03e f312 cabe 9087 bfbd 37ab 11be
-0.050434425 -0.12509477 0.011812196 0.07440558 -0.27940646 -0.10995913 -0.34332085 0.07531682
0.27054158 -0.02193793 0.21387343 0.040397722 0.33426306 0.037785124 0.279323 -0.283019
0.018369146 0.25436774 0.17939183 -0.05977228 -0.24829966 0.0074145966 -0.17012142 -0.041166466
-0.21584183 -0.2463758 0.114333846 0.35129243 0.08942157 0.16247201 0.070824735 -0.2446869
-0.3711179 0.15315019 -0.26240638 0.22210738 -0.20492445 0.112563625 0.17299649 -0.33129522
-0.22184123 0.32210302 0.1382318 -0.023973428 -0.20576847 0.25858232 0.15460198 -0.35822034
0.2834231 -0.35473558 0.095590524 -0.34889367 -0.013620023 -0.29510927 -0.19662361 0.33855557
0.088686876 0.04910502 -0.17333847 -0.3206704 -0.31099582 0.0068368325 0.05491743 -0.020083074
-0.19144222 -0.24275617 -0.13448952 -0.049167942 -0.13566136 -0.2753456 0.31719422 -0.08994915
-0.18360525 -0.38816985 0.102547176 -0.01060593 -0.08745178 0.2171337 -0.20780402 -0.19617468
-0.16535991 -0.045588095 0.16396117 0.108016275 0.18070659 0.26695958 -0.086084865 0.06353316
0.03672929 0.056727618 0.21408693 0.1183386 0.38123983 0.19922198 -0.27178916 -0.21616872
-0.3127056 -0.32749936 -0.27004957 -0.20340818 -0.1028057 -0.24994397 -0.28040957 0.015816273
-0.4026669 0.31268123 -0.11323444 -0.30287057 -0.3280293 -0.27070716 0.0460359 0.28279993
-0.04383129 -0.15907872 0.0493768 0.28805462 0.12458645 -0.39353755 0.31818268 0.00096128316
-0.021963732 -0.16418906 0.3172844 -0.03567913 -0.0074924184 -0.04563156 0.20610604 -0.27373666
0.224229 0.08138394 -0.07142197 0.1905147 0.30791324 -0.025465947 -0.24579462 -0.37061623
0.10249346 0.006786987 -0.03281562 0.29394728 -0.10554597 0.23261277 0.13114467 -0.38678902
-0.15953925 0.25560188 0.29048538 0.17246798 0.12242939 -0.19374968 -0.022723911 -0.25035372
-0.21184039 -0.16745849 0.24879429 -0.15653442 0.12340507 0.0642143 -0.16235332 0.26563096
-0.10905571 -0.14204752 0.1947484 0.11985189 -0.27371398 0.28579345 0.38692957 0.23370494
-0.18102688 0.16285284 0.29295015 0.15250838 -0.07913046 -0.09069432 -0.09712597 0.109138325
-0.05803636 0.0010519695 -0.14425546 -0.07383791 -0.29178387 -0.0069731837 -0.13841143 0.14553823
-0.14723998 -0.0611363 0.008601187 -0.3595562 -0.25679636 0.11939884 0.07250601 0.06504514
0.14867789 0.40728533 0.22039714 0.2651932 -0.062409926 -0.076805934 -0.3192012 -0.2899275
-0.22900358 -0.24771044 0.30472636 0.16327284 0.1317682 0.14327651 -0.18544494 -0.025606306
0.116815664 -0.31149217 -0.16341116 0.24104339 0.08503359 0.17950903 0.34940735 0.015395211
0.15015346 0.11952659 -0.2282838 0.31644285 0.16066852 -0.31859064 0.03105604 -0.35792592
-0.35923296 -0.10205798 0.04850386 0.22322077 -0.17866853 0.359903 0.080968075 -0.0041152164
0.063163236 0.080069266 -0.07156194 -0.26263174 0.0021007566 -0.3427177 -0.2439916 0.304892
0.20704563 0.11284813 0.22495322 0.27111447 0.27398098 -0.2388356 0.056266103 -0.16991119
0.40696034 -0.39467582 -0.09352028 -0.1422547

vae.enc_convs.0.bias f4 [28]
00000000: ff34 2dbd 6d02 bb3e 8bd3 c23e 0dd1 fc3d
00000010: d639 433d b56d ac3e 6a33 83be af67 893c
00000020: 34a8 35be b1f5 483e c86a 3c3e 8105 9c3d
00000030: 7bf0 183e 0ad5 983e a90f e73d ff72 a1bc
00000040: faae 6abe ca44 89be cb06 2dbe 76e6 5abe
00000050: a317 5f3d f13a 6abe f4a0 2fbe 8948 193e
00000060: fbcc 9b3e f66a b9bd 5388 993e 4832 97be
-0.04228687 0.36525288 0.3805202 0.12344561 0.04766258 0.3367745 -0.25625163 0.016773073
-0.17739946 0.19624974 0.18400109 0.07618237 0.14935486 0.29850036 0.11282284 -0.019708155
-0.22918311 -0.26810294 -0.16897123 -0.21376976 0.0544659 -0.22874047 -0.17151242 0.14969076
0.30429825 -0.09053604 0.2998682 -0.2953055

vae.enc_convs.1.weight f4 [28]
00000000: 3eaf a33f 7590 733f c01e a33f b67a 4c3f
00000010: 3b62 8a3f 1951 8a3f df81 9f3f 8bcc a43f
00000020: e21a b43f 14c3 6b3f 8334 873f 1848 a23f
00000030: 99bb 893f 2e93 753f 8c44 503f c10e 723f
00000040: c981 503f 1ec1 613f 8390 6f3f 0773 803f
00000050: edf7 963f f37f 623f 44c4 9c3f ea2c 5c3f
00000060: f204 7f3f abc5 693f 1669 8b3f e02c 823f
1.2787855 0.951423 1.2743759 0.7987474 1.0811228 1.0805999 1.2461509 1.2874922
1.4070704 0.9209454 1.05629 1.2678251 1.0760375 0.95927703 0.81354594 0.9455376
0.81448036 0.881853 0.9357988 1.0035104 1.1794411 0.88476485 1.2247396 0.86006033
0.9961692 0.9131724 1.0891445 1.0169945

vae.enc_convs.1.bias f4 [28]
00000000: 2eec c33d 1cc2 babd 4adc a73e c77b 583e
00000010: eabe 903d d7c5 bdbc e44b 7cbd de51 3f3e
00000020: 8081 cc3d 2cd1 dabd acf7 e43d 3316 c23e
00000030: d3d2 12bc b096 fb3c 4b7e ffbd f120 5dbe
00000040: a6bc b73b a32e 13bd c312 7fbd 0e34 debc
00000050: 3903 8d3e 62a4 c5bc 19ec 733d 611e 15be
00000060: 82cf 643d 0efc dfbd e4f4 3b3e d931 9b3d
0.09566532 -0.09119055 0.32785255 0.21140967 0.07067664 -0.023165626 -0.061595812 0.18683574
0.09985638 -0.106844276 0.11180052 0.37907562 -0.008961397 0.030711502 -0.1247526 -0.21594597
0.0056072054 -0.035933148 -0.062273752 -0.027124431 0.2754152 -0.024126235 0.059551332 -0.1456237
0.055861957 -0.109367475 0.18355137 0.07577867

vae.enc_convs.1.running_mean f4 [28]
00000000: 6e53 d1bd 1345 f53e 5814 963e fad2 163e
00000010: 4240 7f3c 71e5 853e e57d a2be e5e5 bbbd
00000020: 8881 96be fb35 973e ff94 f83d 960d c4bd
00000030: 2823 143e b883 973e 514a 283e 4226 15bd
00000040: fd7f 6ebe 6857 8bbe 1063 29bc 01e0 80be
00000050: d68e b4bd 636c 9ebd befb 73be 4d53 5d3e
00000060: a0c9 753e 682f 74bc 2f29 963e 5366 9bbe
-0.10220991 0.47904262 0.29312396 0.14728919 0.015579285 0.26151612 -0.31736675 -0.09174708
-0.293957 0.2953337 0.12137794 -0.09572904 0.14466536 0.2959268 0.164346 -0.03641344
-0.23291011 -0.27215123 -0.01033856 -0.251709 -0.08816306 -0.07735517 -0.23826501 0.21613808
0.24002695 -0.014903881 0.29328296 -0.30351505

vae.enc_convs.1.running_var f4 [28]
00000000: 21c5 b73c 5c84 5c3d 65a4 183d 433e 433c
00000010: 3f4f 393c 8ed4 1e3d 2242 923c 4da5 373d
00000020: 4c3e 663d f206 213d 8e89 503d 17db ef3d
00000030: 5550 503c 619e e23b da3d 543c 9481 e83b
00000040: b38c 4e3c b272 e53b b1ac d13d 235c e43b
00000050: 77e4 9d3d b5a1 c13d 5d2b dc3c e40c d13c
00000060: b8dd 4d3d 37c4 f63c 6972 b53c 5467 453c
0.022432866 0.053837165 0.037266154 0.0119167 0.011310398 0.038776927 0.0178538 0.044835377
0.056211755 0.039313264 0.050912432 0.1171171 0.012714465 0.006915853 0.0129542 0.007095525
0.0126067875 0.007002198 0.102380164 0.0069689914 0.07709592 0.09454671 0.026876146 0.025518842
0.050260276 0.03012286 0.022149282 0.012048561

vae.enc_convs.3.weight f4 [64, 28, 3, 3]
00000000: 5802 3fbc e0c1 97bd 7d14 63bd 28d1 1fbd
00000010: 876a 313d 3c3c aebc 77b8 1bbe 1d2f a0bd
00000020: b5d5 6fbd e468 e83c 5184 63bc 7e85 a3bd
00000030: ff12 c2bc c145 933b fbbf efbd 5ef6 383a
00000040: b73b e83c a273 a7bd 3918 d93c cc99 fb3c
00000050: 5bc4 5c3d 38c0 cd3c 4559 a0bc 98c2 56bc
00000060: 1de6 87be 1f82 82be c879 8cbd 4067 8bbd
00000070: dea3 533c fcf7 1c3d 3d37 463d 0aa4 053d
00000080: f073 b33c 3905 e23c 7dda 0f3d 4a14 523d
00000090: f99a ae3d 3c05 aabc f68f d93d 9259 d03c
000000a0: bcdf 84bd 6f6c f13d 37f8 47bd a110 61bc
000000b0: 7cb7 18bc 6980 0e3d 44a8 1ebd 653f 013c
000000c0: 6968 8d3c 3b68 703d 8804 ca3c d2ee 92bd
000000d0: 57c7 dcbd 7037 293d deb3 afbd 02fd bcbc
000000e0: 82f7 b73d cd3f 23be 3766 b43c c60b 21bd
000000f0: 3839 31be 4e34 c0bd b97e 8dbd e15f 363d
00000100: 686d 4d3d fefc e73d 999c e3bc 7f34 403c
00000110: 23a0 b73d acc1 c1bd 7813 62bd ceb4 10bc
00000120: 77de 853d 16da 9e3d c05e f13d 4436 0cbc
00000130: 7ca1 a839 6053 52bc 02cf 44be afe9 04be
00000140: 41a7 cabd 97f2 413d f964 cb39 9779 c8bd
00000150: 0d26 72bd 3686 30bb ab26 05be 0c56 a83d
00000160: bc42 803d 02d6 a1bd 0f6c 383c eda0 6a3d
00000170: 78a0 ed3b 3a6d 84bc 2b92 1ebd 3433 ebbc
00000180: ca9a 10bd 597e 463c 60a5 bb3c c3c5 473d
00000190: d77a 613d 3d0e 093e 0b30 273d e9dc 92bb
000001a0: b63e c73d 8ffc cdbc 5508 10bd 7a0a 6dbd
000001b0: 04ca 19bc 703d 3fbb 76ce 39be 291a 803d
000001c0: 0a39 9c3d 9ece c1ba ff50 293e 37d7 0a3e
000001d0: 405d 773d 50e8 1d3c 4595 99bd 9284 bfb9
000001e0: 2ad0 5cbd 3044 dbbd ef78 d13c 470d 663d
000001f0: a11f eebd 269f 96bc 6d33 d93c d984 933d
00000200: b2a8 08bd 239e f6bd eacb 003d 478d d6bc
00000210: 1f04 313c 2a86 e53d 8b2b 903d 19a6 963d
00000220: 82d7 303c bead 6abc 8d0a fa3c 6af4 96bc
00000230: f200 4cbd 1c17 2e3d 2719 643c 227e 283c
00000240: 1ecb 143d b011 843c 2a87 6ebd ff1d 81bc
00000250: 18cb 9d39 0987 c0bd f1b2 e63c e591 ab3d
00000260: fa5d b1bc fdbb c4bc 4c77 863d 4f15 4d3d
00000270: af18 9a3c c32d 663a 2350 743d 4986 313d
00000280: a5b7 923d 2751 623b b63e f03c 3297 1dbd
00000290: 6227 d1bd d6dc cebc 6ef5 febc df82 49bd
000002a0: 511b cbbc ff7e b13d 762f eabb 41db ab3d
000002b0: 48c2 1c3d 13bb 2e3d c01e 15bd e47f c13d
000002c0: a1e0 173c 4cd8 0fbe 3834 9fbd 3d35 7dbd
000002d0: 1ad7 223d 7e48 1c3d 3918 0e3e 50ba 09bd
000002e0: 306f 8abc 5a47 cf3d f18f 12be a1ab 42be
000002f0: 2899 95bd 4491 3cbd 6b56 883d d346 9fbd
00000300: 6985 7bbc 625c a0bc 2f7d 90bd 6eb4 253d
00000310: 5977 c43d 578a 5ebc 9f47 3bbd 8be8 673d
00000320: 88fc 613d 529c 2dbd d4fa 00bd d80a 31bd
00000330: 50be f03d 4889 df3d a5bb ce3d 02ef 15bd
00000340: 3e35 5c3b 3682 06bd 9a04 5f3d 24bf 243c
00000350: 15a1 47bd 8aec d63c f079 a83d 09dc dd3c
00000360: d189 8b3c db45 8ebc 9cac 043d 2563 463d
00000370: 7499 52bd e586 7f3c d817 9abb 6dce 40bd
00000380: d51e 853d 0db9 9b3d cd21 6fbd d089 bebd
00000390: d5bf e63c c844 3abd e74c 5cbd 25b3 523d
000003a0: 3904 7abc 22cc 47bd 917f 85bc bb5b 33be
000003b0: ff70 1ebe 2c54 8d3d 04ab 723d 6a7f 6f3d
000003c0: 3a65 d83d 7559 eb3c 8cab ae3c 4ce0 b13d
000003d0: 751c c53d d2e5 d53c e0d2 2dbd 9551 2abd
000003e0: 7f67 c5bd 88dc 0dbd 7ba1 c03d 686e a03d
000003f0: 369e c3bc 861c a5bc c6f3 5ebb 7552 2dbd
-0.011658274 -0.074100256 -0.05543946 -0.039017826 0.043314483 -0.021268956 -0.15207087 -0.07821486
-0.058553416 0.028370328 -0.013886527 -0.07984446 -0.023690699 0.0044943993 -0.11706539 0.00070557545
0.028348787 -0.08176352 0.026500808 0.030712985 0.053898197 0.025116071 -0.019573817 -0.013107918
-0.2654275 -0.254899 -0.068591654 -0.06806803 0.012917487 0.038322434 0.048392523 0.032627143
0.02190587 0.027590381 0.035120476 0.05128888 0.085256524 -0.02075445 0.106231615 0.025433335
-0.064879864 0.1178826 -0.0488207 -0.013736875 -0.00932109 0.03479043 -0.03873469 0.00788865
0.0172617 0.058693152 0.024660364 -0.071744576 -0.107802086 0.041312635 -0.08579229 -0.023069862
0.08982755 -0.15942307 0.022021396 -0.03931787 -0.17306983 -0.09384976 -0.06908936 0.04452503
0.050153166 0.11327551 -0.027784633 0.011731266 0.089660905 -0.09460768 -0.055194348 -0.00883217
0.065365724 0.0775644 0.1178565 -0.00855786 0.00032163772 -0.012837261 -0.19219592 -0.12979768
-0.098951824 0.047350492 0.00038794408 -0.097888164 -0.05911832 -0.0026935465 -0.13003032 0.08219537
0.062627286 -0.07902147 0.011256232 0.057282377 0.0072517954 -0.016165365 -0.038713615 -0.028710939
-0.03530387 0.012115085 0.022906005 0.048772585 0.05504879 0.13384338 0.0408173 -0.004481901
0.09728758 -0.025144843 -0.035164196 -0.05787132 -0.009386543 -0.0029180907 -0.18145165 0.0625499
0.07628067 -0.0014786308 0.16534804 0.1355866 0.060391665 0.009637907 -0.07499174 -0.00036529131
-0.05390946 -0.10706365 0.025570361 0.056165006 -0.116271265 -0.018386435 0.02651378 0.07203073
-0.033364005 -0.12041881 0.031444468 -0.026190413 0.010804205 0.112072304 0.07039555 0.07355899
0.010793569 -0.01432365 0.03052261 -0.018427093 -0.04980559 0.042502508 0.013922012 0.010283979
0.03632652 0.016121715 -0.05823437 -0.015761374 0.0003009669 -0.09400756 0.028161498 0.083774365
-0.021651257 -0.024015421 0.06565723 0.05006915 0.018810598 0.0008780623 0.059646737 0.043340955
0.07163934 0.0034533234 0.029326778 -0.03847427 -0.1021259 -0.025251787 -0.03112289 -0.049197074
-0.024793299 0.08666801 -0.007146771 0.08391429 0.03827122 0.042658877 -0.03640628 0.09448221
0.009269864 -0.14047354 -0.07773632 -0.06181835 0.039755918 0.03815507 0.13876428 -0.033624947
-0.016898721 0.10121031 -0.14312722 -0.19010784 -0.07304603 -0.046036974 0.06657108 -0.077771805
-0.015351632 -0.019575302 -0.07055127 0.040455274 0.09593076 -0.0135827875 -0.0457226 0.056618255
0.055172473 -0.042385407 -0.03148921 -0.043223232 0.11755049 0.10914856 0.10094384 -0.03660489
0.003360107 -0.032839023 0.054447748 0.010055337 -0.048737604 0.026235837 0.08226383 0.02708246
0.01703349 -0.017367294 0.032391176 0.048434395 -0.051415876 0.015596126 -0.0047025494 -0.047071863
0.06500021 0.07603655 -0.058381844 -0.093036294 0.028167645 -0.04547575 -0.053784277 0.051440377
-0.015259796 -0.04877866 -0.01629618 -0.17515461 -0.15472792 0.0690082 0.059245124 0.05847112
0.105661824 0.02872918 0.021322034 0.08685359 0.096245684 0.026110563 -0.042437434 -0.04158171
-0.09638881 -0.034634143 0.094058 0.07833558 -0.023879152 -0.020155203 -0.0034019812 -0.042314965

vae.enc_convs.3.bias f4 [64]
00000000: e7df d23d 2e56 79bc 54b1 923c f581 0bbd
00000010: 5b69 60bd c4dc c43c ec8f 43ba 3ce3 8a3b
00000020: 6f03 8fbd c53e 9e3d ff6c 92bd 1245 963c
00000030: f2d5 5cbb 6f75 d4bd 72a1 433d a604 37bd
00000040: 2218 30be e3f5 d8bd f708 213c 1545 7dbd
00000050: 1dce 87bd b099 c73c 3822 debc 5d6c 58bc
00000060: dc38 193c d4df b93d 8367 e53c 2c8c 07bd
00000070: b980 553d 799f 12bc 0254 b43d 4d6d 8e3d
00000080: 708c 9e3d 8edb 4cbd 2a87 013d 68f3 513c
00000090: 82bb cfbd 3ac7 b1bc 34b8 0d3d 042d 8a3c
000000a0: 3b14 ce3c 4c81 723d a6a0 543d a88e 4c3d
000000b0: a44f 9fbd 7136 98bc 0b96 eabd 5074 043d
000000c0: b104 17bd 6091 e2bc 0df7 803d d1de 05bd
000000d0: 47b1 5abe cd34 c83d 00de 453d 9392 403d
000000e0: 980d 2bbd 15a6 9cbc eb34 1e3d 736e b23d
000000f0: 348f 34bd d9d8 6a3d c2c6 dabc 97c2 063d
0.10296612 -0.015218301 0.017906822 -0.034059484 -0.054787975 0.02403105 -0.00074601057 0.004238514
-0.06983077 0.07726816 -0.071496956 0.018343482 -0.0033696857 -0.10373961 0.047761388 -0.044682167
-0.17196706 -0.10593774 0.009828798 -0.06183346 -0.0663111 0.024365276 -0.027115926 -0.01320943
0.009351935 0.09075895 0.02800346 -0.033092663 0.052124713 -0.008949154 0.08805086 0.06954441
0.0774163 -0.05001407 0.031623043 0.01281438 -0.10143186 -0.021701444 0.034599498 0.016867168
0.025156131 0.05920534 0.05191102 0.049940735 -0.07778862 -0.018580647 -0.114544 0.032337487
-0.03686971 -0.02765721 0.06297121 -0.032683197 -0.21356688 0.09775696 0.04830742 0.047014784
-0.04176101 -0.019122163 0.038624685 0.08712473 -0.04408188 0.05733571 -0.026706103 0.03290042

vae.enc_convs.4.weight f4 [64]
00000000: ff5a 743f b9b0 893f 9e75 7c3f f8fb 5a3f
00000010: ac32 8d3f 47f7 773f 89b0 5e3f ca03 913f
00000020: 3b8f 523f 8a4a 4f3f 8d4b 7f3f de2f 823f
00000030: 1825 993f a8fe 803f 6408 923f 513c 733f
00000040: 6d20 973f b716 883f e9d6 a53f 5452 6e3f
00000050: a21b 8a3f 4f41 493f 1728 863f 6195 a13f
00000060: 4fa8 603f 0d65 633f 9276 503f 82df 8b3f
00000070: 8d14 503f b62d 8d3f 377d 493f 9810 853f
00000080: 94e6 873f b027 643f 9a4e 8a3f f77a 8f3f
00000090: 99ad 893f 07c7 673f 8ba9 803f 1280 953f
000000a0: f5d2 883f c6e7 903f e55a 493f 606e 633f
000000b0: d016 a23f be1f 383f ab93 843f 7da3 963f
000000c0: b2b5 923f 2f5a 943f ad4a 523f 04d6 643f
000000d0: 6255 a83f 8742 6d3f 30a9 923f 96ed 6d3f
000000e0: 7b93 7a3f dad3 563f 9d84 913f e87c 853f
000000f0: 1325 833f c58f 843f 0295 5c3f 7482 863f
0.9545135 1.0757056 0.9861697 0.85540724 1.1031089 0.9686169 0.8698812 1.1329281
0.822498 0.8097311 0.99724656 1.0170858 1.1964445 1.0077715 1.1408811 0.9501391
1.180677 1.0631932 1.295621 0.9309437 1.0789683 0.7861528 1.0480984 1.2623712
0.8775682 0.88826066 0.81430924 1.0927584 0.8128136 1.1029575 0.7870669 1.0395689
1.0617242 0.8912306 1.0805237 1.1209401 1.0756103 0.90538067 1.005174 1.1679709
1.0689379 1.1320732 0.7865432 0.88840294 1.2663212 0.71923435 1.0357565 1.1768643
1.1461699 1.1590022 0.82145196 0.8938906 1.3151057 0.9267964 1.1457882 0.9294065
0.9788129 0.8391701 1.1368595 1.0428743 1.0245689 1.0356375 0.8616487 1.0508561

vae.enc_convs.4.bias f4 [64]
00000000: 2ffa 9cbd 35d4 c13d 7a48 e8bd 41db 863d
00000010: 3d4f 3e3c d690 69bd a743 fbbd e561 273d
00000020: ebba 663c b68f 97bd e596 0dbe 135a b8bd
00000030: 08fd b03d 6a16 6bbe 0286 603b 99f1 c5bd
00000040: 7a6f 893e c0d7 febb 59a2 c33d cb6d 96bc
00000050: 6dcb dcbc c654 aabd 6414 0cbe cc29 7f3e
00000060: a0d6 9ebd bd5d c1bd 21d7 bcbd 5653 4b3c
00000070: fe5e 2ebe 2291 f53c 86f2 b8bd 9924 183e
00000080: d260 393d 3d75 32be df10 283d 6606 0fbd
00000090: cd05 1c3c 7b98 aabd bf9d 8c3c 11fe e63d
000000a0: ebab 8e3d b37a 963c b029 d5bd 2dc8 b8bd
000000b0: 0ef0 c83d fb31 52be 4ce9 56bd 0d1d 563d
000000c0: 14a3 083e 9204 f93d 0b8f b6bd 66f5 d9bd
000000d0: cf83 8f3c b1a6 0cbe 2c95 263c 85c5 aabe
000000e0: 5888 bbbd e38f 6fbd fef9 ca3d 54ec 85bd
000000f0: 7ed4 2dbd d83b 04be 862f 62be ba94 2dbd
-0.07664906 0.094643034 -0.11341949 0.06584788 0.011615572 -0.057022892 -0.12268763 0.040864844
0.014082651 -0.074004576 -0.13827093 -0.09001555 0.08642012 -0.22957769 0.0034259562 -0.09665222
0.26842862 -0.0077771842 0.0955245 -0.0183629 -0.02695247 -0.083169505 -0.13679653 0.24918288
-0.0775578 -0.09441707 -0.0922072 0.012410006 -0.17028424 0.029976431 -0.09030633 0.14857711
0.04525835 -0.17427535 0.041031715 -0.03491821 0.009522867 -0.083298646 0.017165063 0.11278928
0.069663845 0.018369054 -0.10408342 -0.090225555 0.09811412 -0.20526879 -0.052468583 0.0522738
0.1334346 0.12159075 -0.08914002 -0.10642509 0.017518906 -0.13735463 0.010167401 -0.3335382
-0.09156865 -0.05848683 0.099109635 -0.06539217 -0.042438976 -0.12913454 -0.22088441 -0.042378165

vae.enc_convs.4.running_mean f4 [64]
00000000: a60f fabe 4cac 91bf b24b 7dbf 29a1 13c0
00000010: bb79 79bf 4feb f7be 7b48 843e 1abf 2bc0
00000020: 2501 d8bf bde9 ddbf 5a8b dcbf c794 e7bf
00000030: fc01 c5be 398e 553d 32a0 e73f 699d a4be
00000040: b6f0 babf 9a82 993f feb7 f9bf abf4 56c0
00000050: 5717 d5bc 1089 debd 163c 0dbe 3938 5e40
00000060: 8373 c2bf b66b 8a3d b9a6 72bf c27f 7fc0
00000070: 1bfa 793e 30b2 db3e fbfd babe 3e89 a33f
00000080: 8a9a ce3e 3b42 00c0 4356 413e fff1 f8be
00000090: a4f4 d63e 8dcf 9dbe 4951 f6bf 70c4 01c0
000000a0: 9738 97bf 1b8e 5fc0 9f2d 05c0 b82e 63bf
000000b0: 874e 18bf 57d4 39bf fe0f 42bf 4776 59be
000000c0: 39c5 1540 b72e b23f af20 a5be c663 97bf
000000d0: 8fc3 78c0 8579 33bf d170 ae3f f81a 123f
000000e0: 0e1f 2cbe f0cb c2bf 914c 2340 498d 06bf
000000f0: d124 9cbf 7ea4 403f 37e8 a93e 798d b93f
-0.48840064 -1.1380706 -0.98943627 -2.3067114 -0.9745137 -0.48421714 0.25836548 -2.683539
-1.6875349 -1.7336956 -1.7230027 -1.8092278 -0.38478076 0.052137587 1.8095763 -0.32151344
-1.4604709 1.1992981 -1.9509275 -3.3586833 -0.026012106 -0.10865986 -0.13792452 3.4721816
-1.5191501 0.067588255 -0.9478565 -3.9921727 0.24411814 0.42909384 -0.36521897 1.2776258
0.4035228 -2.0040424 0.18880562 -0.48622128 0.4198352 -0.3082241 -1.9243556 -2.0276146
-1.1814145 -3.4930484 -2.0809095 -0.8874316 -0.59494823 -0.7258963 -0.7580565 -0.21236525
2.3401625 1.3920506 -0.32251498 -1.1827323 -3.886936 -0.701073 1.3628179 0.570724
-0.16808721 -1.5218487 2.5515482 -0.52559334 -1.2198735 0.75250995 0.33184978 1.4496299

vae.enc_convs.4.running_var f4 [64]
00000000: fe64 2140 7376 c540 e028 b23f 3f08 0c41
00000010: e9f0 2940 8fa3 8a40 1c9c f33f 886d 4040
00000020: dedf c540 628c 8a3f 0f84 0e40 1249 dd3f
00000030: 6d20 6b40 686c e13f 10b8 7a40 8abf 6940
00000040: 184e 9540 a146 4640 277a dc3f 13f9 0240
00000050: 7ea7 7340 a117 2140 8115 3840 784f 6a40
00000060: b73e 1b40 0234 a340 9c1c d740 409d 213f
00000070: 9e2b ef3f c49f 7e40 d7b1 b240 fdd8 7140
00000080: e5f8 8140 b917 2c40 56a5 1b40 2395 6540
00000090: c545 2540 e0ad c640 a765 6140 c7b4 f23f
000000a0: 505d 3740 65ab b83f 4960 d53f 8b2e b03f
000000b0: a287 eb3f 2137 e13f 0189 1840 a1d0 9140
000000c0: a258 6540 d042 9e40 7740 c640 808b 1540
000000d0: daa0 de3f f69d 1b40 4bef 0a40 8d30 713f
000000e0: b679 823f 7063 0441 c2bb 1040 1742 e83f
000000f0: 9e60 7440 893f 0540 cecc 0040 ae5f 4040
2.521789 6.170709 1.3918724 8.752013 2.655329 4.3324656 1.9032016 3.0066853
6.1835775 1.0824091 2.2268102 1.7287924 3.673854 1.7611208 3.9174843 3.6523156
4.665783 3.0980608 1.7224778 2.0464523 3.807098 2.5170672 2.8763125 3.6611004
2.4257028 5.1000986 6.7222424 0.6313057 1.8685186 3.9785013 5.584209 3.778869
4.0616326 2.688948 2.4319663 3.5872276 2.5823834 6.208725 3.5218294 1.8961419
2.8650703 1.4427305 1.6670009 1.3764204 1.8400767 1.7594949 2.383362 4.5567174
3.5835347 4.945656 6.1953692 2.3366394 1.7392838 2.4315162 2.1708553 0.9421471
1.0193393 8.274277 2.2614598 1.8145169 3.818397 2.0820029 2.0125003 3.0058398

vae.enc_convs.6.weight f4 [64, 64, 3, 3]
00000000: fbe9 b0bd 76b2 ac3c c185 f3bc 807f abbd
00000010: 6986 bbbd ea08 1fbc d839 4abd 58ac 663c
00000020: e62b c9bc fa50 9d3c 877a 64bd 6833 ae3c
00000030: c4ec f63c e72b 353d 19d9 b03d c401 033c
00000040: ed5a 50bc 5ec4 36bc 67aa debd 9b68 74bd
00000050: 672a 0dbe 528b b7bc 2c91 ec3c a91e 1abd
00000060: 0e76 babd 4cf0 80bd 8db8 4ebd 034f b53d
00000070: ad1e 27bd 4584 b7bc 3f8e a13c 5210 b0bd
00000080: 1f7f 4bbb 5cd4 cf3c a367 9bbd 3565 5b3d
00000090: be60 35bd 644e 09be a085 98bc c3a4 e7bd
000000a0: ba68 d2bc 9859 d03d 9653 8bbc 7475 1e3c
000000b0: 2c9e 9cbd d129 a03c 2796 5cbc 2794 b8bc
000000c0: 0dcd 793d 77c6 41bd f91d 183d a9ea 26bd
000000d0: 12b8 c53c f201 6e3d 101e a33c 6079 543c
000000e0: 370b 77bd 7f29 2d3c 2f5b 713d 5209 953c
000000f0: 74ac f3bd 9ae5 173d acc4 603b 2d78 93bd
00000100: 3ff1 79bd 7db5 6739 ee65 85bd e1f9 e4bb
00000110: d999 5dbc 86ee cfbd f75e 233c b091 c03d
00000120: 1493 193d 01fe c3bc 9eb4 c5bc 3470 993a
00000130: d9ba 77bd 1464 f73c 1e5b 703c 043b 70bc
00000140: 0b61 983b 69c3 48ba 7a2d a4bd 5fe6 2fbd
00000150: bf2b 9d3c ab2e 87bd e2a8 053c 9efa 84bd
00000160: 541d 23be 8cc9 423d b67e f43c 7c6b 0e3e
00000170: c4df a43d e10c 86bc 9bfd debd cd23 07be
00000180: f34f e93b 678c 32bd 7735 673d 2884 663c
00000190: b165 a73d 35b0 6b3a e795 2e3d c564 7ebd
000001a0: ee19 91bd 78a9 fabc ee99 1abe 9f9c f6bc
000001b0: b523 80bd e491 14bd b634 d03c 8028 e03a
000001c0: 74e5 523d 4287 463d 3b4d 39bd b605 97bb
000001d0: 30c7 d6bc c511 153d e262 85bd 4cc9 5a3d
000001e0: 4ecb e2bb 06da bdbc c74a b83d bfb5 db3d
000001f0: c8aa d4bd d07c 963c c764 03bd d9ea 423e
00000200: 992d 72bc 7d88 563d ca08 633c 76b7 b7bd
00000210: f65c 96bd 2aa8 103c 4696 8a3d 8f49 41bb
00000220: 75ab ee3d 0d28 f8bc ce2f b13d 6e87 f93c
00000230: b43e baba c7e3 b5b9 8457 103d ca24 0f3d
00000240: 3613 e8bc aa38 513d cd21 073e af27 d4bc
00000250: cf06 ed3c c906 913d 62c5 993d 2380 6ebd
00000260: 225f 233c 89ad 183b 7802 2c3d ba33 a9bd
00000270: 60e6 3a3d 5f79 48bd ee99 14bd ad1a 96bd
00000280: 0774 e73c 72b4 683d a6ec 61bd ae22 17bc
00000290: 306c 85bb d42c 78b9 ba7d 143d 03af 363c
000002a0: 786f 793c 772b c03b 1fd9 c33c 0e14 bfbc
000002b0: 00d9 803d c300 9fbd 39ca c13d 293e 2a3c
000002c0: 952c 10bd 0cb1 b53d eb3d 31bd e14d b9bc
000002d0: 2f30 d43c 0911 2e3d 656d dfbd 28ff 0b3e
000002e0: df49 b93c 2d69 d43c 9623 ca3c 658f e13d
000002f0: d3b4 4a3d c234 683d 7922 9e3c dfdd 9bbd
00000300: a479 6f3d 254c 46bc 6bba cd3c 1f9a 87bd
00000310: 966e 9a3d 9b03 c53c 5a38 493d fdd3 debd
00000320: cbc6 6dbb 06f8 5dbd cce3 26be b446 39bd
00000330: 2694 c63d f568 9c3c 22ed 563c 1ecf e8bd
00000340: 2e06 e0bd f7e6 1cbc c674 41bd 7ae2 153d
00000350: c65b ff3c 66b2 9abb 0010 3e3d b206 84bd
00000360: 1211 863d e044 493d e9ff 9abd c3dd ea3d
00000370: bbde 95bc bf4b a33d d063 a5bc c3fd a3bc
00000380: 1578 65bc cb15 9b3d cc04 ac3c 2dbf 86bd
00000390: a2ed 8b3d 5204 5abc 4ce3 8c3d 26cb 083c
000003a0: b358 24bd 7241 39bd f6d5 763d bada debd
000003b0: a7e4 88bc 5944 cc3c 3328 3d3b 2d5a 523d
000003c0: ea27 a43d 1429 24bd da13 28bd 92eb 993d
000003d0: 2ae2 1ebc 8814 1d3c 76d1 14bd 1981 1cbe
000003e0: 2597 61bd 8da7 433d a8c5 c53c e5e9 fd3d
000003f0: ed28 a83d 068d a8bc e7a9 eabd 7f1b 493d
-0.08638378 0.02108119 -0.029726865 -0.08373928 -0.09156496 -0.009706715 -0.04937157 0.014079176
-0.024557065 0.019203652 -0.055780914 0.021264747 0.030142196 0.04423132 0.08635158 0.007996026
-0.012716991 -0.011155216 -0.108723454 -0.059670072 -0.13785706 -0.0224053 0.028877817 -0.037626896
-0.091045484 -0.06295833 -0.05046897 0.08852961 -0.04080074 -0.022401938 0.019721149 -0.08596863
-0.0031051112 0.025369816 -0.075881265 0.053563315 -0.044281714 -0.1340881 -0.018618405 -0.11310723
-0.025684703 0.10173339 -0.01700763 0.009671558 -0.076473564 0.01955119 -0.0134635335 -0.022531582
0.060986567 -0.04730841 0.03713796 -0.040751133 0.024135623 0.058107324 0.019911796 0.012968391
-0.06031343 0.0105689755 0.05892485 0.01819292 -0.11898127 0.0370842 0.0034296913 -0.07200656
-0.061021086 0.00022097486 -0.06513582 -0.0069877957 -0.01352545 -0.101529166 0.009971372 0.09402788
0.03749378 -0.02392483 -0.024133977 0.0011706413 -0.060480926 0.030199088 0.0146701615 -0.014662508
0.0046502403 -0.0007658513 -0.080164865 -0.04294431 0.019185899 -0.06600698 0.008157941 -0.06493114
-0.15929157 0.04755549 0.029845577 0.1390819 0.080504924 -0.016363563 -0.10888215 -0.1319725
0.0071201264 -0.04359093 0.056447472 0.014069594 0.08173693 0.00089907955 0.042623427 -0.06210782
-0.07085024 -0.030598387 -0.15097782 -0.03010398 -0.062568106 -0.036271945 0.02541576 0.0017101914
0.051488355 0.048468836 -0.04523967 -0.004608835 -0.026218027 0.0363939 -0.06513001 0.053414628
-0.0069212085 -0.02317525 0.08998638 0.10728025 -0.103841364 0.018370062 -0.03207853 0.190349
-0.014781379 0.05237626 0.013857076 -0.08970539 -0.0734195 0.008829156 0.06766944 -0.0029493307
0.116537966 -0.030292535 0.08651696 0.030460086 -0.0014209361 -0.00034692718 0.03523971 0.034947194
-0.028329473 0.05107943 0.13196488 -0.025897829 0.02893391 0.07081372 0.07508351 -0.05822767
0.009971412 0.0023296794 0.041994542 -0.08261819 0.04562986 -0.048943873 -0.03627961 -0.07329307
0.028253568 0.05681271 -0.055157326 -0.009224577 -0.004071735 -0.00023667823 0.036252715 0.0111501245
0.01522433 0.0058645564 0.023907242 -0.023324993 0.062913895 -0.07763817 0.09462399 0.010390797
-0.035198767 0.0887166 -0.04327194 -0.022620143 0.025901882 0.042496715 -0.10909537 0.13671553
0.022618232 0.025929058 0.024675172 0.110136785 0.049488854 0.05669094 0.019303547 -0.07610678
0.058465615 -0.012103115 0.025113305 -0.06621193 0.07540624 0.02404957 0.049126007 -0.10880277
-0.003628182 -0.05419161 -0.16297835 -0.045233443 0.09696226 0.019093016 0.01311806 -0.113676295
-0.10938679 -0.009576551 -0.047230504 0.036592938 0.03117169 -0.004720974 0.046401978 -0.064465895
0.06546225 0.04913795 -0.07568342 0.11468079 -0.018294683 0.07973432 -0.020189196 -0.020018464
-0.014005681 0.07572516 0.020998381 -0.06579433 0.06832434 -0.013306694 0.06879291 0.008349216
-0.040123653 -0.04522843 0.060262643 -0.108815625 -0.016710592 0.024934934 0.0028863072 0.05135553
0.080154255 -0.040078238 -0.041034557 0.075156346 -0.009697476 0.009587415 -0.03633257 -0.15283622
-0.055075783 0.04776721 0.024142101 0.123981275 0.08210931 -0.020575058 -0.114581876 0.049098488

vae.enc_convs.6.bias f4 [64]
00000000: 5881 bd3d 00c1 f63d bbce c33c c1ef d7bd
00000010: 2f81 1d3d d328 f33a 8282 043e e88e 4d3d
00000020: 7fd9 a9bd e710 953d a448 c43d 7a65 2c3e
00000030: 13dd ca3d 0b76 e13d 848f db3d 8ee5 71be
00000040: e485 923d 947b 8f3d 8260 273c fb2c a93d
00000050: 67eb 183e 647e b13d 01c4 113e 8fb7 3bbe
00000060: 40ef 81be dbaa 04bb c43b 99bb a4c4 dc3d
00000070: 553e 153e 8d62 3b3d ab24 6a3d 45b5 f33c
00000080: c714 f5bc 3108 30be d927 53bc d6c7 88be
00000090: aca1 3ebc 466c 9e3d b750 ab3d 03ea 3d3c
000000a0: 49f6 a7bd 4733 ad3d 3236 9b3d a75b 8e3d
000000b0: 9407 5e3d 4084 afbc f2cd 213e 63c8 c13d
000000c0: 2533 833d e7fe df3b 77c9 f33c a604 fb3d
000000d0: 1f49 6e3d 8ff3 85bb db85 293c 54ac ca3d
000000e0: 03dc 5dbc a2af 95bc 1edb 2d3d 10d5 023e
000000f0: 0598 603d 03e4 083d 8683 05be 7745 d43c
0.09253186 0.120485306 0.023902288 -0.10543776 0.038453277 0.0018551595 0.1294041 0.050185114
-0.08293437 0.072786145 0.095841676 0.16835585 0.09905448 0.11008843 0.10720733 -0.23622724
0.07154444 0.070059925 0.01021588 0.082605325 0.14933549 0.08666685 0.14234926 -0.18331741
-0.25377846 -0.002024344 -0.004676314 0.10779694 0.14574559 0.045748282 0.057163876 0.029749522
-0.029917134 -0.17190625 -0.012887918 -0.26714963 -0.011635225 0.07735495 0.083650045 0.011591437
-0.08201272 0.08457046 0.07578696 0.06951075 0.054206446 -0.021425366 0.15801218 0.09462049
0.064062394 0.0068358066 0.029759152 0.12256746 0.058175202 -0.0040878723 0.010346855 0.0989615
-0.013541224 -0.018272225 0.042445295 0.1277659 0.054832477 0.033420574 -0.13038453 0.02591203

vae.enc_convs.7.weight f4 [64]
00000000: d3df 443f 1629 853f 00af 833f d1d1 433f
00000010: 069e 613f 830b 8c3f a292 283f cce1 543f
00000020: 61cb 673f 794f 3f3f 3754 543f 7875 623f
00000030: 3d8a 443f 5d24 9c3f ccd2 563f 50b9 c53f
00000040: f6c0 6a3f aea2 3d3f d6d5 333f 75c9 403f
00000050: 80f4 3f3f a4ab 703f a743 333f b65c c93f
00000060: e433 d63f 1079 4c3f 7b2e 623f cbba 353f
00000070: 9968 403f 36e8 453f 0b6d 523f 1e66 493f
00000080: 3dfa 4b3f 86b7 e93f c64d 4c3f 0f74 e23f
00000090: f192 383f 0b77 5a3f d4dc 533f b75e 413f
000000a0: 08e4 ab3f 00d3 363f 84df 573f 18af 3d3f
000000b0: 559d 3b3f ab22 5a3f adfb 3e3f d934 563f
000000c0: fc46 793f 8426 2a3f effc 6d3f 5fde 3d3f
000000d0: 21f0 3c3f b319 583f fd05 363f 074f 653f
000000e0: 7e9c 463f 4c05 2d3f ffaa 5e3f 832d 513f
000000f0: 76af 333f 093c 2b3f 2efc d33f 41a9 633f
0.7690403 1.0403163 1.0287781 0.7649203 0.8813175 1.0941013 0.65848744 0.8315704
0.90544707 0.7473064 0.82941 0.88460493 0.76773435 1.2198597 0.839154 1.5447178
0.91700685 0.74076355 0.7024816 0.753074 0.7498245 0.940119 0.70025104 1.5731418
1.6734586 0.79872227 0.88352174 0.7098815 0.75159603 0.7730745 0.82197636 0.78671443
0.7967871 1.8259132 0.7980617 1.7691668 0.72099215 0.85337895 0.8275883 0.7553515
1.3428965 0.7141571 0.8432543 0.74095297 0.73286945 0.8520915 0.74602777 0.8367439
0.9737394 0.6646502 0.9296407 0.74167436 0.7380391 0.84414214 0.7110289 0.8957371
0.7758254 0.6758621 0.8697967 0.8171007 0.7018961 0.6688848 1.6561334 0.88930136

vae.enc_convs.7.bias f4 [64]
00000000: d3d7 85be 42d7 74bd 6ea6 54bd 09ee 3dbe
00000010: d9b7 83be 6e5a ccbd dc05 8dbe a358 37be
00000020: 4d04 ffbd 0720 63be ebee 50be afb1 26be
00000030: 9f37 54be f6a6 b23d 554f 5bbe 3d9f d93e
00000040: 1a3f 19be 2a76 97be 7755 81be 22b3 91be
00000050: 9cb8 7dbe beaf 1cbe 9857 4fbe 87cc ca3d
00000060: b95c 003f 4bda ecbd 4db0 30be cfae 6ebe
00000070: 45d2 29be 6e6d 8dbe 283d e8bd c1c6 76be
00000080: 5915 40be 9df9 0e3f e648 89be 6e88 fb3e
00000090: bc5e 77be 7fb6 4ebe 98c2 20be 8269 85be
000000a0: b10f 623e 8d98 90be 8686 c9bd c522 8abe
000000b0: 740b 82be 2330 65be be51 57be 5a38 57be
000000c0: 1071 f9bd e957 88be 6a28 e9bd f480 86be
000000d0: 4383 49be 40d4 bebd 87db 47be 6aea 0abe
000000e0: ff74 4cbe fdf9 87be 1cdf 36be 3eb5 41be
000000f0: 3961 b1be 0b4c 60be 0f59 ff3d d4e4 fbbd
-0.26141223 -0.0597756 -0.051916532 -0.18547834 -0.25726202 -0.099781856 -0.27543533 -0.17904906
-0.12451992 -0.22180186 -0.2040364 -0.16278718 -0.20724343 0.087232515 -0.21416982 0.42504302
-0.14965478 -0.2958234 -0.25260517 -0.2845698 -0.24777454 -0.15301415 -0.20248258 0.09902292
0.50141484 -0.115650736 -0.17254753 -0.23308872 -0.16584118 -0.2762255 -0.1133979 -0.24099256
-0.18758143 0.5584963 -0.2681343 0.49127525 -0.24157232 -0.20186804 -0.15699232 -0.2605706
0.22076298 -0.28241387 -0.098401114 -0.26979652 -0.25399363 -0.22381644 -0.21027276 -0.2101759
-0.12179768 -0.2662957 -0.113846615 -0.26270258 -0.19678979 -0.09317827 -0.19517337 -0.13565984
-0.19966505 -0.26557913 -0.17858547 -0.18916795 -0.34644488 -0.21904008 0.124681585 -0.12299505

vae.enc_convs.7.running_mean f4 [64]
00000000: 768c f4be a38b 1abf 09fa bcbf 0e89 1d3d
00000010: c526 8cbe 3973 bf3e 2cbc c5bf bfda 3bbf
00000020: 684b 62bf 17ae b4bf 93dc 39bf 70d0 e2bf
00000030: a5c0 81bf 1197 06c0 6b62 fcbe eb91 43c0
00000040: d2af d3bf f4a3 84be c08e c0bf a65d d7be
00000050: 8f72 36be e1eb 2fc0 341d a7bf e294 17c0
00000060: 9c78 21c0 aae8 09c0 8657 fbbf 1eba 5fbf
00000070: 0659 e5bf d47e 8cbf dc8b b9bf 7fcb 39bf
00000080: dfed 1b3f 8a5c 29c0 399e d63e 866a e2bf
00000090: 492b 8bbf 71b8 9fbe 857c acbf 8803 a0bf
000000a0: fe99 5ac0 98a5 a1bf d1ee e4be e09b 6d3e
000000b0: f98a 0abf 9a24 f1be 8c63 18c0 02db 78bf
000000c0: c047 913f 01e0 44bf d6bf abbf ad57 49bf
000000d0: 1ee2 6fbf 6bb1 71bf bc9e b6bf b98c a1bf
000000e0: a34c bebf d46d 62bf 4b7d 91bf 17bd 97bf
000000f0: c267 6dbf 8144 90bf d220 febf 7d0e e7be
-0.47763413 -0.6036932 -1.4763805 0.038460784 -0.2737333 0.37392595 -1.544805 -0.73380655
-0.8839631 -1.4115628 -0.72602195 -1.771986 -1.0136915 -2.1029704 -0.49293837 -3.0557811
-1.6538031 -0.25906336 -1.5043564 -0.42063636 -0.17817138 -2.748772 -1.3055787 -2.368462
-2.5229864 -2.1548257 -1.9636085 -0.8739337 -1.7917793 -1.0976205 -1.4495807 -0.72576135
0.6090984 -2.6462731 0.4191759 -1.7688758 -1.0872585 -0.31195405 -1.34755 -1.2501078
-3.415649 -1.262866 -0.44713452 0.23203993 -0.54118305 -0.47098237 -2.3810759 -0.9720918
1.1350021 -0.769043 -1.3417919 -0.7864941 -0.937044 -0.94411343 -1.4267192 -1.262107
-1.4867138 -0.88448834 -1.1366361 -1.1854581 -0.92736447 -1.1270906 -1.9853766 -0.4512824

vae.enc_convs.7.running_var f4 [64]
00000000: b51f e240 7805 4141 c5f9 8341 841e 0a41
00000010: 3c2b cc40 83d9 2241 c859 e140 8d15 2241
00000020: 9855 5841 c78f fc40 cb32 0a41 0f12 4f41
00000030: c516 1341 747d 4541 3810 0f41 0491 3041
00000040: 21e6 0541 f2ca 1341 cd9f ea40 1274 4a41
00000050: 030e 1f41 b3eb 6841 bd7f c840 af58 8e40
00000060: 3ff8 8a41 d514 6b41 04c3 3f41 b92c 2841
00000070: 52fc 3741 4cd4 0141 f0dd 3341 85aa 0a41
00000080: 9fe7 2e41 d5ab a741 4d30 3441 89f0 9341
00000090: 4038 0e41 98e9 2a41 4f6d eb40 4d9d 3841
000000a0: 8d3c 2241 1fb8 0141 fdd9 1541 82b7 2141
000000b0: d358 0941 ee83 2b41 184a 2641 0c54 4241
000000c0: b56b 6041 9608 5541 366c 8041 170a 3241
000000d0: ad6d 1141 cda9 5141 5e84 0e41 9cf8 4a41
000000e0: 232e 0a41 fee0 0e41 76b4 2b41 926f 3741
000000f0: 57f6 de40 9dd7 0441 898d a540 dd1e 4d41
7.0663705 12.063835 16.496958 8.63245 6.3802776 10.178103 7.0422096 10.130261
13.520897 7.892551 8.637401 12.941909 9.193059 12.343128 8.94146 11.035404
8.368684 9.237047 7.332007 12.6533375 9.940921 14.557544 6.265593 4.4483256
17.371214 14.692586 11.985111 10.510919 11.499102 8.11433 11.241684 8.666631
10.931548 20.958902 11.261792 18.492449 8.888733 10.68203 7.3570933 11.5384035
10.139783 8.107451 9.36572 10.107302 8.584186 10.719709 10.393089 12.145519
14.026296 13.314596 16.052837 11.127463 9.089276 13.103955 8.907316 12.685696
8.636264 8.92993 10.731558 11.464739 6.967571 8.30264 5.1735272 12.820035

vae.mu_linear.0.weight f4 [20, 1024]
00000000: f8cc a03d 51fc b03d bc81 363c 9afb 763d
00000010: df24 41bc 4858 5e3a 0424 be3c b7f4 973a
00000020: cc1a 1cbd d13c 113d 14c1 8d3a bda8 ebba
00000030: 2030 873c d145 933c a9a2 8b3d 6aa1 053d
00000040: af99 e73c a43c b33b 8b5c 94bb 2d9d d23c
00000050: a23c bdbb 32f9 cfbd a2fd f63c 017c fa3c
00000060: 427b e7b9 b764 16be 7ba5 8abd edb0 70bc
00000070: f04b aa3b 58b3 e3bc 60e8 483d bc82 fd3c
00000080: c103 20bb ee10 16bd 5ea2 88bc 2e78 4f3c
00000090: 49b0 d2bc d6cb a73c 651b 6bbd 692e 65bd
000000a0: a0cd a3bc 46fb eebd fb16 ffbc 9e61 91bd
000000b0: 79a7 163d 9d74 b7bd fb16 9cbd 4ca1 8c3c
000000c0: 8797 4abc f1ac 35bb 974a c73d 6f8c 0b3d
000000d0: 2a9f d63d 854c 0fbe c5e7 da3c a363 d73c
000000e0: 02ca 253d 11c8 bc3c 08e9 373d 566a 0c3d
000000f0: 3947 053d 1924 d13b ef7f e4bc e0fa 773d
00000100: 550c debc d836 3b3d 6782 6f3c 4f66 273d
00000110: 0eaa bf3c 5ac0 433d dfc5 0e3d cb89 973d
00000120: a05d 973c f345 7f3d 9059 26bc 4928 31bd
00000130: f901 cf3c c8c3 28bd bc7e a33d 58e9 1cbe
00000140: b345 c5bb 1316 d6bc 3182 c338 b375 963b
00000150: 2236 a13b 677b 9fbd b211 94bc 4f90 9a3d
00000160: cff0 0fbd 55b7 90bd 99be c0be 8f13 7a3c
00000170: 582f 7b3c 7fe6 7d3c b6aa 5c3d 4028 8cbc
00000180: 1f02 193b 8a08 c9bd c329 463d d54f 15be
00000190: e5cf 8fbc 8852 44bc ad60 873c 83e2 433c
000001a0: dd39 7bbc d9bb 763b 302d 9abd dcc9 ab3c
000001b0: 0231 a23a 8519 41bd 0788 e53c dcc5 983c
000001c0: 3926 48bc bb27 8bbd d287 afbc b9f2 533d
000001d0: 0b68 29bc e2bf d6bd d8c2 91bc 3d83 3e3c
000001e0: 1715 fabc c040 023d 18f0 e1bc 64fa 33bb
000001f0: 8066 913c 74d9 21bd a6fc d43c 15c8 02bc
00000200: b52f bd3b 72cc 6ebc 348c fabc 26fb fabd
00000210: e8c6 73bd c480 ab3c 610b a0bc ddc0 0d3d
00000220: f1ad a53c 9abb 063d 2f3f 8dbb 531d b53c
00000230: 67a0 0dbd 899d 17be c9d5 483d 81ca a9bd
00000240: 8d69 b93c 4ab7 59bb 9133 f7bc 0d69 123c
00000250: df3c a0bc 3240 0f3d e4a4 833c 5c3e 1dbd
00000260: 75f3 e5bc 2bdf aa3d 5e46 06bc 2791 a83c
00000270: 088f ed3c 90a2 05bd 5671 bf3c 1cd9 8dbd
00000280: 5055 273d c470 2c3c b36a 34bd 3621 d6bc
00000290: 5a37 06bd dd5e 463a 690b a33b 985d 323d
000002a0: 3c43 f3bc 831a 863c 83c4 443d 97e5 273d
000002b0: 6fa5 f43b 793e 9d3c 2027 6e3c 1ef1 333d
000002c0: 9858 5539 4c2f 953c 728a 873c 9c83 81bb
000002d0: 7b08 0c3d 54f5 14bb c383 a23d 4783 6e3d
000002e0: 8556 6fbd 2fc7 b2bd 8936 d5bd 817b 42bd
000002f0: 6237 433c bdab bd3d 931f 5b3d 7aef b63c
00000300: bd2d c63d a23d 8dbd 67fe b23a 7429 20be
00000310: 92bf b7bd 35ad 413d 3d35 323d 5b30 63bb
00000320: b329 ae3c 0981 0cbb ea3d 5abc 0afe 8f3b
00000330: cc1b 88bd 215d 7ebc 3a20 653c 1161 ebbb
00000340: db83 a13a 7794 06bd 2c2e 67bc 63e0 73bc
00000350: 0bee ad3b 26b7 76bd 8966 05bd e363 83bd
00000360: 03c2 fbbc 92fd 983c 56c4 c6bd dea9 82bc
00000370: 7f1f 34bd 30b8 413d c7d7 48bd e085 6cbd
00000380: 1186 4b3d d361 03bd b8d1 a63c 224c cebd
00000390: 45e3 123c 31a5 a03d 2b70 8ebc b8a0 94bb
000003a0: 560f 35bd ca9f 6f3c b9b1 0fbb 3fbe c1bb
000003b0: fdc1 cd3b 612f d3bd ef35 883c 24e2 91bc
000003c0: 0434 89bc 7edd 2ebd 9802 d0bb a1fc 43bb
000003d0: 7ecc 8a3c c871 4c3c 3cb0 f53c dfdb 47bd
000003e0: f9bc 8f3b 07b5 ce3b 00fa 13bd 67d8 6bbc
000003f0: 4ede 23bd 8566 94bd 59d3 05bc b21e a9bc
0.07851595 0.086418755 0.0111393295 0.06029854 -0.011788576 0.0008481783 0.023210533 0.0011593316
-0.038111493 0.03545839 0.0010814988 -0.0017979365 0.01650244 0.017977627 0.06818134 0.03262464
0.028271524 0.0054698754 -0.0045276335 0.025709713 -0.0057750503 -0.10154952 0.030150238 0.030576708
-0.00044151588 -0.14686857 -0.06769844 -0.01469062 0.0051970407 -0.027795479 0.049049735 0.030946128
-0.00244163 -0.03663724 -0.016678985 0.01266293 -0.025718825 0.020482939 -0.057399172 -0.055952463
-0.01999551 -0.1166902 -0.031138888 -0.07098697 0.036780808 -0.08957789 -0.07621571 0.017166756
-0.0123652285 -0.002772149 0.09731024 0.034069475 0.10479577 -0.13994034 0.026721844 0.026292628
0.040475853 0.023044618 0.04489997 0.034281097 0.032538626 0.006382477 -0.027893035 0.060541987
-0.02710549 0.0457066 0.014618493 0.040869053 0.023396518 0.047790863 0.034856673 0.07399329
0.018477261 0.06232257 -0.010153189 -0.04325131 0.025269495 -0.041202337 0.07983157 -0.15323389
-0.0060202717 -0.026133573 9.3225746e-05 0.0045916676 0.004919783 -0.07787209 -0.018074844 0.07547056
-0.035141762 -0.07066218 -0.37645414 0.015263452 0.015331112 0.015496849 0.05387374 -0.017109036
0.0023347212 -0.09816082 0.04837967 -0.14581235 -0.017555187 -0.011982568 0.01652559 0.01195586
-0.01533362 0.0037648587 -0.0752815 0.020970277 0.0012374225 -0.047143478 0.028018964 0.018649034
-0.012216144 -0.06794687 -0.021427069 0.05174515 -0.010339747 -0.104858175 -0.017793104 0.011627969
-0.030527635 0.03180003 -0.027580306 -0.0027462477 0.017749071 -0.03951402 0.025999378 -0.007982274
0.0057735094 -0.014575111 -0.030584432 -0.12254934 -0.059515864 0.020935424 -0.019536676 0.034607757
0.020224543 0.032893755 -0.0043105106 0.02210871 -0.0345768 -0.14806189 0.049032006 -0.08290578
0.022633338 -0.003322082 -0.030175956 0.008936179 -0.019560276 0.03497333 0.016069837 -0.03838955
-0.02807019 0.08343347 -0.008195488 0.020577027 0.028998867 -0.032625735 0.023369472 -0.06926176
0.040852845 0.010524932 -0.04404707 -0.026138883 -0.03276763 0.00075672363 0.0049757254 0.04354629
-0.029695146 0.016370064 0.04803897 0.04099044 0.0074660103 0.019194828 0.014535695 0.04393112
0.00020346267 0.01821103 0.016545508 -0.0039524566 0.034187775 -0.0022729235 0.07935288 0.058230665
-0.05843212 -0.087293975 -0.104107924 -0.047481064 0.01191506 0.09261272 0.05349691 0.022330988
0.09676693 -0.06896521 0.001365614 -0.15640813 -0.08972086 0.047284324 0.043507803 -0.0034666273
0.021260118 -0.0021439216 -0.0133204255 0.0043942975 -0.06645927 -0.015525133 0.013984734 -0.007183202
0.0012322621 -0.03285643 -0.014110129 -0.014885041 0.005307918 -0.060233258 -0.03256849 -0.06415536
-0.03073216 0.0186756 -0.09705417 -0.01595014 -0.04397535 0.047294796 -0.049033906 -0.05774486
0.049688403 -0.032075714 0.020363674 -0.10073115 0.008965318 0.07844008 -0.01738747 -0.0045357607
-0.04420408 0.014625499 -0.0021926 -0.0059125717 0.0062792287 -0.10311771 0.01662728 -0.017808028
-0.016748436 -0.0426917 -0.0063479654 -0.0029905217 0.016943213 0.012478299 0.029991262 -0.04879367
0.004386541 0.0063082012 -0.03612709 -0.014394856 -0.04000693 -0.072461165 -0.008168065 -0.02064452

vae.mu_linear.0.bias f4 [20]
00000000: badf c93a cac1 473c 90ad 38bc 504f 51bc
00000010: e5be 80bb 01eb 083b efc9 f93a c52f 963c
00000020: ba0c ccbc 6889 2e3c f875 15bc 3230 d1bb
00000030: a7fc d43c b42d 803c dfea 773c 5c4f 9a3c
00000040: 1dc9 d6bc 080f 37bd 8977 b83c beea 8cbb
0.0015401759 0.012192199 -0.011271849 -0.012775257 -0.0039290064 0.0020892026 0.0019057373 0.018333325
-0.024908412 0.010652877 -0.009122364 -0.006383919 0.02599938 0.015646793 0.015131681 0.01883667
-0.026218945 -0.04469207 0.022517936 -0.0043004444
